HloModule jit_training_step.89, input_output_alias={ {0}: (0, {}, may-alias), {1}: (1, {}, may-alias), {2}: (2, {}, may-alias), {3}: (3, {}, may-alias), {4}: (4, {}, may-alias), {5}: (5, {}, may-alias), {6}: (6, {}, may-alias), {7}: (7, {}, may-alias), {8}: (8, {}, may-alias), {9}: (9, {}, may-alias), {10}: (10, {}, may-alias), {11}: (11, {}, may-alias), {12}: (12, {}, may-alias), {13}: (13, {}, may-alias), {14}: (14, {}, may-alias), {15}: (15, {}, may-alias), {16}: (16, {}, may-alias), {17}: (17, {}, may-alias), {18}: (18, {}, may-alias), {19}: (19, {}, may-alias), {20}: (20, {}, may-alias), {21}: (21, {}, may-alias), {22}: (22, {}, may-alias), {23}: (23, {}, may-alias), {24}: (24, {}, may-alias), {25}: (25, {}, may-alias), {26}: (26, {}, may-alias), {27}: (27, {}, may-alias), {28}: (28, {}, may-alias), {29}: (29, {}, may-alias), {30}: (30, {}, may-alias), {31}: (31, {}, may-alias), {32}: (32, {}, may-alias), {33}: (33, {}, may-alias), {34}: (34, {}, may-alias), {35}: (35, {}, may-alias), {36}: (36, {}, may-alias) }

%fused_computation (param_0.2: s32[], param_1.3: s32[], param_2.6: f32[], param_3.10: f32[]) -> pred[] {
  %param_3.10 = f32[] parameter(3)
  %compare.128 = pred[] compare(f32[] %param_3.10, f32[] %param_3.10), direction=NE, metadata={op_name="jit(training_step)/jit(main)/jit(jvp(render_rays))/jit(jit_jvp(render_rays))/jit(jvp(vmap(argsort)))/jit(jit_jvp(vmap(argsort)))/ne" source_file="/home/brent/tensorf-jax/tensorf/render.py" source_line=410}
  %constant_452 = s32[] constant(2143289344)
  %constant_451 = f32[] constant(0)
  %compare.127 = pred[] compare(f32[] %param_3.10, f32[] %constant_451), direction=EQ, metadata={op_name="jit(training_step)/jit(main)/jit(jvp(render_rays))/jit(jit_jvp(render_rays))/jit(jvp(vmap(argsort)))/jit(jit_jvp(vmap(argsort)))/eq" source_file="/home/brent/tensorf-jax/tensorf/render.py" source_line=410}
  %constant_450 = s32[] constant(0)
  %bitcast-convert.19 = s32[] bitcast-convert(f32[] %param_3.10), metadata={op_name="jit(training_step)/jit(main)/jit(jvp(render_rays))/jit(jit_jvp(render_rays))/jit(jvp(vmap(argsort)))/jit(jit_jvp(vmap(argsort)))/bitcast_convert_type[new_dtype=int32]" source_file="/home/brent/tensorf-jax/tensorf/render.py" source_line=410}
  %select.121 = s32[] select(pred[] %compare.127, s32[] %constant_450, s32[] %bitcast-convert.19), metadata={op_name="jit(training_step)/jit(main)/jit(jvp(render_rays))/jit(jit_jvp(render_rays))/jit(jvp(vmap(argsort)))/jit(jit_jvp(vmap(argsort)))/select_n" source_file="/home/brent/tensorf-jax/tensorf/render.py" source_line=410}
  %select.120 = s32[] select(pred[] %compare.128, s32[] %constant_452, s32[] %select.121), metadata={op_name="jit(training_step)/jit(main)/jit(jvp(render_rays))/jit(jit_jvp(render_rays))/jit(jvp(vmap(argsort)))/jit(jit_jvp(vmap(argsort)))/select_n" source_file="/home/brent/tensorf-jax/tensorf/render.py" source_line=410}
  %compare.126 = pred[] compare(s32[] %select.120, s32[] %constant_450), direction=LT, metadata={op_name="jit(training_step)/jit(main)/jit(jvp(render_rays))/jit(jit_jvp(render_rays))/jit(jvp(vmap(argsort)))/jit(jit_jvp(vmap(argsort)))/lt" source_file="/home/brent/tensorf-jax/tensorf/render.py" source_line=410}
  %constant_449 = u32[] constant(2147483647)
  %bitcast-convert.18 = u32[] bitcast-convert(f32[] %param_3.10), metadata={op_name="jit(training_step)/jit(main)/jit(jvp(render_rays))/jit(jit_jvp(render_rays))/jit(jvp(vmap(argsort)))/jit(jit_jvp(vmap(argsort)))/bitcast_convert_type[new_dtype=uint32]" source_file="/home/brent/tensorf-jax/tensorf/render.py" source_line=410}
  %subtract.62 = u32[] subtract(u32[] %constant_449, u32[] %bitcast-convert.18), metadata={op_name="jit(training_step)/jit(main)/jit(jvp(render_rays))/jit(jit_jvp(render_rays))/jit(jvp(vmap(argsort)))/jit(jit_jvp(vmap(argsort)))/sub" source_file="/home/brent/tensorf-jax/tensorf/render.py" source_line=410}
  %bitcast-convert.17 = s32[] bitcast-convert(u32[] %subtract.62), metadata={op_name="jit(training_step)/jit(main)/jit(jvp(render_rays))/jit(jit_jvp(render_rays))/jit(jvp(vmap(argsort)))/jit(jit_jvp(vmap(argsort)))/bitcast_convert_type[new_dtype=int32]" source_file="/home/brent/tensorf-jax/tensorf/render.py" source_line=410}
  %select.119 = s32[] select(pred[] %compare.126, s32[] %bitcast-convert.17, s32[] %select.120), metadata={op_name="jit(training_step)/jit(main)/jit(jvp(render_rays))/jit(jit_jvp(render_rays))/jit(jvp(vmap(argsort)))/jit(jit_jvp(vmap(argsort)))/select_n" source_file="/home/brent/tensorf-jax/tensorf/render.py" source_line=410}
  %param_2.6 = f32[] parameter(2)
  %compare.125 = pred[] compare(f32[] %param_2.6, f32[] %param_2.6), direction=NE, metadata={op_name="jit(training_step)/jit(main)/jit(jvp(render_rays))/jit(jit_jvp(render_rays))/jit(jvp(vmap(argsort)))/jit(jit_jvp(vmap(argsort)))/ne" source_file="/home/brent/tensorf-jax/tensorf/render.py" source_line=410}
  %compare.124 = pred[] compare(f32[] %param_2.6, f32[] %constant_451), direction=EQ, metadata={op_name="jit(training_step)/jit(main)/jit(jvp(render_rays))/jit(jit_jvp(render_rays))/jit(jvp(vmap(argsort)))/jit(jit_jvp(vmap(argsort)))/eq" source_file="/home/brent/tensorf-jax/tensorf/render.py" source_line=410}
  %bitcast-convert.16 = s32[] bitcast-convert(f32[] %param_2.6), metadata={op_name="jit(training_step)/jit(main)/jit(jvp(render_rays))/jit(jit_jvp(render_rays))/jit(jvp(vmap(argsort)))/jit(jit_jvp(vmap(argsort)))/bitcast_convert_type[new_dtype=int32]" source_file="/home/brent/tensorf-jax/tensorf/render.py" source_line=410}
  %select.118 = s32[] select(pred[] %compare.124, s32[] %constant_450, s32[] %bitcast-convert.16), metadata={op_name="jit(training_step)/jit(main)/jit(jvp(render_rays))/jit(jit_jvp(render_rays))/jit(jvp(vmap(argsort)))/jit(jit_jvp(vmap(argsort)))/select_n" source_file="/home/brent/tensorf-jax/tensorf/render.py" source_line=410}
  %select.117 = s32[] select(pred[] %compare.125, s32[] %constant_452, s32[] %select.118), metadata={op_name="jit(training_step)/jit(main)/jit(jvp(render_rays))/jit(jit_jvp(render_rays))/jit(jvp(vmap(argsort)))/jit(jit_jvp(vmap(argsort)))/select_n" source_file="/home/brent/tensorf-jax/tensorf/render.py" source_line=410}
  %compare.123 = pred[] compare(s32[] %select.117, s32[] %constant_450), direction=LT, metadata={op_name="jit(training_step)/jit(main)/jit(jvp(render_rays))/jit(jit_jvp(render_rays))/jit(jvp(vmap(argsort)))/jit(jit_jvp(vmap(argsort)))/lt" source_file="/home/brent/tensorf-jax/tensorf/render.py" source_line=410}
  %bitcast-convert.15 = u32[] bitcast-convert(f32[] %param_2.6), metadata={op_name="jit(training_step)/jit(main)/jit(jvp(render_rays))/jit(jit_jvp(render_rays))/jit(jvp(vmap(argsort)))/jit(jit_jvp(vmap(argsort)))/bitcast_convert_type[new_dtype=uint32]" source_file="/home/brent/tensorf-jax/tensorf/render.py" source_line=410}
  %subtract.61 = u32[] subtract(u32[] %constant_449, u32[] %bitcast-convert.15), metadata={op_name="jit(training_step)/jit(main)/jit(jvp(render_rays))/jit(jit_jvp(render_rays))/jit(jvp(vmap(argsort)))/jit(jit_jvp(vmap(argsort)))/sub" source_file="/home/brent/tensorf-jax/tensorf/render.py" source_line=410}
  %bitcast-convert.14 = s32[] bitcast-convert(u32[] %subtract.61), metadata={op_name="jit(training_step)/jit(main)/jit(jvp(render_rays))/jit(jit_jvp(render_rays))/jit(jvp(vmap(argsort)))/jit(jit_jvp(vmap(argsort)))/bitcast_convert_type[new_dtype=int32]" source_file="/home/brent/tensorf-jax/tensorf/render.py" source_line=410}
  %select.116 = s32[] select(pred[] %compare.123, s32[] %bitcast-convert.14, s32[] %select.117), metadata={op_name="jit(training_step)/jit(main)/jit(jvp(render_rays))/jit(jit_jvp(render_rays))/jit(jvp(vmap(argsort)))/jit(jit_jvp(vmap(argsort)))/select_n" source_file="/home/brent/tensorf-jax/tensorf/render.py" source_line=410}
  %compare.122 = pred[] compare(s32[] %select.119, s32[] %select.116), direction=LT, metadata={op_name="jit(training_step)/jit(main)/jit(jvp(render_rays))/jit(jit_jvp(render_rays))/jit(jvp(vmap(argsort)))/jit(jit_jvp(vmap(argsort)))/lt" source_file="/home/brent/tensorf-jax/tensorf/render.py" source_line=410}
  %compare.121 = pred[] compare(s32[] %select.116, s32[] %select.119), direction=LT, metadata={op_name="jit(training_step)/jit(main)/jit(jvp(render_rays))/jit(jit_jvp(render_rays))/jit(jvp(vmap(argsort)))/jit(jit_jvp(vmap(argsort)))/lt" source_file="/home/brent/tensorf-jax/tensorf/render.py" source_line=410}
  %compare.120 = pred[] compare(pred[] %compare.122, pred[] %compare.121), direction=EQ
  %param_0.2 = s32[] parameter(0)
  %param_1.3 = s32[] parameter(1)
  %compare.119 = pred[] compare(s32[] %param_0.2, s32[] %param_1.3), direction=LT
  ROOT %select.115 = pred[] select(pred[] %compare.120, pred[] %compare.119, pred[] %compare.122)
}

%region_5.625.clone (Arg_0.0: f32[], Arg_1.0: f32[], Arg_2.0: s32[], Arg_3.0: s32[], p.2.lhs.clone: s32[], p.2.rhs.clone: s32[]) -> pred[] {
  %Arg_2.0 = s32[] parameter(2)
  %Arg_3.0 = s32[] parameter(3)
  %p.2.lhs.clone = s32[] parameter(4)
  %p.2.rhs.clone = s32[] parameter(5)
  %Arg_1.0 = f32[] parameter(1)
  %Arg_0.0 = f32[] parameter(0)
  ROOT %fusion = pred[] fusion(s32[] %p.2.lhs.clone, s32[] %p.2.rhs.clone, f32[] %Arg_1.0, f32[] %Arg_0.0), kind=kLoop, calls=%fused_computation
}

%region_27.1710 (Arg_0.1711: f32[], Arg_1.1712: f32[]) -> f32[] {
  %Arg_0.1711 = f32[] parameter(0)
  %Arg_1.1712 = f32[] parameter(1)
  ROOT %add.1713 = f32[] add(f32[] %Arg_0.1711, f32[] %Arg_1.1712), metadata={op_name="jit(training_step)/jit(main)/jit(transpose(jvp(render_rays)))/jit(jit_transpose(jvp(render_rays)))/reduce_sum[axes=(0,)]" source_file="/home/brent/miniconda/envs/py38/lib/python3.8/site-packages/flax/linen/linear.py" source_line=195}
}

%fused_computation.1 (param_0.363: f32[]) -> (f32[], f32[]) {
  %param_0.363 = f32[] parameter(0)
  %constant_471 = f32[] constant(8.13802108e-05)
  %multiply.396 = f32[] multiply(f32[] %param_0.363, f32[] %constant_471), metadata={op_name="jit(training_step)/jit(main)/div" source_file="/home/brent/tensorf-jax/tensorf/training.py" source_line=291}
  %constant_454 = f32[] constant(1e-10)
  %maximum.59 = f32[] maximum(f32[] %multiply.396, f32[] %constant_454), metadata={op_name="jit(training_step)/jit(main)/max" source_file="/home/brent/tensorf-jax/tensorf/utils.py" source_line=8}
  %log.3 = f32[] log(f32[] %maximum.59), metadata={op_name="jit(training_step)/jit(main)/log" source_file="/home/brent/tensorf-jax/tensorf/utils.py" source_line=17}
  %constant_453 = f32[] constant(-4.34294462)
  %multiply.232 = f32[] multiply(f32[] %log.3, f32[] %constant_453), metadata={op_name="jit(training_step)/jit(main)/mul" source_file="/home/brent/tensorf-jax/tensorf/utils.py" source_line=17}
  ROOT %tuple.44 = (f32[], f32[]) tuple(f32[] %multiply.232, f32[] %multiply.396)
}

%region_10.1466 (Arg_0.1467: f32[], Arg_1.1468: f32[]) -> f32[] {
  %Arg_0.1467 = f32[] parameter(0)
  %Arg_1.1468 = f32[] parameter(1)
  ROOT %add.1469 = f32[] add(f32[] %Arg_0.1467, f32[] %Arg_1.1468), metadata={op_name="jit(training_step)/jit(main)/reduce_sum[axes=(0, 1)]" source_file="/home/brent/tensorf-jax/tensorf/training.py" source_line=291}
}

%input_fused_computation_reduce (param_0.364: f32[4096,3]) -> f32[] {
  %param_0.364 = f32[4096,3]{1,0} parameter(0)
  %multiply.233 = f32[4096,3]{1,0} multiply(f32[4096,3]{1,0} %param_0.364, f32[4096,3]{1,0} %param_0.364), metadata={op_name="jit(training_step)/jit(main)/mul" source_file="/home/brent/tensorf-jax/tensorf/training.py" source_line=291}
  %bitcast.74 = f32[12288]{0} bitcast(f32[4096,3]{1,0} %multiply.233)
  %constant_472 = f32[] constant(0)
  ROOT %reduce.36 = f32[] reduce(f32[12288]{0} %bitcast.74, f32[] %constant_472), dimensions={0}, to_apply=%region_10.1466, metadata={op_name="jit(training_step)/jit(main)/reduce_sum[axes=(0, 1)]" source_file="/home/brent/tensorf-jax/tensorf/training.py" source_line=291}
}

%fused_computation.2 (param_0.12: u32[2], param_1.10: u32[2]) -> (u32[2], u32[2], u32[2]) {
  %param_0.12 = u32[2]{0} parameter(0)
  %param_1.10 = u32[2]{0} parameter(1)
  %concatenate.100 = u32[4]{0} concatenate(u32[2]{0} %param_0.12, u32[2]{0} %param_1.10), dimensions={0}, metadata={op_name="jit(training_step)/jit(main)/concatenate[dimension=0]" source_file="/home/brent/tensorf-jax/tensorf/training.py" source_line=236}
  %bitcast.76 = u32[2,2]{1,0} bitcast(u32[4]{0} %concatenate.100), metadata={op_name="jit(training_step)/jit(main)/reshape[new_sizes=(2, 2) dimensions=None]" source_file="/home/brent/tensorf-jax/tensorf/training.py" source_line=236}
  %slice.274 = u32[1,2]{1,0} slice(u32[2,2]{1,0} %bitcast.76), slice={[1:2], [0:2]}, metadata={op_name="jit(training_step)/jit(main)/slice[start_indices=(1, 0) limit_indices=(2, 2) strides=(1, 1)]" source_file="/home/brent/tensorf-jax/tensorf/training.py" source_line=236}
  %bitcast.75 = u32[2]{0} bitcast(u32[1,2]{1,0} %slice.274), metadata={op_name="jit(training_step)/jit(main)/squeeze[dimensions=(0,)]" source_file="/home/brent/tensorf-jax/tensorf/training.py" source_line=236}
  %slice.358.clone.1 = u32[1]{0} slice(u32[2]{0} %param_0.12), slice={[1:2]}, metadata={op_name="jit(training_step)/jit(main)/jit(jvp(render_rays))/jit(jit_jvp(render_rays))/slice[start_indices=(1,) limit_indices=(2,) strides=(1,)]" source_file="/home/brent/tensorf-jax/tensorf/render.py" source_line=112}
  %bitcast.135.clone.1 = u32[] bitcast(u32[1]{0} %slice.358.clone.1), metadata={op_name="jit(training_step)/jit(main)/jit(jvp(render_rays))/jit(jit_jvp(render_rays))/squeeze[dimensions=(0,)]" source_file="/home/brent/tensorf-jax/tensorf/render.py" source_line=112}
  %broadcast.954.clone.1 = u32[2]{0} broadcast(u32[] %bitcast.135.clone.1), dimensions={}, metadata={op_name="jit(training_step)/jit(main)/jit(jvp(render_rays))/jit(jit_jvp(render_rays))/threefry2x32" source_file="/home/brent/tensorf-jax/tensorf/render.py" source_line=112}
  %slice.360.clone.1 = u32[1]{0} slice(u32[2]{0} %param_0.12), slice={[0:1]}, metadata={op_name="jit(training_step)/jit(main)/jit(jvp(render_rays))/jit(jit_jvp(render_rays))/slice[start_indices=(0,) limit_indices=(1,) strides=(1,)]" source_file="/home/brent/tensorf-jax/tensorf/render.py" source_line=112}
  %bitcast.136.clone.1 = u32[] bitcast(u32[1]{0} %slice.360.clone.1), metadata={op_name="jit(training_step)/jit(main)/jit(jvp(render_rays))/jit(jit_jvp(render_rays))/squeeze[dimensions=(0,)]" source_file="/home/brent/tensorf-jax/tensorf/render.py" source_line=112}
  %broadcast.955.clone.1 = u32[2]{0} broadcast(u32[] %bitcast.136.clone.1), dimensions={}, metadata={op_name="jit(training_step)/jit(main)/jit(jvp(render_rays))/jit(jit_jvp(render_rays))/threefry2x32" source_file="/home/brent/tensorf-jax/tensorf/render.py" source_line=112}
  ROOT %tuple.87 = (u32[2]{0}, u32[2]{0}, u32[2]{0}) tuple(u32[2]{0} %bitcast.75, u32[2]{0} %broadcast.954.clone.1, u32[2]{0} %broadcast.955.clone.1)
}

%fused_computation.3 (param_0.13: f32[3,16,128,128], param_1.976: f32[], param_2.996: f32[], param_3.881: f32[], param_4.645: f32[3,16,128,128], param_5.599: f32[3,16,128,128], param_6.528: f32[3,16,128,128], param_7.475: f32[3,16,128,128]) -> (f32[3,16,128,128], f32[3,16,128,128], f32[3,16,128,128]) {
  %param_0.13 = f32[3,16,128,128]{3,2,1,0} parameter(0)
  %param_5.599 = f32[3,16,128,128]{3,2,1,0} parameter(5)
  %param_6.528 = f32[3,16,128,128]{3,2,1,0} parameter(6)
  %add.491.clone.1 = f32[3,16,128,128]{3,2,1,0} add(f32[3,16,128,128]{3,2,1,0} %param_5.599, f32[3,16,128,128]{3,2,1,0} %param_6.528), metadata={op_name="jit(training_step)/jit(main)/jit(transpose(jvp(render_rays)))/jit(jit_transpose(jvp(render_rays)))/jit(transpose(jvp(interpolate)))/jit(jit_transpose(jvp(interpolate)))/jit(transpose(jvp(vmap(vmap(_map_coordinates)))))/jit(jit_transpose(jvp(vmap(vmap(_map_coordinates)))))/add_any" source_file="/home/brent/tensorf-jax/tensorf/tensor_vm.py" source_line=222}
  %constant_478_clone_1 = f32[] constant(0.0100000007)
  %broadcast.800.clone.1 = f32[3,16,128,128]{3,2,1,0} broadcast(f32[] %constant_478_clone_1), dimensions={}, metadata={op_name="jit(training_step)/jit(main)/mul" source_file="/home/brent/miniconda/envs/py38/lib/python3.8/site-packages/optax/_src/transform.py" source_line=81}
  %multiply.241.clone.1 = f32[3,16,128,128]{3,2,1,0} multiply(f32[3,16,128,128]{3,2,1,0} %add.491.clone.1, f32[3,16,128,128]{3,2,1,0} %broadcast.800.clone.1), metadata={op_name="jit(training_step)/jit(main)/mul" source_file="/home/brent/miniconda/envs/py38/lib/python3.8/site-packages/optax/_src/transform.py" source_line=81}
  %param_7.475 = f32[3,16,128,128]{3,2,1,0} parameter(7)
  %constant_479_clone_1 = f32[] constant(0.9)
  %broadcast.798.clone.1 = f32[3,16,128,128]{3,2,1,0} broadcast(f32[] %constant_479_clone_1), dimensions={}, metadata={op_name="jit(training_step)/jit(main)/mul" source_file="/home/brent/miniconda/envs/py38/lib/python3.8/site-packages/optax/_src/transform.py" source_line=81}
  %multiply.240.clone.1 = f32[3,16,128,128]{3,2,1,0} multiply(f32[3,16,128,128]{3,2,1,0} %param_7.475, f32[3,16,128,128]{3,2,1,0} %broadcast.798.clone.1), metadata={op_name="jit(training_step)/jit(main)/mul" source_file="/home/brent/miniconda/envs/py38/lib/python3.8/site-packages/optax/_src/transform.py" source_line=81}
  %add.336.clone.1 = f32[3,16,128,128]{3,2,1,0} add(f32[3,16,128,128]{3,2,1,0} %multiply.241.clone.1, f32[3,16,128,128]{3,2,1,0} %multiply.240.clone.1), metadata={op_name="jit(training_step)/jit(main)/add" source_file="/home/brent/miniconda/envs/py38/lib/python3.8/site-packages/optax/_src/transform.py" source_line=81}
  %param_2.996 = f32[] parameter(2)
  %broadcast.794 = f32[3,16,128,128]{3,2,1,0} broadcast(f32[] %param_2.996), dimensions={}, metadata={op_name="jit(training_step)/jit(main)/div" source_file="/home/brent/miniconda/envs/py38/lib/python3.8/site-packages/optax/_src/transform.py" source_line=87}
  %constant_477_clone_1 = f32[] constant(0.1)
  %broadcast.797.clone.1 = f32[3,16,128,128]{3,2,1,0} broadcast(f32[] %constant_477_clone_1), dimensions={}, metadata={op_name="jit(training_step)/jit(main)/div" source_file="/home/brent/tensorf-jax/tensorf/training.py" source_line=325}
  %multiply.239.clone.1 = f32[3,16,128,128]{3,2,1,0} multiply(f32[3,16,128,128]{3,2,1,0} %add.491.clone.1, f32[3,16,128,128]{3,2,1,0} %broadcast.797.clone.1), metadata={op_name="jit(training_step)/jit(main)/div" source_file="/home/brent/tensorf-jax/tensorf/training.py" source_line=325}
  %multiply.238.clone.1 = f32[3,16,128,128]{3,2,1,0} multiply(f32[3,16,128,128]{3,2,1,0} %multiply.239.clone.1, f32[3,16,128,128]{3,2,1,0} %multiply.239.clone.1), metadata={op_name="jit(training_step)/jit(main)/mul" source_file="/home/brent/miniconda/envs/py38/lib/python3.8/site-packages/optax/_src/transform.py" source_line=81}
  %constant_475_clone_1 = f32[] constant(0.01)
  %broadcast.796.clone.1 = f32[3,16,128,128]{3,2,1,0} broadcast(f32[] %constant_475_clone_1), dimensions={}, metadata={op_name="jit(training_step)/jit(main)/mul" source_file="/home/brent/miniconda/envs/py38/lib/python3.8/site-packages/optax/_src/transform.py" source_line=81}
  %multiply.237.clone.1 = f32[3,16,128,128]{3,2,1,0} multiply(f32[3,16,128,128]{3,2,1,0} %multiply.238.clone.1, f32[3,16,128,128]{3,2,1,0} %broadcast.796.clone.1), metadata={op_name="jit(training_step)/jit(main)/mul" source_file="/home/brent/miniconda/envs/py38/lib/python3.8/site-packages/optax/_src/transform.py" source_line=81}
  %param_4.645 = f32[3,16,128,128]{3,2,1,0} parameter(4)
  %constant_476_clone_1 = f32[] constant(0.99)
  %broadcast.795.clone.1 = f32[3,16,128,128]{3,2,1,0} broadcast(f32[] %constant_476_clone_1), dimensions={}, metadata={op_name="jit(training_step)/jit(main)/mul" source_file="/home/brent/miniconda/envs/py38/lib/python3.8/site-packages/optax/_src/transform.py" source_line=81}
  %multiply.236.clone.1 = f32[3,16,128,128]{3,2,1,0} multiply(f32[3,16,128,128]{3,2,1,0} %param_4.645, f32[3,16,128,128]{3,2,1,0} %broadcast.795.clone.1), metadata={op_name="jit(training_step)/jit(main)/mul" source_file="/home/brent/miniconda/envs/py38/lib/python3.8/site-packages/optax/_src/transform.py" source_line=81}
  %add.335.clone.1 = f32[3,16,128,128]{3,2,1,0} add(f32[3,16,128,128]{3,2,1,0} %multiply.237.clone.1, f32[3,16,128,128]{3,2,1,0} %multiply.236.clone.1), metadata={op_name="jit(training_step)/jit(main)/add" source_file="/home/brent/miniconda/envs/py38/lib/python3.8/site-packages/optax/_src/transform.py" source_line=81}
  %param_1.976 = f32[] parameter(1)
  %broadcast.793 = f32[3,16,128,128]{3,2,1,0} broadcast(f32[] %param_1.976), dimensions={}, metadata={op_name="jit(training_step)/jit(main)/div" source_file="/home/brent/miniconda/envs/py38/lib/python3.8/site-packages/optax/_src/transform.py" source_line=87}
  %divide.24 = f32[3,16,128,128]{3,2,1,0} divide(f32[3,16,128,128]{3,2,1,0} %add.335.clone.1, f32[3,16,128,128]{3,2,1,0} %broadcast.793), metadata={op_name="jit(training_step)/jit(main)/div" source_file="/home/brent/miniconda/envs/py38/lib/python3.8/site-packages/optax/_src/transform.py" source_line=87}
  %sqrt.0 = f32[3,16,128,128]{3,2,1,0} sqrt(f32[3,16,128,128]{3,2,1,0} %divide.24), metadata={op_name="jit(training_step)/jit(main)/sqrt" source_file="/home/brent/miniconda/envs/py38/lib/python3.8/site-packages/optax/_src/transform.py" source_line=302}
  %constant_474 = f32[] constant(1e-08)
  %broadcast.792 = f32[3,16,128,128]{3,2,1,0} broadcast(f32[] %constant_474), dimensions={}, metadata={op_name="jit(training_step)/jit(main)/add" source_file="/home/brent/miniconda/envs/py38/lib/python3.8/site-packages/optax/_src/transform.py" source_line=302}
  %add.334 = f32[3,16,128,128]{3,2,1,0} add(f32[3,16,128,128]{3,2,1,0} %sqrt.0, f32[3,16,128,128]{3,2,1,0} %broadcast.792), metadata={op_name="jit(training_step)/jit(main)/add" source_file="/home/brent/miniconda/envs/py38/lib/python3.8/site-packages/optax/_src/transform.py" source_line=302}
  %multiply.235 = f32[3,16,128,128]{3,2,1,0} multiply(f32[3,16,128,128]{3,2,1,0} %broadcast.794, f32[3,16,128,128]{3,2,1,0} %add.334)
  %divide.23 = f32[3,16,128,128]{3,2,1,0} divide(f32[3,16,128,128]{3,2,1,0} %add.336.clone.1, f32[3,16,128,128]{3,2,1,0} %multiply.235), metadata={op_name="jit(training_step)/jit(main)/div" source_file="/home/brent/miniconda/envs/py38/lib/python3.8/site-packages/optax/_src/transform.py" source_line=302}
  %param_3.881 = f32[] parameter(3)
  %constant_473 = f32[] constant(-0.02)
  %multiply.397 = f32[] multiply(f32[] %param_3.881, f32[] %constant_473), metadata={op_name="jit(training_step)/jit(main)/mul" source_file="/home/brent/tensorf-jax/tensorf/training.py" source_line=347}
  %broadcast.791 = f32[3,16,128,128]{3,2,1,0} broadcast(f32[] %multiply.397), dimensions={}, metadata={op_name="jit(training_step)/jit(main)/mul" source_file="/home/brent/tensorf-jax/tensorf/training.py" source_line=347}
  %multiply.234 = f32[3,16,128,128]{3,2,1,0} multiply(f32[3,16,128,128]{3,2,1,0} %divide.23, f32[3,16,128,128]{3,2,1,0} %broadcast.791), metadata={op_name="jit(training_step)/jit(main)/mul" source_file="/home/brent/tensorf-jax/tensorf/training.py" source_line=347}
  %add.333 = f32[3,16,128,128]{3,2,1,0} add(f32[3,16,128,128]{3,2,1,0} %param_0.13, f32[3,16,128,128]{3,2,1,0} %multiply.234), metadata={op_name="jit(training_step)/jit(main)/add" source_file="/home/brent/miniconda/envs/py38/lib/python3.8/site-packages/optax/_src/update.py" source_line=43}
  ROOT %tuple.46 = (f32[3,16,128,128]{3,2,1,0}, f32[3,16,128,128]{3,2,1,0}, f32[3,16,128,128]{3,2,1,0}) tuple(f32[3,16,128,128]{3,2,1,0} %add.333, f32[3,16,128,128]{3,2,1,0} %add.335.clone.1, f32[3,16,128,128]{3,2,1,0} %add.336.clone.1)
}

%region_24.1616 (Arg_0.1617: f32[], Arg_1.1618: f32[]) -> f32[] {
  %Arg_0.1617 = f32[] parameter(0)
  %Arg_1.1618 = f32[] parameter(1)
  ROOT %add.1619 = f32[] add(f32[] %Arg_0.1617, f32[] %Arg_1.1618), metadata={op_name="add" source_file="/home/brent/tensorf-jax/tensorf/render.py" source_line=452}
}

%input_fused_computation_scatter (param_0.741: f32[3,4096,221], param_1.974: f32[3,4096,221], param_2.994: f32[3,16,4096,221], param_3.879: f32[4096,221], param_4.643: f32[4096,221], param_5.596: pred[4096], param_6.521: f32[4096], param_7.466: f32[4096], param_8.381: f32[4096,221], param_9.256: f32[4096,221], param_10.177: f32[4096,221], param_11.132: f32[4096,110], param_12.111: f32[4096,110]) -> f32[3,16,128,128] {
  %constant_480 = f32[] constant(0)
  %broadcast.962 = f32[3,16,128,128]{3,2,1,0} broadcast(f32[] %constant_480), dimensions={}, metadata={op_name="jit(training_step)/jit(main)/jit(transpose(jvp(render_rays)))/jit(jit_transpose(jvp(render_rays)))/jit(transpose(jvp(interpolate)))/jit(jit_transpose(jvp(interpolate)))/jit(transpose(jvp(vmap(vmap(_map_coordinates)))))/jit(jit_transpose(jvp(vmap(vmap(_map_coordinates)))))/broadcast_in_dim[shape=(3, 16, 128, 128) broadcast_dimensions=()]" source_file="/home/brent/tensorf-jax/tensorf/tensor_vm.py" source_line=222}
  %iota.127 = s32[3,4096,221,1]{2,1,0,3} iota(), iota_dimension=0, metadata={op_name="jit(training_step)/jit(main)/jit(jvp(render_rays))/jit(jit_jvp(render_rays))/jit(jvp(interpolate))/jit(jit_jvp(interpolate))/jit(jvp(vmap(vmap(_map_coordinates))))/jit(jit_jvp(vmap(vmap(_map_coordinates))))/iota[dtype=int32 shape=(3, 4096, 221, 1) dimension=0]" source_file="/home/brent/tensorf-jax/tensorf/tensor_vm.py" source_line=222}
  %constant_1017 = s32[] constant(0)
  %broadcast.1443 = s32[3,4096,221]{2,1,0} broadcast(s32[] %constant_1017), dimensions={}, metadata={op_name="jit(training_step)/jit(main)/jit(jvp(render_rays))/jit(jit_jvp(render_rays))/jit(jvp(interpolate))/jit(jit_jvp(interpolate))/jit(jvp(vmap(vmap(_map_coordinates))))/jit(jit_jvp(vmap(vmap(_map_coordinates))))/jit(vmap(clip))/jit(jit_vmap(clip))/max" source_file="/home/brent/tensorf-jax/tensorf/tensor_vm.py" source_line=222}
  %param_1.974 = f32[3,4096,221]{2,1,0} parameter(1)
  %floor.143 = f32[3,4096,221]{2,1,0} floor(f32[3,4096,221]{2,1,0} %param_1.974), metadata={op_name="jit(training_step)/jit(main)/jit(jvp(render_rays))/jit(jit_jvp(render_rays))/jit(jvp(interpolate))/jit(jit_jvp(interpolate))/jit(jvp(vmap(vmap(_map_coordinates))))/jit(jit_jvp(vmap(vmap(_map_coordinates))))/floor" source_file="/home/brent/tensorf-jax/tensorf/tensor_vm.py" source_line=222}
  %convert.90 = s32[3,4096,221]{2,1,0} convert(f32[3,4096,221]{2,1,0} %floor.143), metadata={op_name="jit(training_step)/jit(main)/jit(jvp(render_rays))/jit(jit_jvp(render_rays))/jit(jvp(interpolate))/jit(jit_jvp(interpolate))/jit(jvp(vmap(vmap(_map_coordinates))))/jit(jit_jvp(vmap(vmap(_map_coordinates))))/convert_element_type[new_dtype=int32 weak_type=False]" source_file="/home/brent/tensorf-jax/tensorf/tensor_vm.py" source_line=222}
  %constant_1015 = s32[] constant(127)
  %broadcast.1442 = s32[3,4096,221]{2,1,0} broadcast(s32[] %constant_1015), dimensions={}, metadata={op_name="jit(training_step)/jit(main)/jit(jvp(render_rays))/jit(jit_jvp(render_rays))/jit(jvp(interpolate))/jit(jit_jvp(interpolate))/jit(jvp(vmap(vmap(_map_coordinates))))/jit(jit_jvp(vmap(vmap(_map_coordinates))))/jit(vmap(clip))/jit(jit_vmap(clip))/min" source_file="/home/brent/tensorf-jax/tensorf/tensor_vm.py" source_line=222}
  %clamp.79 = s32[3,4096,221]{2,1,0} clamp(s32[3,4096,221]{2,1,0} %broadcast.1443, s32[3,4096,221]{2,1,0} %convert.90, s32[3,4096,221]{2,1,0} %broadcast.1442), metadata={op_name="jit(training_step)/jit(main)/jit(jvp(render_rays))/jit(jit_jvp(render_rays))/jit(jvp(interpolate))/jit(jit_jvp(interpolate))/jit(jvp(vmap(vmap(_map_coordinates))))/jit(jit_jvp(vmap(vmap(_map_coordinates))))/jit(vmap(clip))/jit(jit_vmap(clip))/min" source_file="/home/brent/tensorf-jax/tensorf/tensor_vm.py" source_line=222}
  %compare.205 = pred[3,4096,221]{2,1,0} compare(s32[3,4096,221]{2,1,0} %clamp.79, s32[3,4096,221]{2,1,0} %broadcast.1443), direction=LT, metadata={op_name="jit(training_step)/jit(main)/jit(jvp(render_rays))/jit(jit_jvp(render_rays))/jit(jvp(interpolate))/jit(jit_jvp(interpolate))/jit(jvp(vmap(vmap(_map_coordinates))))/jit(jit_jvp(vmap(vmap(_map_coordinates))))/lt" source_file="/home/brent/tensorf-jax/tensorf/tensor_vm.py" source_line=222}
  %constant_1012 = s32[] constant(128)
  %broadcast.1441 = s32[3,4096,221]{2,1,0} broadcast(s32[] %constant_1012), dimensions={}, metadata={op_name="jit(training_step)/jit(main)/jit(jvp(render_rays))/jit(jit_jvp(render_rays))/jit(jvp(interpolate))/jit(jit_jvp(interpolate))/jit(jvp(vmap(vmap(_map_coordinates))))/jit(jit_jvp(vmap(vmap(_map_coordinates))))/add" source_file="/home/brent/tensorf-jax/tensorf/tensor_vm.py" source_line=222}
  %add.620 = s32[3,4096,221]{2,1,0} add(s32[3,4096,221]{2,1,0} %clamp.79, s32[3,4096,221]{2,1,0} %broadcast.1441), metadata={op_name="jit(training_step)/jit(main)/jit(jvp(render_rays))/jit(jit_jvp(render_rays))/jit(jvp(interpolate))/jit(jit_jvp(interpolate))/jit(jvp(vmap(vmap(_map_coordinates))))/jit(jit_jvp(vmap(vmap(_map_coordinates))))/add" source_file="/home/brent/tensorf-jax/tensorf/tensor_vm.py" source_line=222}
  %select.217 = s32[3,4096,221]{2,1,0} select(pred[3,4096,221]{2,1,0} %compare.205, s32[3,4096,221]{2,1,0} %add.620, s32[3,4096,221]{2,1,0} %clamp.79), metadata={op_name="jit(training_step)/jit(main)/jit(jvp(render_rays))/jit(jit_jvp(render_rays))/jit(jvp(interpolate))/jit(jit_jvp(interpolate))/jit(jvp(vmap(vmap(_map_coordinates))))/jit(jit_jvp(vmap(vmap(_map_coordinates))))/select_n" source_file="/home/brent/tensorf-jax/tensorf/tensor_vm.py" source_line=222}
  %bitcast.206 = s32[3,4096,221,1]{2,1,0,3} bitcast(s32[3,4096,221]{2,1,0} %select.217), metadata={op_name="jit(training_step)/jit(main)/jit(jvp(render_rays))/jit(jit_jvp(render_rays))/jit(jvp(interpolate))/jit(jit_jvp(interpolate))/jit(jvp(vmap(vmap(_map_coordinates))))/jit(jit_jvp(vmap(vmap(_map_coordinates))))/broadcast_in_dim[shape=(3, 4096, 221, 1) broadcast_dimensions=(0, 1, 2)]" source_file="/home/brent/tensorf-jax/tensorf/tensor_vm.py" source_line=222}
  %param_0.741 = f32[3,4096,221]{2,1,0} parameter(0)
  %floor.142 = f32[3,4096,221]{2,1,0} floor(f32[3,4096,221]{2,1,0} %param_0.741), metadata={op_name="jit(training_step)/jit(main)/jit(jvp(render_rays))/jit(jit_jvp(render_rays))/jit(jvp(interpolate))/jit(jit_jvp(interpolate))/jit(jvp(vmap(vmap(_map_coordinates))))/jit(jit_jvp(vmap(vmap(_map_coordinates))))/floor" source_file="/home/brent/tensorf-jax/tensorf/tensor_vm.py" source_line=222}
  %convert.89 = s32[3,4096,221]{2,1,0} convert(f32[3,4096,221]{2,1,0} %floor.142), metadata={op_name="jit(training_step)/jit(main)/jit(jvp(render_rays))/jit(jit_jvp(render_rays))/jit(jvp(interpolate))/jit(jit_jvp(interpolate))/jit(jvp(vmap(vmap(_map_coordinates))))/jit(jit_jvp(vmap(vmap(_map_coordinates))))/convert_element_type[new_dtype=int32 weak_type=False]" source_file="/home/brent/tensorf-jax/tensorf/tensor_vm.py" source_line=222}
  %clamp.78 = s32[3,4096,221]{2,1,0} clamp(s32[3,4096,221]{2,1,0} %broadcast.1443, s32[3,4096,221]{2,1,0} %convert.89, s32[3,4096,221]{2,1,0} %broadcast.1442), metadata={op_name="jit(training_step)/jit(main)/jit(jvp(render_rays))/jit(jit_jvp(render_rays))/jit(jvp(interpolate))/jit(jit_jvp(interpolate))/jit(jvp(vmap(vmap(_map_coordinates))))/jit(jit_jvp(vmap(vmap(_map_coordinates))))/jit(vmap(clip))/jit(jit_vmap(clip))/min" source_file="/home/brent/tensorf-jax/tensorf/tensor_vm.py" source_line=222}
  %compare.204 = pred[3,4096,221]{2,1,0} compare(s32[3,4096,221]{2,1,0} %clamp.78, s32[3,4096,221]{2,1,0} %broadcast.1443), direction=LT, metadata={op_name="jit(training_step)/jit(main)/jit(jvp(render_rays))/jit(jit_jvp(render_rays))/jit(jvp(interpolate))/jit(jit_jvp(interpolate))/jit(jvp(vmap(vmap(_map_coordinates))))/jit(jit_jvp(vmap(vmap(_map_coordinates))))/lt" source_file="/home/brent/tensorf-jax/tensorf/tensor_vm.py" source_line=222}
  %add.619 = s32[3,4096,221]{2,1,0} add(s32[3,4096,221]{2,1,0} %clamp.78, s32[3,4096,221]{2,1,0} %broadcast.1441), metadata={op_name="jit(training_step)/jit(main)/jit(jvp(render_rays))/jit(jit_jvp(render_rays))/jit(jvp(interpolate))/jit(jit_jvp(interpolate))/jit(jvp(vmap(vmap(_map_coordinates))))/jit(jit_jvp(vmap(vmap(_map_coordinates))))/add" source_file="/home/brent/tensorf-jax/tensorf/tensor_vm.py" source_line=222}
  %select.216 = s32[3,4096,221]{2,1,0} select(pred[3,4096,221]{2,1,0} %compare.204, s32[3,4096,221]{2,1,0} %add.619, s32[3,4096,221]{2,1,0} %clamp.78), metadata={op_name="jit(training_step)/jit(main)/jit(jvp(render_rays))/jit(jit_jvp(render_rays))/jit(jvp(interpolate))/jit(jit_jvp(interpolate))/jit(jvp(vmap(vmap(_map_coordinates))))/jit(jit_jvp(vmap(vmap(_map_coordinates))))/select_n" source_file="/home/brent/tensorf-jax/tensorf/tensor_vm.py" source_line=222}
  %bitcast.205 = s32[3,4096,221,1]{2,1,0,3} bitcast(s32[3,4096,221]{2,1,0} %select.216), metadata={op_name="jit(training_step)/jit(main)/jit(jvp(render_rays))/jit(jit_jvp(render_rays))/jit(jvp(interpolate))/jit(jit_jvp(interpolate))/jit(jvp(vmap(vmap(_map_coordinates))))/jit(jit_jvp(vmap(vmap(_map_coordinates))))/broadcast_in_dim[shape=(3, 4096, 221, 1) broadcast_dimensions=(0, 1, 2)]" source_file="/home/brent/tensorf-jax/tensorf/tensor_vm.py" source_line=222}
  %concatenate.166 = s32[3,4096,221,3]{2,1,0,3} concatenate(s32[3,4096,221,1]{2,1,0,3} %iota.127, s32[3,4096,221,1]{2,1,0,3} %bitcast.206, s32[3,4096,221,1]{2,1,0,3} %bitcast.205), dimensions={3}, metadata={op_name="jit(training_step)/jit(main)/jit(jvp(render_rays))/jit(jit_jvp(render_rays))/jit(jvp(interpolate))/jit(jit_jvp(interpolate))/jit(jvp(vmap(vmap(_map_coordinates))))/jit(jit_jvp(vmap(vmap(_map_coordinates))))/concatenate[dimension=3]" source_file="/home/brent/tensorf-jax/tensorf/tensor_vm.py" source_line=222}
  %copy.18 = s32[3,4096,221,3]{3,2,1,0} copy(s32[3,4096,221,3]{2,1,0,3} %concatenate.166), metadata={op_name="jit(training_step)/jit(main)/jit(jvp(render_rays))/jit(jit_jvp(render_rays))/jit(jvp(interpolate))/jit(jit_jvp(interpolate))/jit(jvp(vmap(vmap(_map_coordinates))))/jit(jit_jvp(vmap(vmap(_map_coordinates))))/concatenate[dimension=3]" source_file="/home/brent/tensorf-jax/tensorf/tensor_vm.py" source_line=222}
  %constant_972 = f32[] constant(1)
  %broadcast.1419 = f32[3,4096,221]{2,1,0} broadcast(f32[] %constant_972), dimensions={}, metadata={op_name="jit(training_step)/jit(main)/jit(jvp(render_rays))/jit(jit_jvp(render_rays))/jit(jvp(interpolate))/jit(jit_jvp(interpolate))/jit(jvp(vmap(vmap(_map_coordinates))))/jit(jit_jvp(vmap(vmap(_map_coordinates))))/sub" source_file="/home/brent/tensorf-jax/tensorf/tensor_vm.py" source_line=222}
  %subtract.172 = f32[3,4096,221]{2,1,0} subtract(f32[3,4096,221]{2,1,0} %param_1.974, f32[3,4096,221]{2,1,0} %floor.143), metadata={op_name="jit(training_step)/jit(main)/jit(jvp(render_rays))/jit(jit_jvp(render_rays))/jit(jvp(interpolate))/jit(jit_jvp(interpolate))/jit(jvp(vmap(vmap(_map_coordinates))))/jit(jit_jvp(vmap(vmap(_map_coordinates))))/sub" source_file="/home/brent/tensorf-jax/tensorf/tensor_vm.py" source_line=222}
  %subtract.171 = f32[3,4096,221]{2,1,0} subtract(f32[3,4096,221]{2,1,0} %broadcast.1419, f32[3,4096,221]{2,1,0} %subtract.172), metadata={op_name="jit(training_step)/jit(main)/jit(jvp(render_rays))/jit(jit_jvp(render_rays))/jit(jvp(interpolate))/jit(jit_jvp(interpolate))/jit(jvp(vmap(vmap(_map_coordinates))))/jit(jit_jvp(vmap(vmap(_map_coordinates))))/sub" source_file="/home/brent/tensorf-jax/tensorf/tensor_vm.py" source_line=222}
  %subtract.170 = f32[3,4096,221]{2,1,0} subtract(f32[3,4096,221]{2,1,0} %param_0.741, f32[3,4096,221]{2,1,0} %floor.142), metadata={op_name="jit(training_step)/jit(main)/jit(jvp(render_rays))/jit(jit_jvp(render_rays))/jit(jvp(interpolate))/jit(jit_jvp(interpolate))/jit(jvp(vmap(vmap(_map_coordinates))))/jit(jit_jvp(vmap(vmap(_map_coordinates))))/sub" source_file="/home/brent/tensorf-jax/tensorf/tensor_vm.py" source_line=222}
  %subtract.169 = f32[3,4096,221]{2,1,0} subtract(f32[3,4096,221]{2,1,0} %broadcast.1419, f32[3,4096,221]{2,1,0} %subtract.170), metadata={op_name="jit(training_step)/jit(main)/jit(jvp(render_rays))/jit(jit_jvp(render_rays))/jit(jvp(interpolate))/jit(jit_jvp(interpolate))/jit(jvp(vmap(vmap(_map_coordinates))))/jit(jit_jvp(vmap(vmap(_map_coordinates))))/sub" source_file="/home/brent/tensorf-jax/tensorf/tensor_vm.py" source_line=222}
  %multiply.439 = f32[3,4096,221]{2,1,0} multiply(f32[3,4096,221]{2,1,0} %subtract.171, f32[3,4096,221]{2,1,0} %subtract.169), metadata={op_name="jit(training_step)/jit(main)/jit(jvp(render_rays))/jit(jit_jvp(render_rays))/jit(jvp(interpolate))/jit(jit_jvp(interpolate))/jit(jvp(vmap(vmap(_map_coordinates))))/jit(jit_jvp(vmap(vmap(_map_coordinates))))/mul" source_file="/home/brent/tensorf-jax/tensorf/tensor_vm.py" source_line=222}
  %broadcast.1418 = f32[3,16,4096,221]{3,2,1,0} broadcast(f32[3,4096,221]{2,1,0} %multiply.439), dimensions={0,2,3}, metadata={op_name="jit(training_step)/jit(main)/jit(jvp(render_rays))/jit(jit_jvp(render_rays))/jit(jvp(interpolate))/jit(jit_jvp(interpolate))/jit(jvp(vmap(vmap(_map_coordinates))))/jit(jit_jvp(vmap(vmap(_map_coordinates))))/mul" source_file="/home/brent/tensorf-jax/tensorf/tensor_vm.py" source_line=222}
  %param_2.994 = f32[3,16,4096,221]{3,2,1,0} parameter(2)
  %param_10.177 = f32[4096,221]{1,0} parameter(10)
  %slice.730 = f32[4096,1]{1,0} slice(f32[4096,221]{1,0} %param_10.177), slice={[0:4096], [220:221]}, metadata={op_name="jit(training_step)/jit(main)/jit(transpose(jvp(render_rays)))/jit(jit_transpose(jvp(render_rays)))/jit(transpose(jvp(_cumulative_reduction)))/jit(jit_transpose(jvp(_cumulative_reduction)))/slice[start_indices=(0, 0) limit_indices=(4096, 1) strides=(1, 1)]" source_file="/home/brent/tensorf-jax/tensorf/render.py" source_line=272}
  %param_11.132 = f32[4096,110]{1,0} parameter(11)
  %param_12.111 = f32[4096,110]{1,0} parameter(12)
  %add.1063 = f32[4096,110]{1,0} add(f32[4096,110]{1,0} %param_11.132, f32[4096,110]{1,0} %param_12.111), metadata={op_name="jit(training_step)/jit(main)/jit(transpose(jvp(render_rays)))/jit(jit_transpose(jvp(render_rays)))/jit(transpose(jvp(_cumulative_reduction)))/jit(jit_transpose(jvp(_cumulative_reduction)))/add" source_file="/home/brent/tensorf-jax/tensorf/render.py" source_line=272}
  %slice.729 = f32[4096,110]{1,0} slice(f32[4096,221]{1,0} %param_10.177), slice={[0:4096:1], [0:219:2]}, metadata={op_name="jit(training_step)/jit(main)/jit(transpose(jvp(render_rays)))/jit(jit_transpose(jvp(render_rays)))/jit(transpose(jvp(_cumulative_reduction)))/jit(jit_transpose(jvp(_cumulative_reduction)))/slice[start_indices=(0, 2) limit_indices=(4096, 221) strides=(1, 2)]" source_file="/home/brent/tensorf-jax/tensorf/render.py" source_line=272}
  %reverse.45 = f32[4096,110]{1,0} reverse(f32[4096,110]{1,0} %slice.729), dimensions={1}, metadata={op_name="jit(training_step)/jit(main)/jit(transpose(jvp(render_rays)))/jit(jit_transpose(jvp(render_rays)))/jit(transpose(jvp(_cumulative_reduction)))/jit(jit_transpose(jvp(_cumulative_reduction)))/slice[start_indices=(0, 2) limit_indices=(4096, 221) strides=(1, 2)]" source_file="/home/brent/tensorf-jax/tensorf/render.py" source_line=272}
  %add.1062 = f32[4096,110]{1,0} add(f32[4096,110]{1,0} %add.1063, f32[4096,110]{1,0} %reverse.45), metadata={op_name="jit(training_step)/jit(main)/jit(transpose(jvp(render_rays)))/jit(jit_transpose(jvp(render_rays)))/jit(transpose(jvp(_cumulative_reduction)))/jit(jit_transpose(jvp(_cumulative_reduction)))/add" source_file="/home/brent/tensorf-jax/tensorf/render.py" source_line=272}
  %concatenate.263 = f32[4096,111]{1,0} concatenate(f32[4096,1]{1,0} %slice.730, f32[4096,110]{1,0} %add.1062), dimensions={1}, metadata={op_name="jit(training_step)/jit(main)/jit(transpose(jvp(render_rays)))/jit(jit_transpose(jvp(render_rays)))/jit(transpose(jvp(_cumulative_reduction)))/jit(jit_transpose(jvp(_cumulative_reduction)))/concatenate[dimension=1]" source_file="/home/brent/tensorf-jax/tensorf/render.py" source_line=272}
  %pad.200 = f32[4096,221]{1,0} pad(f32[4096,111]{1,0} %concatenate.263, f32[] %constant_480), padding=0_0_0x0_0_1, metadata={op_name="jit(training_step)/jit(main)/jit(transpose(jvp(render_rays)))/jit(jit_transpose(jvp(render_rays)))/jit(transpose(jvp(_cumulative_reduction)))/jit(jit_transpose(jvp(_cumulative_reduction)))/pad[padding_config=((0, 0, 0), (0, 0, 1))]" source_file="/home/brent/tensorf-jax/tensorf/render.py" source_line=272}
  %pad.199 = f32[4096,221]{1,0} pad(f32[4096,110]{1,0} %add.1063, f32[] %constant_480), padding=0_0_0x1_1_1, metadata={op_name="jit(training_step)/jit(main)/jit(transpose(jvp(render_rays)))/jit(jit_transpose(jvp(render_rays)))/jit(transpose(jvp(_cumulative_reduction)))/jit(jit_transpose(jvp(_cumulative_reduction)))/pad[padding_config=((0, 0, 0), (1, 1, 1))]" source_file="/home/brent/tensorf-jax/tensorf/render.py" source_line=272}
  %add.1061 = f32[4096,221]{1,0} add(f32[4096,221]{1,0} %pad.200, f32[4096,221]{1,0} %pad.199), metadata={op_name="jit(training_step)/jit(main)/jit(transpose(jvp(render_rays)))/jit(jit_transpose(jvp(render_rays)))/jit(transpose(jvp(_cumulative_reduction)))/jit(jit_transpose(jvp(_cumulative_reduction)))/add" source_file="/home/brent/tensorf-jax/tensorf/render.py" source_line=272}
  %reverse.44 = f32[4096,221]{1,0} reverse(f32[4096,221]{1,0} %add.1061), dimensions={1}, metadata={op_name="jit(training_step)/jit(main)/jit(transpose(jvp(render_rays)))/jit(jit_transpose(jvp(render_rays)))/jit(transpose(jvp(_cumulative_reduction)))/jit(jit_transpose(jvp(_cumulative_reduction)))/rev[dimensions=(1,)]" source_file="/home/brent/tensorf-jax/tensorf/render.py" source_line=272}
  %param_8.381 = f32[4096,221]{1,0} parameter(8)
  %param_9.256 = f32[4096,221]{1,0} parameter(9)
  %slice.728 = f32[4096,220]{1,0} slice(f32[4096,221]{1,0} %param_9.256), slice={[0:4096], [0:220]}, metadata={op_name="jit(training_step)/jit(main)/jit(jvp(render_rays))/jit(jit_jvp(render_rays))/gather[dimension_numbers=GatherDimensionNumbers(offset_dims=(0, 1), collapsed_slice_dims=(), start_index_map=(1,)) slice_sizes=(4096, 220) unique_indices=True indices_are_sorted=True mode=GatherScatterMode.PROMISE_IN_BOUNDS fill_value=None]" source_file="/home/brent/tensorf-jax/tensorf/render.py" source_line=286}
  %pad.198 = f32[4096,221]{1,0} pad(f32[4096,220]{1,0} %slice.728, f32[] %constant_972), padding=0_0x1_0, metadata={op_name="jit(training_step)/jit(main)/jit(jvp(render_rays))/jit(jit_jvp(render_rays))/concatenate[dimension=1]" source_file="/home/brent/tensorf-jax/tensorf/render.py" source_line=283}
  %multiply.673 = f32[4096,221]{1,0} multiply(f32[4096,221]{1,0} %param_8.381, f32[4096,221]{1,0} %pad.198), metadata={op_name="jit(training_step)/jit(main)/jit(transpose(jvp(render_rays)))/jit(jit_transpose(jvp(render_rays)))/mul" source_file="/home/brent/tensorf-jax/tensorf/render.py" source_line=280}
  %negate.79 = f32[4096,221]{1,0} negate(f32[4096,221]{1,0} %multiply.673), metadata={op_name="jit(training_step)/jit(main)/jit(transpose(jvp(render_rays)))/jit(jit_transpose(jvp(render_rays)))/neg" source_file="/home/brent/tensorf-jax/tensorf/render.py" source_line=276}
  %param_3.879 = f32[4096,221]{1,0} parameter(3)
  %negate.78 = f32[4096,221]{1,0} negate(f32[4096,221]{1,0} %param_3.879), metadata={op_name="jit(training_step)/jit(main)/jit(jvp(render_rays))/jit(jit_jvp(render_rays))/neg" source_file="/home/brent/tensorf-jax/tensorf/render.py" source_line=271}
  %param_5.596 = pred[4096]{0} parameter(5)
  %param_7.466 = f32[4096]{0} parameter(7)
  %param_6.521 = f32[4096]{0} parameter(6)
  %constant_1864 = f32[] constant(0.001)
  %broadcast.2334 = f32[4096]{0} broadcast(f32[] %constant_1864), dimensions={}, metadata={op_name="jit(training_step)/jit(main)/jit(jvp(render_rays))/jit(jit_jvp(render_rays))/add" source_file="/home/brent/tensorf-jax/tensorf/render.py" source_line=374}
  %add.1060 = f32[4096]{0} add(f32[4096]{0} %param_6.521, f32[4096]{0} %broadcast.2334), metadata={op_name="jit(training_step)/jit(main)/jit(jvp(render_rays))/jit(jit_jvp(render_rays))/add" source_file="/home/brent/tensorf-jax/tensorf/render.py" source_line=374}
  %maximum.113 = f32[4096]{0} maximum(f32[4096]{0} %param_7.466, f32[4096]{0} %add.1060), metadata={op_name="jit(training_step)/jit(main)/jit(jvp(render_rays))/jit(jit_jvp(render_rays))/max" source_file="/home/brent/tensorf-jax/tensorf/render.py" source_line=374}
  %select.461 = f32[4096]{0} select(pred[4096]{0} %param_5.596, f32[4096]{0} %maximum.113, f32[4096]{0} %broadcast.2334), metadata={op_name="jit(training_step)/jit(main)/jit(jvp(render_rays))/jit(jit_jvp(render_rays))/jit(vmap(_where))/jit(jit_vmap(_where))/select_n" source_file="/home/brent/tensorf-jax/tensorf/render.py" source_line=379}
  %broadcast.2333 = f32[4096]{0} broadcast(f32[] %constant_480), dimensions={}, metadata={op_name="jit(training_step)/jit(main)/jit(jvp(render_rays))/jit(jit_jvp(render_rays))/max" source_file="/home/brent/tensorf-jax/tensorf/render.py" source_line=372}
  %select.460 = f32[4096]{0} select(pred[4096]{0} %param_5.596, f32[4096]{0} %param_6.521, f32[4096]{0} %broadcast.2333), metadata={op_name="jit(training_step)/jit(main)/jit(jvp(render_rays))/jit(jit_jvp(render_rays))/jit(vmap(_where))/jit(jit_vmap(_where))/select_n" source_file="/home/brent/tensorf-jax/tensorf/render.py" source_line=378}
  %subtract.402 = f32[4096]{0} subtract(f32[4096]{0} %select.461, f32[4096]{0} %select.460), metadata={op_name="jit(training_step)/jit(main)/jit(jvp(render_rays))/jit(jit_jvp(render_rays))/sub" source_file="/home/brent/tensorf-jax/tensorf/render.py" source_line=319}
  %constant_1862 = f32[] constant(0.00452488707)
  %broadcast.2332 = f32[4096]{0} broadcast(f32[] %constant_1862), dimensions={}, metadata={op_name="jit(training_step)/jit(main)/jit(jvp(render_rays))/jit(jit_jvp(render_rays))/div" source_file="/home/brent/tensorf-jax/tensorf/render.py" source_line=319}
  %multiply.672 = f32[4096]{0} multiply(f32[4096]{0} %subtract.402, f32[4096]{0} %broadcast.2332), metadata={op_name="jit(training_step)/jit(main)/jit(jvp(render_rays))/jit(jit_jvp(render_rays))/div" source_file="/home/brent/tensorf-jax/tensorf/render.py" source_line=319}
  %broadcast.2331 = f32[4096,221]{1,0} broadcast(f32[4096]{0} %multiply.672), dimensions={0}, metadata={op_name="jit(training_step)/jit(main)/jit(jvp(render_rays))/jit(jit_jvp(render_rays))/mul" source_file="/home/brent/tensorf-jax/tensorf/render.py" source_line=330}
  %multiply.671 = f32[4096,221]{1,0} multiply(f32[4096,221]{1,0} %negate.78, f32[4096,221]{1,0} %broadcast.2331), metadata={op_name="jit(training_step)/jit(main)/jit(jvp(render_rays))/jit(jit_jvp(render_rays))/mul" source_file="/home/brent/tensorf-jax/tensorf/render.py" source_line=271}
  %exponential.48 = f32[4096,221]{1,0} exponential(f32[4096,221]{1,0} %multiply.671), metadata={op_name="jit(training_step)/jit(main)/jit(jvp(render_rays))/jit(jit_jvp(render_rays))/exp" source_file="/home/brent/tensorf-jax/tensorf/render.py" source_line=276}
  %multiply.670 = f32[4096,221]{1,0} multiply(f32[4096,221]{1,0} %negate.79, f32[4096,221]{1,0} %exponential.48), metadata={op_name="jit(training_step)/jit(main)/jit(transpose(jvp(render_rays)))/jit(jit_transpose(jvp(render_rays)))/mul" source_file="/home/brent/tensorf-jax/tensorf/render.py" source_line=276}
  %add.1059 = f32[4096,221]{1,0} add(f32[4096,221]{1,0} %reverse.44, f32[4096,221]{1,0} %multiply.670), metadata={op_name="jit(training_step)/jit(main)/jit(transpose(jvp(render_rays)))/jit(jit_transpose(jvp(render_rays)))/add_any" source_file="/home/brent/tensorf-jax/tensorf/render.py" source_line=276}
  %multiply.668 = f32[4096,221]{1,0} multiply(f32[4096,221]{1,0} %add.1059, f32[4096,221]{1,0} %broadcast.2331), metadata={op_name="jit(training_step)/jit(main)/jit(transpose(jvp(render_rays)))/jit(jit_transpose(jvp(render_rays)))/mul" source_file="/home/brent/tensorf-jax/tensorf/render.py" source_line=271}
  %negate.77 = f32[4096,221]{1,0} negate(f32[4096,221]{1,0} %multiply.668), metadata={op_name="jit(training_step)/jit(main)/jit(transpose(jvp(render_rays)))/jit(jit_transpose(jvp(render_rays)))/neg" source_file="/home/brent/tensorf-jax/tensorf/render.py" source_line=271}
  %param_4.643 = f32[4096,221]{1,0} parameter(4)
  %constant_1861 = f32[] constant(10)
  %broadcast.2326 = f32[4096,221]{1,0} broadcast(f32[] %constant_1861), dimensions={}, metadata={op_name="jit(training_step)/jit(main)/jit(jvp(render_rays))/jit(jit_jvp(render_rays))/add" source_file="/home/brent/tensorf-jax/tensorf/render.py" source_line=156}
  %add.1057 = f32[4096,221]{1,0} add(f32[4096,221]{1,0} %param_4.643, f32[4096,221]{1,0} %broadcast.2326), metadata={op_name="jit(training_step)/jit(main)/jit(jvp(render_rays))/jit(jit_jvp(render_rays))/add" source_file="/home/brent/tensorf-jax/tensorf/render.py" source_line=156}
  %constant_1860 = f32[] constant(inf)
  %broadcast.2325 = f32[4096,221]{1,0} broadcast(f32[] %constant_1860), dimensions={}, metadata={op_name="jit(training_step)/jit(main)/jit(jvp(render_rays))/jit(jit_jvp(render_rays))/jit(jvp(softplus))/jit(jit_jvp(softplus))/eq" source_file="/home/brent/tensorf-jax/tensorf/render.py" source_line=156}
  %compare.359 = pred[4096,221]{1,0} compare(f32[4096,221]{1,0} %add.1057, f32[4096,221]{1,0} %broadcast.2325), direction=EQ, metadata={op_name="jit(training_step)/jit(main)/jit(jvp(render_rays))/jit(jit_jvp(render_rays))/jit(jvp(softplus))/jit(jit_jvp(softplus))/eq" source_file="/home/brent/tensorf-jax/tensorf/render.py" source_line=156}
  %broadcast.2324 = f32[4096,221]{1,0} broadcast(f32[] %constant_480), dimensions={}, metadata={op_name="jit(training_step)/jit(main)/jit(jvp(render_rays))/jit(jit_jvp(render_rays))/jit(jvp(softplus))/jit(jit_jvp(softplus))/jit(logaddexp)/jit(jit_logaddexp)/max" source_file="/home/brent/tensorf-jax/tensorf/render.py" source_line=156}
  %select.457 = f32[4096,221]{1,0} select(pred[4096,221]{1,0} %compare.359, f32[4096,221]{1,0} %broadcast.2324, f32[4096,221]{1,0} %add.1057), metadata={op_name="jit(training_step)/jit(main)/jit(jvp(render_rays))/jit(jit_jvp(render_rays))/jit(jvp(softplus))/jit(jit_jvp(softplus))/select_n" source_file="/home/brent/tensorf-jax/tensorf/render.py" source_line=156}
  %compare.358 = pred[4096,221]{1,0} compare(f32[4096,221]{1,0} %param_3.879, f32[4096,221]{1,0} %broadcast.2325), direction=EQ, metadata={op_name="jit(training_step)/jit(main)/jit(jvp(render_rays))/jit(jit_jvp(render_rays))/jit(jvp(softplus))/jit(jit_jvp(softplus))/eq" source_file="/home/brent/tensorf-jax/tensorf/render.py" source_line=156}
  %select.456 = f32[4096,221]{1,0} select(pred[4096,221]{1,0} %compare.358, f32[4096,221]{1,0} %broadcast.2324, f32[4096,221]{1,0} %param_3.879), metadata={op_name="jit(training_step)/jit(main)/jit(jvp(render_rays))/jit(jit_jvp(render_rays))/jit(jvp(softplus))/jit(jit_jvp(softplus))/select_n" source_file="/home/brent/tensorf-jax/tensorf/render.py" source_line=156}
  %subtract.400 = f32[4096,221]{1,0} subtract(f32[4096,221]{1,0} %select.457, f32[4096,221]{1,0} %select.456), metadata={op_name="jit(training_step)/jit(main)/jit(jvp(render_rays))/jit(jit_jvp(render_rays))/jit(jvp(softplus))/jit(jit_jvp(softplus))/sub" source_file="/home/brent/tensorf-jax/tensorf/render.py" source_line=156}
  %exponential.47 = f32[4096,221]{1,0} exponential(f32[4096,221]{1,0} %subtract.400), metadata={op_name="jit(training_step)/jit(main)/jit(jvp(render_rays))/jit(jit_jvp(render_rays))/jit(jvp(softplus))/jit(jit_jvp(softplus))/exp" source_file="/home/brent/tensorf-jax/tensorf/render.py" source_line=156}
  %multiply.667 = f32[4096,221]{1,0} multiply(f32[4096,221]{1,0} %negate.77, f32[4096,221]{1,0} %exponential.47), metadata={op_name="jit(training_step)/jit(main)/jit(transpose(jvp(render_rays)))/jit(jit_transpose(jvp(render_rays)))/jit(transpose(jvp(softplus)))/jit(jit_transpose(jvp(softplus)))/mul" source_file="/home/brent/tensorf-jax/tensorf/render.py" source_line=156}
  %broadcast.2323 = f32[3,16,4096,221]{2,1,0,3} broadcast(f32[4096,221]{1,0} %multiply.667), dimensions={2,3}, metadata={op_name="jit(training_step)/jit(main)/jit(transpose(jvp(render_rays)))/jit(jit_transpose(jvp(render_rays)))/jit(transpose(jvp(interpolate)))/jit(jit_transpose(jvp(interpolate)))/reshape[new_sizes=(3, 16, 4096, 221) dimensions=None]" source_file="/home/brent/tensorf-jax/tensorf/tensor_vm.py" source_line=95}
  %copy.41 = f32[3,16,4096,221]{3,2,1,0} copy(f32[3,16,4096,221]{2,1,0,3} %broadcast.2323), metadata={op_name="jit(training_step)/jit(main)/jit(transpose(jvp(render_rays)))/jit(jit_transpose(jvp(render_rays)))/jit(transpose(jvp(interpolate)))/jit(jit_transpose(jvp(interpolate)))/reshape[new_sizes=(3, 16, 4096, 221) dimensions=None]" source_file="/home/brent/tensorf-jax/tensorf/tensor_vm.py" source_line=95}
  %multiply.666 = f32[3,16,4096,221]{3,2,1,0} multiply(f32[3,16,4096,221]{3,2,1,0} %param_2.994, f32[3,16,4096,221]{3,2,1,0} %copy.41), metadata={op_name="jit(training_step)/jit(main)/jit(transpose(jvp(render_rays)))/jit(jit_transpose(jvp(render_rays)))/jit(transpose(jvp(interpolate)))/jit(jit_transpose(jvp(interpolate)))/mul" source_file="/home/brent/tensorf-jax/tensorf/tensor_vm.py" source_line=176}
  %multiply.242 = f32[3,16,4096,221]{3,2,1,0} multiply(f32[3,16,4096,221]{3,2,1,0} %broadcast.1418, f32[3,16,4096,221]{3,2,1,0} %multiply.666), metadata={op_name="jit(training_step)/jit(main)/jit(transpose(jvp(render_rays)))/jit(jit_transpose(jvp(render_rays)))/jit(transpose(jvp(interpolate)))/jit(jit_transpose(jvp(interpolate)))/jit(transpose(jvp(vmap(vmap(_map_coordinates)))))/jit(jit_transpose(jvp(vmap(vmap(_map_coordinates)))))/mul" source_file="/home/brent/tensorf-jax/tensorf/tensor_vm.py" source_line=222}
  ROOT %scatter.42 = f32[3,16,128,128]{3,2,1,0} scatter(f32[3,16,128,128]{3,2,1,0} %broadcast.962, s32[3,4096,221,3]{3,2,1,0} %copy.18, f32[3,16,4096,221]{3,2,1,0} %multiply.242), update_window_dims={1}, inserted_window_dims={0,2,3}, scatter_dims_to_operand_dims={0,2,3}, index_vector_dim=3, to_apply=%region_24.1616, metadata={op_name="jit(training_step)/jit(main)/jit(transpose(jvp(render_rays)))/jit(jit_transpose(jvp(render_rays)))/jit(transpose(jvp(interpolate)))/jit(jit_transpose(jvp(interpolate)))/jit(transpose(jvp(vmap(vmap(_map_coordinates)))))/jit(jit_transpose(jvp(vmap(vmap(_map_coordinates)))))/scatter-add[update_consts=() dimension_numbers=ScatterDimensionNumbers(update_window_dims=(1,), inserted_window_dims=(0, 2, 3), scatter_dims_to_operand_dims=(0, 2, 3)) indices_are_sorted=False unique_indices=False mode=GatherScatterMode.PROMISE_IN_BOUNDS]" source_file="/home/brent/tensorf-jax/tensorf/tensor_vm.py" source_line=222}
}

%region_23.1612 (Arg_0.1613: f32[], Arg_1.1614: f32[]) -> f32[] {
  %Arg_0.1613 = f32[] parameter(0)
  %Arg_1.1614 = f32[] parameter(1)
  ROOT %add.1615 = f32[] add(f32[] %Arg_0.1613, f32[] %Arg_1.1614), metadata={op_name="add" source_file="/home/brent/tensorf-jax/tensorf/render.py" source_line=452}
}

%input_fused_computation_scatter.1 (param_0.739: f32[3,16,128,128], param_1.972: f32[3,16,128,128], param_2.992: f32[3,4096,221], param_3.873: f32[3,4096,221], param_4.635: f32[3,16,4096,221], param_5.586: f32[4096,221], param_6.509: f32[4096,221], param_7.450: pred[4096], param_8.371: f32[4096], param_9.248: f32[4096], param_10.163: f32[4096,221], param_11.118: f32[4096,221], param_12.94: f32[4096,221], param_13.44: f32[4096,110], param_14.16: f32[4096,110]) -> f32[3,16,128,128] {
  %param_0.739 = f32[3,16,128,128]{3,2,1,0} parameter(0)
  %param_1.972 = f32[3,16,128,128]{3,2,1,0} parameter(1)
  %add.337 = f32[3,16,128,128]{3,2,1,0} add(f32[3,16,128,128]{3,2,1,0} %param_0.739, f32[3,16,128,128]{3,2,1,0} %param_1.972), metadata={op_name="jit(training_step)/jit(main)/jit(transpose(jvp(render_rays)))/jit(jit_transpose(jvp(render_rays)))/jit(transpose(jvp(interpolate)))/jit(jit_transpose(jvp(interpolate)))/jit(transpose(jvp(vmap(vmap(_map_coordinates)))))/jit(jit_transpose(jvp(vmap(vmap(_map_coordinates)))))/add_any" source_file="/home/brent/tensorf-jax/tensorf/tensor_vm.py" source_line=222}
  %iota.123 = s32[3,4096,221,1]{3,2,1,0} iota(), iota_dimension=0, metadata={op_name="jit(training_step)/jit(main)/jit(jvp(render_rays))/jit(jit_jvp(render_rays))/jit(jvp(interpolate))/jit(jit_jvp(interpolate))/jit(jvp(vmap(vmap(_map_coordinates))))/jit(jit_jvp(vmap(vmap(_map_coordinates))))/iota[dtype=int32 shape=(3, 4096, 221, 1) dimension=0]" source_file="/home/brent/tensorf-jax/tensorf/tensor_vm.py" source_line=222}
  %constant_963 = s32[] constant(0)
  %broadcast.1411 = s32[3,4096,221]{2,1,0} broadcast(s32[] %constant_963), dimensions={}, metadata={op_name="jit(training_step)/jit(main)/jit(jvp(render_rays))/jit(jit_jvp(render_rays))/jit(jvp(interpolate))/jit(jit_jvp(interpolate))/jit(jvp(vmap(vmap(_map_coordinates))))/jit(jit_jvp(vmap(vmap(_map_coordinates))))/jit(vmap(clip))/jit(jit_vmap(clip))/max" source_file="/home/brent/tensorf-jax/tensorf/tensor_vm.py" source_line=222}
  %param_3.873 = f32[3,4096,221]{2,1,0} parameter(3)
  %floor.127 = f32[3,4096,221]{2,1,0} floor(f32[3,4096,221]{2,1,0} %param_3.873), metadata={op_name="jit(training_step)/jit(main)/jit(jvp(render_rays))/jit(jit_jvp(render_rays))/jit(jvp(interpolate))/jit(jit_jvp(interpolate))/jit(jvp(vmap(vmap(_map_coordinates))))/jit(jit_jvp(vmap(vmap(_map_coordinates))))/floor" source_file="/home/brent/tensorf-jax/tensorf/tensor_vm.py" source_line=222}
  %convert.82 = s32[3,4096,221]{2,1,0} convert(f32[3,4096,221]{2,1,0} %floor.127), metadata={op_name="jit(training_step)/jit(main)/jit(jvp(render_rays))/jit(jit_jvp(render_rays))/jit(jvp(interpolate))/jit(jit_jvp(interpolate))/jit(jvp(vmap(vmap(_map_coordinates))))/jit(jit_jvp(vmap(vmap(_map_coordinates))))/convert_element_type[new_dtype=int32 weak_type=False]" source_file="/home/brent/tensorf-jax/tensorf/tensor_vm.py" source_line=222}
  %constant_961 = s32[] constant(127)
  %broadcast.1410 = s32[3,4096,221]{2,1,0} broadcast(s32[] %constant_961), dimensions={}, metadata={op_name="jit(training_step)/jit(main)/jit(jvp(render_rays))/jit(jit_jvp(render_rays))/jit(jvp(interpolate))/jit(jit_jvp(interpolate))/jit(jvp(vmap(vmap(_map_coordinates))))/jit(jit_jvp(vmap(vmap(_map_coordinates))))/jit(vmap(clip))/jit(jit_vmap(clip))/min" source_file="/home/brent/tensorf-jax/tensorf/tensor_vm.py" source_line=222}
  %clamp.71 = s32[3,4096,221]{2,1,0} clamp(s32[3,4096,221]{2,1,0} %broadcast.1411, s32[3,4096,221]{2,1,0} %convert.82, s32[3,4096,221]{2,1,0} %broadcast.1410), metadata={op_name="jit(training_step)/jit(main)/jit(jvp(render_rays))/jit(jit_jvp(render_rays))/jit(jvp(interpolate))/jit(jit_jvp(interpolate))/jit(jvp(vmap(vmap(_map_coordinates))))/jit(jit_jvp(vmap(vmap(_map_coordinates))))/jit(vmap(clip))/jit(jit_vmap(clip))/min" source_file="/home/brent/tensorf-jax/tensorf/tensor_vm.py" source_line=222}
  %compare.197 = pred[3,4096,221]{2,1,0} compare(s32[3,4096,221]{2,1,0} %clamp.71, s32[3,4096,221]{2,1,0} %broadcast.1411), direction=LT, metadata={op_name="jit(training_step)/jit(main)/jit(jvp(render_rays))/jit(jit_jvp(render_rays))/jit(jvp(interpolate))/jit(jit_jvp(interpolate))/jit(jvp(vmap(vmap(_map_coordinates))))/jit(jit_jvp(vmap(vmap(_map_coordinates))))/lt" source_file="/home/brent/tensorf-jax/tensorf/tensor_vm.py" source_line=222}
  %constant_960 = s32[] constant(128)
  %broadcast.1409 = s32[3,4096,221]{2,1,0} broadcast(s32[] %constant_960), dimensions={}, metadata={op_name="jit(training_step)/jit(main)/jit(jvp(render_rays))/jit(jit_jvp(render_rays))/jit(jvp(interpolate))/jit(jit_jvp(interpolate))/jit(jvp(vmap(vmap(_map_coordinates))))/jit(jit_jvp(vmap(vmap(_map_coordinates))))/add" source_file="/home/brent/tensorf-jax/tensorf/tensor_vm.py" source_line=222}
  %add.610 = s32[3,4096,221]{2,1,0} add(s32[3,4096,221]{2,1,0} %clamp.71, s32[3,4096,221]{2,1,0} %broadcast.1409), metadata={op_name="jit(training_step)/jit(main)/jit(jvp(render_rays))/jit(jit_jvp(render_rays))/jit(jvp(interpolate))/jit(jit_jvp(interpolate))/jit(jvp(vmap(vmap(_map_coordinates))))/jit(jit_jvp(vmap(vmap(_map_coordinates))))/add" source_file="/home/brent/tensorf-jax/tensorf/tensor_vm.py" source_line=222}
  %select.209 = s32[3,4096,221]{2,1,0} select(pred[3,4096,221]{2,1,0} %compare.197, s32[3,4096,221]{2,1,0} %add.610, s32[3,4096,221]{2,1,0} %clamp.71), metadata={op_name="jit(training_step)/jit(main)/jit(jvp(render_rays))/jit(jit_jvp(render_rays))/jit(jvp(interpolate))/jit(jit_jvp(interpolate))/jit(jvp(vmap(vmap(_map_coordinates))))/jit(jit_jvp(vmap(vmap(_map_coordinates))))/select_n" source_file="/home/brent/tensorf-jax/tensorf/tensor_vm.py" source_line=222}
  %bitcast.198 = s32[3,4096,221,1]{3,2,1,0} bitcast(s32[3,4096,221]{2,1,0} %select.209), metadata={op_name="jit(training_step)/jit(main)/jit(jvp(render_rays))/jit(jit_jvp(render_rays))/jit(jvp(interpolate))/jit(jit_jvp(interpolate))/jit(jvp(vmap(vmap(_map_coordinates))))/jit(jit_jvp(vmap(vmap(_map_coordinates))))/broadcast_in_dim[shape=(3, 4096, 221, 1) broadcast_dimensions=(0, 1, 2)]" source_file="/home/brent/tensorf-jax/tensorf/tensor_vm.py" source_line=222}
  %param_2.992 = f32[3,4096,221]{2,1,0} parameter(2)
  %floor.126 = f32[3,4096,221]{2,1,0} floor(f32[3,4096,221]{2,1,0} %param_2.992), metadata={op_name="jit(training_step)/jit(main)/jit(jvp(render_rays))/jit(jit_jvp(render_rays))/jit(jvp(interpolate))/jit(jit_jvp(interpolate))/jit(jvp(vmap(vmap(_map_coordinates))))/jit(jit_jvp(vmap(vmap(_map_coordinates))))/floor" source_file="/home/brent/tensorf-jax/tensorf/tensor_vm.py" source_line=222}
  %convert.81 = s32[3,4096,221]{2,1,0} convert(f32[3,4096,221]{2,1,0} %floor.126), metadata={op_name="jit(training_step)/jit(main)/jit(jvp(render_rays))/jit(jit_jvp(render_rays))/jit(jvp(interpolate))/jit(jit_jvp(interpolate))/jit(jvp(vmap(vmap(_map_coordinates))))/jit(jit_jvp(vmap(vmap(_map_coordinates))))/convert_element_type[new_dtype=int32 weak_type=False]" source_file="/home/brent/tensorf-jax/tensorf/tensor_vm.py" source_line=222}
  %constant_962 = s32[] constant(1)
  %broadcast.1407 = s32[3,4096,221]{2,1,0} broadcast(s32[] %constant_962), dimensions={}, metadata={op_name="jit(training_step)/jit(main)/jit(jvp(render_rays))/jit(jit_jvp(render_rays))/jit(jvp(interpolate))/jit(jit_jvp(interpolate))/jit(jvp(vmap(vmap(_map_coordinates))))/jit(jit_jvp(vmap(vmap(_map_coordinates))))/add" source_file="/home/brent/tensorf-jax/tensorf/tensor_vm.py" source_line=222}
  %add.608 = s32[3,4096,221]{2,1,0} add(s32[3,4096,221]{2,1,0} %convert.81, s32[3,4096,221]{2,1,0} %broadcast.1407), metadata={op_name="jit(training_step)/jit(main)/jit(jvp(render_rays))/jit(jit_jvp(render_rays))/jit(jvp(interpolate))/jit(jit_jvp(interpolate))/jit(jvp(vmap(vmap(_map_coordinates))))/jit(jit_jvp(vmap(vmap(_map_coordinates))))/add" source_file="/home/brent/tensorf-jax/tensorf/tensor_vm.py" source_line=222}
  %clamp.70 = s32[3,4096,221]{2,1,0} clamp(s32[3,4096,221]{2,1,0} %broadcast.1411, s32[3,4096,221]{2,1,0} %add.608, s32[3,4096,221]{2,1,0} %broadcast.1410), metadata={op_name="jit(training_step)/jit(main)/jit(jvp(render_rays))/jit(jit_jvp(render_rays))/jit(jvp(interpolate))/jit(jit_jvp(interpolate))/jit(jvp(vmap(vmap(_map_coordinates))))/jit(jit_jvp(vmap(vmap(_map_coordinates))))/jit(vmap(clip))/jit(jit_vmap(clip))/min" source_file="/home/brent/tensorf-jax/tensorf/tensor_vm.py" source_line=222}
  %compare.196 = pred[3,4096,221]{2,1,0} compare(s32[3,4096,221]{2,1,0} %clamp.70, s32[3,4096,221]{2,1,0} %broadcast.1411), direction=LT, metadata={op_name="jit(training_step)/jit(main)/jit(jvp(render_rays))/jit(jit_jvp(render_rays))/jit(jvp(interpolate))/jit(jit_jvp(interpolate))/jit(jvp(vmap(vmap(_map_coordinates))))/jit(jit_jvp(vmap(vmap(_map_coordinates))))/lt" source_file="/home/brent/tensorf-jax/tensorf/tensor_vm.py" source_line=222}
  %add.607 = s32[3,4096,221]{2,1,0} add(s32[3,4096,221]{2,1,0} %clamp.70, s32[3,4096,221]{2,1,0} %broadcast.1409), metadata={op_name="jit(training_step)/jit(main)/jit(jvp(render_rays))/jit(jit_jvp(render_rays))/jit(jvp(interpolate))/jit(jit_jvp(interpolate))/jit(jvp(vmap(vmap(_map_coordinates))))/jit(jit_jvp(vmap(vmap(_map_coordinates))))/add" source_file="/home/brent/tensorf-jax/tensorf/tensor_vm.py" source_line=222}
  %select.208 = s32[3,4096,221]{2,1,0} select(pred[3,4096,221]{2,1,0} %compare.196, s32[3,4096,221]{2,1,0} %add.607, s32[3,4096,221]{2,1,0} %clamp.70), metadata={op_name="jit(training_step)/jit(main)/jit(jvp(render_rays))/jit(jit_jvp(render_rays))/jit(jvp(interpolate))/jit(jit_jvp(interpolate))/jit(jvp(vmap(vmap(_map_coordinates))))/jit(jit_jvp(vmap(vmap(_map_coordinates))))/select_n" source_file="/home/brent/tensorf-jax/tensorf/tensor_vm.py" source_line=222}
  %bitcast.197 = s32[3,4096,221,1]{3,2,1,0} bitcast(s32[3,4096,221]{2,1,0} %select.208), metadata={op_name="jit(training_step)/jit(main)/jit(jvp(render_rays))/jit(jit_jvp(render_rays))/jit(jvp(interpolate))/jit(jit_jvp(interpolate))/jit(jvp(vmap(vmap(_map_coordinates))))/jit(jit_jvp(vmap(vmap(_map_coordinates))))/broadcast_in_dim[shape=(3, 4096, 221, 1) broadcast_dimensions=(0, 1, 2)]" source_file="/home/brent/tensorf-jax/tensorf/tensor_vm.py" source_line=222}
  %concatenate.162 = s32[3,4096,221,3]{3,2,1,0} concatenate(s32[3,4096,221,1]{3,2,1,0} %iota.123, s32[3,4096,221,1]{3,2,1,0} %bitcast.198, s32[3,4096,221,1]{3,2,1,0} %bitcast.197), dimensions={3}, metadata={op_name="jit(training_step)/jit(main)/jit(jvp(render_rays))/jit(jit_jvp(render_rays))/jit(jvp(interpolate))/jit(jit_jvp(interpolate))/jit(jvp(vmap(vmap(_map_coordinates))))/jit(jit_jvp(vmap(vmap(_map_coordinates))))/concatenate[dimension=3]" source_file="/home/brent/tensorf-jax/tensorf/tensor_vm.py" source_line=222}
  %constant_919 = f32[] constant(1)
  %broadcast.1365 = f32[3,4096,221]{2,1,0} broadcast(f32[] %constant_919), dimensions={}, metadata={op_name="jit(training_step)/jit(main)/jit(jvp(render_rays))/jit(jit_jvp(render_rays))/jit(jvp(interpolate))/jit(jit_jvp(interpolate))/jit(jvp(vmap(vmap(_map_coordinates))))/jit(jit_jvp(vmap(vmap(_map_coordinates))))/sub" source_file="/home/brent/tensorf-jax/tensorf/tensor_vm.py" source_line=222}
  %subtract.156 = f32[3,4096,221]{2,1,0} subtract(f32[3,4096,221]{2,1,0} %param_3.873, f32[3,4096,221]{2,1,0} %floor.127), metadata={op_name="jit(training_step)/jit(main)/jit(jvp(render_rays))/jit(jit_jvp(render_rays))/jit(jvp(interpolate))/jit(jit_jvp(interpolate))/jit(jvp(vmap(vmap(_map_coordinates))))/jit(jit_jvp(vmap(vmap(_map_coordinates))))/sub" source_file="/home/brent/tensorf-jax/tensorf/tensor_vm.py" source_line=222}
  %subtract.155 = f32[3,4096,221]{2,1,0} subtract(f32[3,4096,221]{2,1,0} %broadcast.1365, f32[3,4096,221]{2,1,0} %subtract.156), metadata={op_name="jit(training_step)/jit(main)/jit(jvp(render_rays))/jit(jit_jvp(render_rays))/jit(jvp(interpolate))/jit(jit_jvp(interpolate))/jit(jvp(vmap(vmap(_map_coordinates))))/jit(jit_jvp(vmap(vmap(_map_coordinates))))/sub" source_file="/home/brent/tensorf-jax/tensorf/tensor_vm.py" source_line=222}
  %subtract.154 = f32[3,4096,221]{2,1,0} subtract(f32[3,4096,221]{2,1,0} %param_2.992, f32[3,4096,221]{2,1,0} %floor.126), metadata={op_name="jit(training_step)/jit(main)/jit(jvp(render_rays))/jit(jit_jvp(render_rays))/jit(jvp(interpolate))/jit(jit_jvp(interpolate))/jit(jvp(vmap(vmap(_map_coordinates))))/jit(jit_jvp(vmap(vmap(_map_coordinates))))/sub" source_file="/home/brent/tensorf-jax/tensorf/tensor_vm.py" source_line=222}
  %multiply.435 = f32[3,4096,221]{2,1,0} multiply(f32[3,4096,221]{2,1,0} %subtract.155, f32[3,4096,221]{2,1,0} %subtract.154), metadata={op_name="jit(training_step)/jit(main)/jit(jvp(render_rays))/jit(jit_jvp(render_rays))/jit(jvp(interpolate))/jit(jit_jvp(interpolate))/jit(jvp(vmap(vmap(_map_coordinates))))/jit(jit_jvp(vmap(vmap(_map_coordinates))))/mul" source_file="/home/brent/tensorf-jax/tensorf/tensor_vm.py" source_line=222}
  %broadcast.1364 = f32[3,16,4096,221]{3,2,1,0} broadcast(f32[3,4096,221]{2,1,0} %multiply.435), dimensions={0,2,3}, metadata={op_name="jit(training_step)/jit(main)/jit(jvp(render_rays))/jit(jit_jvp(render_rays))/jit(jvp(interpolate))/jit(jit_jvp(interpolate))/jit(jvp(vmap(vmap(_map_coordinates))))/jit(jit_jvp(vmap(vmap(_map_coordinates))))/mul" source_file="/home/brent/tensorf-jax/tensorf/tensor_vm.py" source_line=222}
  %param_4.635 = f32[3,16,4096,221]{3,2,1,0} parameter(4)
  %param_12.94 = f32[4096,221]{1,0} parameter(12)
  %slice.724 = f32[4096,1]{1,0} slice(f32[4096,221]{1,0} %param_12.94), slice={[0:4096], [220:221]}, metadata={op_name="jit(training_step)/jit(main)/jit(transpose(jvp(render_rays)))/jit(jit_transpose(jvp(render_rays)))/jit(transpose(jvp(_cumulative_reduction)))/jit(jit_transpose(jvp(_cumulative_reduction)))/slice[start_indices=(0, 0) limit_indices=(4096, 1) strides=(1, 1)]" source_file="/home/brent/tensorf-jax/tensorf/render.py" source_line=272}
  %param_13.44 = f32[4096,110]{1,0} parameter(13)
  %param_14.16 = f32[4096,110]{1,0} parameter(14)
  %add.1049 = f32[4096,110]{1,0} add(f32[4096,110]{1,0} %param_13.44, f32[4096,110]{1,0} %param_14.16), metadata={op_name="jit(training_step)/jit(main)/jit(transpose(jvp(render_rays)))/jit(jit_transpose(jvp(render_rays)))/jit(transpose(jvp(_cumulative_reduction)))/jit(jit_transpose(jvp(_cumulative_reduction)))/add" source_file="/home/brent/tensorf-jax/tensorf/render.py" source_line=272}
  %slice.723 = f32[4096,110]{1,0} slice(f32[4096,221]{1,0} %param_12.94), slice={[0:4096:1], [0:219:2]}, metadata={op_name="jit(training_step)/jit(main)/jit(transpose(jvp(render_rays)))/jit(jit_transpose(jvp(render_rays)))/jit(transpose(jvp(_cumulative_reduction)))/jit(jit_transpose(jvp(_cumulative_reduction)))/slice[start_indices=(0, 2) limit_indices=(4096, 221) strides=(1, 2)]" source_file="/home/brent/tensorf-jax/tensorf/render.py" source_line=272}
  %reverse.41 = f32[4096,110]{1,0} reverse(f32[4096,110]{1,0} %slice.723), dimensions={1}, metadata={op_name="jit(training_step)/jit(main)/jit(transpose(jvp(render_rays)))/jit(jit_transpose(jvp(render_rays)))/jit(transpose(jvp(_cumulative_reduction)))/jit(jit_transpose(jvp(_cumulative_reduction)))/slice[start_indices=(0, 2) limit_indices=(4096, 221) strides=(1, 2)]" source_file="/home/brent/tensorf-jax/tensorf/render.py" source_line=272}
  %add.1048 = f32[4096,110]{1,0} add(f32[4096,110]{1,0} %add.1049, f32[4096,110]{1,0} %reverse.41), metadata={op_name="jit(training_step)/jit(main)/jit(transpose(jvp(render_rays)))/jit(jit_transpose(jvp(render_rays)))/jit(transpose(jvp(_cumulative_reduction)))/jit(jit_transpose(jvp(_cumulative_reduction)))/add" source_file="/home/brent/tensorf-jax/tensorf/render.py" source_line=272}
  %concatenate.261 = f32[4096,111]{1,0} concatenate(f32[4096,1]{1,0} %slice.724, f32[4096,110]{1,0} %add.1048), dimensions={1}, metadata={op_name="jit(training_step)/jit(main)/jit(transpose(jvp(render_rays)))/jit(jit_transpose(jvp(render_rays)))/jit(transpose(jvp(_cumulative_reduction)))/jit(jit_transpose(jvp(_cumulative_reduction)))/concatenate[dimension=1]" source_file="/home/brent/tensorf-jax/tensorf/render.py" source_line=272}
  %constant_1842 = f32[] constant(0)
  %pad.194 = f32[4096,221]{1,0} pad(f32[4096,111]{1,0} %concatenate.261, f32[] %constant_1842), padding=0_0_0x0_0_1, metadata={op_name="jit(training_step)/jit(main)/jit(transpose(jvp(render_rays)))/jit(jit_transpose(jvp(render_rays)))/jit(transpose(jvp(_cumulative_reduction)))/jit(jit_transpose(jvp(_cumulative_reduction)))/pad[padding_config=((0, 0, 0), (0, 0, 1))]" source_file="/home/brent/tensorf-jax/tensorf/render.py" source_line=272}
  %pad.193 = f32[4096,221]{1,0} pad(f32[4096,110]{1,0} %add.1049, f32[] %constant_1842), padding=0_0_0x1_1_1, metadata={op_name="jit(training_step)/jit(main)/jit(transpose(jvp(render_rays)))/jit(jit_transpose(jvp(render_rays)))/jit(transpose(jvp(_cumulative_reduction)))/jit(jit_transpose(jvp(_cumulative_reduction)))/pad[padding_config=((0, 0, 0), (1, 1, 1))]" source_file="/home/brent/tensorf-jax/tensorf/render.py" source_line=272}
  %add.1047 = f32[4096,221]{1,0} add(f32[4096,221]{1,0} %pad.194, f32[4096,221]{1,0} %pad.193), metadata={op_name="jit(training_step)/jit(main)/jit(transpose(jvp(render_rays)))/jit(jit_transpose(jvp(render_rays)))/jit(transpose(jvp(_cumulative_reduction)))/jit(jit_transpose(jvp(_cumulative_reduction)))/add" source_file="/home/brent/tensorf-jax/tensorf/render.py" source_line=272}
  %reverse.40 = f32[4096,221]{1,0} reverse(f32[4096,221]{1,0} %add.1047), dimensions={1}, metadata={op_name="jit(training_step)/jit(main)/jit(transpose(jvp(render_rays)))/jit(jit_transpose(jvp(render_rays)))/jit(transpose(jvp(_cumulative_reduction)))/jit(jit_transpose(jvp(_cumulative_reduction)))/rev[dimensions=(1,)]" source_file="/home/brent/tensorf-jax/tensorf/render.py" source_line=272}
  %param_10.163 = f32[4096,221]{1,0} parameter(10)
  %param_11.118 = f32[4096,221]{1,0} parameter(11)
  %slice.722 = f32[4096,220]{1,0} slice(f32[4096,221]{1,0} %param_11.118), slice={[0:4096], [0:220]}, metadata={op_name="jit(training_step)/jit(main)/jit(jvp(render_rays))/jit(jit_jvp(render_rays))/gather[dimension_numbers=GatherDimensionNumbers(offset_dims=(0, 1), collapsed_slice_dims=(), start_index_map=(1,)) slice_sizes=(4096, 220) unique_indices=True indices_are_sorted=True mode=GatherScatterMode.PROMISE_IN_BOUNDS fill_value=None]" source_file="/home/brent/tensorf-jax/tensorf/render.py" source_line=286}
  %pad.192 = f32[4096,221]{1,0} pad(f32[4096,220]{1,0} %slice.722, f32[] %constant_919), padding=0_0x1_0, metadata={op_name="jit(training_step)/jit(main)/jit(jvp(render_rays))/jit(jit_jvp(render_rays))/concatenate[dimension=1]" source_file="/home/brent/tensorf-jax/tensorf/render.py" source_line=283}
  %multiply.657 = f32[4096,221]{1,0} multiply(f32[4096,221]{1,0} %param_10.163, f32[4096,221]{1,0} %pad.192), metadata={op_name="jit(training_step)/jit(main)/jit(transpose(jvp(render_rays)))/jit(jit_transpose(jvp(render_rays)))/mul" source_file="/home/brent/tensorf-jax/tensorf/render.py" source_line=280}
  %negate.73 = f32[4096,221]{1,0} negate(f32[4096,221]{1,0} %multiply.657), metadata={op_name="jit(training_step)/jit(main)/jit(transpose(jvp(render_rays)))/jit(jit_transpose(jvp(render_rays)))/neg" source_file="/home/brent/tensorf-jax/tensorf/render.py" source_line=276}
  %param_5.586 = f32[4096,221]{1,0} parameter(5)
  %negate.72 = f32[4096,221]{1,0} negate(f32[4096,221]{1,0} %param_5.586), metadata={op_name="jit(training_step)/jit(main)/jit(jvp(render_rays))/jit(jit_jvp(render_rays))/neg" source_file="/home/brent/tensorf-jax/tensorf/render.py" source_line=271}
  %param_7.450 = pred[4096]{0} parameter(7)
  %param_9.248 = f32[4096]{0} parameter(9)
  %param_8.371 = f32[4096]{0} parameter(8)
  %constant_1843 = f32[] constant(0.001)
  %broadcast.2310 = f32[4096]{0} broadcast(f32[] %constant_1843), dimensions={}, metadata={op_name="jit(training_step)/jit(main)/jit(jvp(render_rays))/jit(jit_jvp(render_rays))/add" source_file="/home/brent/tensorf-jax/tensorf/render.py" source_line=374}
  %add.1046 = f32[4096]{0} add(f32[4096]{0} %param_8.371, f32[4096]{0} %broadcast.2310), metadata={op_name="jit(training_step)/jit(main)/jit(jvp(render_rays))/jit(jit_jvp(render_rays))/add" source_file="/home/brent/tensorf-jax/tensorf/render.py" source_line=374}
  %maximum.109 = f32[4096]{0} maximum(f32[4096]{0} %param_9.248, f32[4096]{0} %add.1046), metadata={op_name="jit(training_step)/jit(main)/jit(jvp(render_rays))/jit(jit_jvp(render_rays))/max" source_file="/home/brent/tensorf-jax/tensorf/render.py" source_line=374}
  %select.449 = f32[4096]{0} select(pred[4096]{0} %param_7.450, f32[4096]{0} %maximum.109, f32[4096]{0} %broadcast.2310), metadata={op_name="jit(training_step)/jit(main)/jit(jvp(render_rays))/jit(jit_jvp(render_rays))/jit(vmap(_where))/jit(jit_vmap(_where))/select_n" source_file="/home/brent/tensorf-jax/tensorf/render.py" source_line=379}
  %broadcast.2309 = f32[4096]{0} broadcast(f32[] %constant_1842), dimensions={}, metadata={op_name="jit(training_step)/jit(main)/jit(jvp(render_rays))/jit(jit_jvp(render_rays))/max" source_file="/home/brent/tensorf-jax/tensorf/render.py" source_line=372}
  %select.448 = f32[4096]{0} select(pred[4096]{0} %param_7.450, f32[4096]{0} %param_8.371, f32[4096]{0} %broadcast.2309), metadata={op_name="jit(training_step)/jit(main)/jit(jvp(render_rays))/jit(jit_jvp(render_rays))/jit(vmap(_where))/jit(jit_vmap(_where))/select_n" source_file="/home/brent/tensorf-jax/tensorf/render.py" source_line=378}
  %subtract.396 = f32[4096]{0} subtract(f32[4096]{0} %select.449, f32[4096]{0} %select.448), metadata={op_name="jit(training_step)/jit(main)/jit(jvp(render_rays))/jit(jit_jvp(render_rays))/sub" source_file="/home/brent/tensorf-jax/tensorf/render.py" source_line=319}
  %constant_1841 = f32[] constant(0.00452488707)
  %broadcast.2308 = f32[4096]{0} broadcast(f32[] %constant_1841), dimensions={}, metadata={op_name="jit(training_step)/jit(main)/jit(jvp(render_rays))/jit(jit_jvp(render_rays))/div" source_file="/home/brent/tensorf-jax/tensorf/render.py" source_line=319}
  %multiply.656 = f32[4096]{0} multiply(f32[4096]{0} %subtract.396, f32[4096]{0} %broadcast.2308), metadata={op_name="jit(training_step)/jit(main)/jit(jvp(render_rays))/jit(jit_jvp(render_rays))/div" source_file="/home/brent/tensorf-jax/tensorf/render.py" source_line=319}
  %broadcast.2307 = f32[4096,221]{1,0} broadcast(f32[4096]{0} %multiply.656), dimensions={0}, metadata={op_name="jit(training_step)/jit(main)/jit(jvp(render_rays))/jit(jit_jvp(render_rays))/mul" source_file="/home/brent/tensorf-jax/tensorf/render.py" source_line=330}
  %multiply.655 = f32[4096,221]{1,0} multiply(f32[4096,221]{1,0} %negate.72, f32[4096,221]{1,0} %broadcast.2307), metadata={op_name="jit(training_step)/jit(main)/jit(jvp(render_rays))/jit(jit_jvp(render_rays))/mul" source_file="/home/brent/tensorf-jax/tensorf/render.py" source_line=271}
  %exponential.44 = f32[4096,221]{1,0} exponential(f32[4096,221]{1,0} %multiply.655), metadata={op_name="jit(training_step)/jit(main)/jit(jvp(render_rays))/jit(jit_jvp(render_rays))/exp" source_file="/home/brent/tensorf-jax/tensorf/render.py" source_line=276}
  %multiply.654 = f32[4096,221]{1,0} multiply(f32[4096,221]{1,0} %negate.73, f32[4096,221]{1,0} %exponential.44), metadata={op_name="jit(training_step)/jit(main)/jit(transpose(jvp(render_rays)))/jit(jit_transpose(jvp(render_rays)))/mul" source_file="/home/brent/tensorf-jax/tensorf/render.py" source_line=276}
  %add.1045 = f32[4096,221]{1,0} add(f32[4096,221]{1,0} %reverse.40, f32[4096,221]{1,0} %multiply.654), metadata={op_name="jit(training_step)/jit(main)/jit(transpose(jvp(render_rays)))/jit(jit_transpose(jvp(render_rays)))/add_any" source_file="/home/brent/tensorf-jax/tensorf/render.py" source_line=276}
  %multiply.652 = f32[4096,221]{1,0} multiply(f32[4096,221]{1,0} %add.1045, f32[4096,221]{1,0} %broadcast.2307), metadata={op_name="jit(training_step)/jit(main)/jit(transpose(jvp(render_rays)))/jit(jit_transpose(jvp(render_rays)))/mul" source_file="/home/brent/tensorf-jax/tensorf/render.py" source_line=271}
  %negate.71 = f32[4096,221]{1,0} negate(f32[4096,221]{1,0} %multiply.652), metadata={op_name="jit(training_step)/jit(main)/jit(transpose(jvp(render_rays)))/jit(jit_transpose(jvp(render_rays)))/neg" source_file="/home/brent/tensorf-jax/tensorf/render.py" source_line=271}
  %param_6.509 = f32[4096,221]{1,0} parameter(6)
  %constant_1840 = f32[] constant(10)
  %broadcast.2302 = f32[4096,221]{1,0} broadcast(f32[] %constant_1840), dimensions={}, metadata={op_name="jit(training_step)/jit(main)/jit(jvp(render_rays))/jit(jit_jvp(render_rays))/add" source_file="/home/brent/tensorf-jax/tensorf/render.py" source_line=156}
  %add.1043 = f32[4096,221]{1,0} add(f32[4096,221]{1,0} %param_6.509, f32[4096,221]{1,0} %broadcast.2302), metadata={op_name="jit(training_step)/jit(main)/jit(jvp(render_rays))/jit(jit_jvp(render_rays))/add" source_file="/home/brent/tensorf-jax/tensorf/render.py" source_line=156}
  %constant_1839 = f32[] constant(inf)
  %broadcast.2301 = f32[4096,221]{1,0} broadcast(f32[] %constant_1839), dimensions={}, metadata={op_name="jit(training_step)/jit(main)/jit(jvp(render_rays))/jit(jit_jvp(render_rays))/jit(jvp(softplus))/jit(jit_jvp(softplus))/eq" source_file="/home/brent/tensorf-jax/tensorf/render.py" source_line=156}
  %compare.355 = pred[4096,221]{1,0} compare(f32[4096,221]{1,0} %add.1043, f32[4096,221]{1,0} %broadcast.2301), direction=EQ, metadata={op_name="jit(training_step)/jit(main)/jit(jvp(render_rays))/jit(jit_jvp(render_rays))/jit(jvp(softplus))/jit(jit_jvp(softplus))/eq" source_file="/home/brent/tensorf-jax/tensorf/render.py" source_line=156}
  %broadcast.2300 = f32[4096,221]{1,0} broadcast(f32[] %constant_1842), dimensions={}, metadata={op_name="jit(training_step)/jit(main)/jit(jvp(render_rays))/jit(jit_jvp(render_rays))/jit(jvp(softplus))/jit(jit_jvp(softplus))/jit(logaddexp)/jit(jit_logaddexp)/max" source_file="/home/brent/tensorf-jax/tensorf/render.py" source_line=156}
  %select.445 = f32[4096,221]{1,0} select(pred[4096,221]{1,0} %compare.355, f32[4096,221]{1,0} %broadcast.2300, f32[4096,221]{1,0} %add.1043), metadata={op_name="jit(training_step)/jit(main)/jit(jvp(render_rays))/jit(jit_jvp(render_rays))/jit(jvp(softplus))/jit(jit_jvp(softplus))/select_n" source_file="/home/brent/tensorf-jax/tensorf/render.py" source_line=156}
  %compare.354 = pred[4096,221]{1,0} compare(f32[4096,221]{1,0} %param_5.586, f32[4096,221]{1,0} %broadcast.2301), direction=EQ, metadata={op_name="jit(training_step)/jit(main)/jit(jvp(render_rays))/jit(jit_jvp(render_rays))/jit(jvp(softplus))/jit(jit_jvp(softplus))/eq" source_file="/home/brent/tensorf-jax/tensorf/render.py" source_line=156}
  %select.444 = f32[4096,221]{1,0} select(pred[4096,221]{1,0} %compare.354, f32[4096,221]{1,0} %broadcast.2300, f32[4096,221]{1,0} %param_5.586), metadata={op_name="jit(training_step)/jit(main)/jit(jvp(render_rays))/jit(jit_jvp(render_rays))/jit(jvp(softplus))/jit(jit_jvp(softplus))/select_n" source_file="/home/brent/tensorf-jax/tensorf/render.py" source_line=156}
  %subtract.394 = f32[4096,221]{1,0} subtract(f32[4096,221]{1,0} %select.445, f32[4096,221]{1,0} %select.444), metadata={op_name="jit(training_step)/jit(main)/jit(jvp(render_rays))/jit(jit_jvp(render_rays))/jit(jvp(softplus))/jit(jit_jvp(softplus))/sub" source_file="/home/brent/tensorf-jax/tensorf/render.py" source_line=156}
  %exponential.43 = f32[4096,221]{1,0} exponential(f32[4096,221]{1,0} %subtract.394), metadata={op_name="jit(training_step)/jit(main)/jit(jvp(render_rays))/jit(jit_jvp(render_rays))/jit(jvp(softplus))/jit(jit_jvp(softplus))/exp" source_file="/home/brent/tensorf-jax/tensorf/render.py" source_line=156}
  %multiply.651 = f32[4096,221]{1,0} multiply(f32[4096,221]{1,0} %negate.71, f32[4096,221]{1,0} %exponential.43), metadata={op_name="jit(training_step)/jit(main)/jit(transpose(jvp(render_rays)))/jit(jit_transpose(jvp(render_rays)))/jit(transpose(jvp(softplus)))/jit(jit_transpose(jvp(softplus)))/mul" source_file="/home/brent/tensorf-jax/tensorf/render.py" source_line=156}
  %broadcast.2299 = f32[3,16,4096,221]{2,1,0,3} broadcast(f32[4096,221]{1,0} %multiply.651), dimensions={2,3}, metadata={op_name="jit(training_step)/jit(main)/jit(transpose(jvp(render_rays)))/jit(jit_transpose(jvp(render_rays)))/jit(transpose(jvp(interpolate)))/jit(jit_transpose(jvp(interpolate)))/reshape[new_sizes=(3, 16, 4096, 221) dimensions=None]" source_file="/home/brent/tensorf-jax/tensorf/tensor_vm.py" source_line=95}
  %copy.39 = f32[3,16,4096,221]{3,2,1,0} copy(f32[3,16,4096,221]{2,1,0,3} %broadcast.2299), metadata={op_name="jit(training_step)/jit(main)/jit(transpose(jvp(render_rays)))/jit(jit_transpose(jvp(render_rays)))/jit(transpose(jvp(interpolate)))/jit(jit_transpose(jvp(interpolate)))/reshape[new_sizes=(3, 16, 4096, 221) dimensions=None]" source_file="/home/brent/tensorf-jax/tensorf/tensor_vm.py" source_line=95}
  %multiply.650 = f32[3,16,4096,221]{3,2,1,0} multiply(f32[3,16,4096,221]{3,2,1,0} %param_4.635, f32[3,16,4096,221]{3,2,1,0} %copy.39), metadata={op_name="jit(training_step)/jit(main)/jit(transpose(jvp(render_rays)))/jit(jit_transpose(jvp(render_rays)))/jit(transpose(jvp(interpolate)))/jit(jit_transpose(jvp(interpolate)))/mul" source_file="/home/brent/tensorf-jax/tensorf/tensor_vm.py" source_line=176}
  %multiply.243 = f32[3,16,4096,221]{3,2,1,0} multiply(f32[3,16,4096,221]{3,2,1,0} %broadcast.1364, f32[3,16,4096,221]{3,2,1,0} %multiply.650), metadata={op_name="jit(training_step)/jit(main)/jit(transpose(jvp(render_rays)))/jit(jit_transpose(jvp(render_rays)))/jit(transpose(jvp(interpolate)))/jit(jit_transpose(jvp(interpolate)))/jit(transpose(jvp(vmap(vmap(_map_coordinates)))))/jit(jit_transpose(jvp(vmap(vmap(_map_coordinates)))))/mul" source_file="/home/brent/tensorf-jax/tensorf/tensor_vm.py" source_line=222}
  ROOT %scatter.43 = f32[3,16,128,128]{3,2,1,0} scatter(f32[3,16,128,128]{3,2,1,0} %add.337, s32[3,4096,221,3]{3,2,1,0} %concatenate.162, f32[3,16,4096,221]{3,2,1,0} %multiply.243), update_window_dims={1}, inserted_window_dims={0,2,3}, scatter_dims_to_operand_dims={0,2,3}, index_vector_dim=3, to_apply=%region_23.1612, metadata={op_name="jit(training_step)/jit(main)/jit(transpose(jvp(render_rays)))/jit(jit_transpose(jvp(render_rays)))/jit(transpose(jvp(interpolate)))/jit(jit_transpose(jvp(interpolate)))/jit(transpose(jvp(vmap(vmap(_map_coordinates)))))/jit(jit_transpose(jvp(vmap(vmap(_map_coordinates)))))/scatter-add[update_consts=() dimension_numbers=ScatterDimensionNumbers(update_window_dims=(1,), inserted_window_dims=(0, 2, 3), scatter_dims_to_operand_dims=(0, 2, 3)) indices_are_sorted=False unique_indices=False mode=GatherScatterMode.PROMISE_IN_BOUNDS]" source_file="/home/brent/tensorf-jax/tensorf/tensor_vm.py" source_line=222}
}

%region_22.1608 (Arg_0.1609: f32[], Arg_1.1610: f32[]) -> f32[] {
  %Arg_0.1609 = f32[] parameter(0)
  %Arg_1.1610 = f32[] parameter(1)
  ROOT %add.1611 = f32[] add(f32[] %Arg_0.1609, f32[] %Arg_1.1610), metadata={op_name="add" source_file="/home/brent/tensorf-jax/tensorf/render.py" source_line=452}
}

%input_fused_computation_scatter.2 (param_0.737: f32[3,4096,221], param_1.970: f32[3,4096,221], param_2.990: f32[3,16,4096,221], param_3.871: f32[4096,221], param_4.633: f32[4096,221], param_5.580: pred[4096], param_6.501: f32[4096], param_7.440: f32[4096], param_8.359: f32[4096,221], param_9.232: f32[4096,221], param_10.153: f32[4096,221], param_11.111: f32[4096,110], param_12.81: f32[4096,110]) -> f32[3,16,128,128] {
  %constant_481 = f32[] constant(0)
  %broadcast.963 = f32[3,16,128,128]{3,2,1,0} broadcast(f32[] %constant_481), dimensions={}, metadata={op_name="jit(training_step)/jit(main)/jit(transpose(jvp(render_rays)))/jit(jit_transpose(jvp(render_rays)))/jit(transpose(jvp(interpolate)))/jit(jit_transpose(jvp(interpolate)))/jit(transpose(jvp(vmap(vmap(_map_coordinates)))))/jit(jit_transpose(jvp(vmap(vmap(_map_coordinates)))))/broadcast_in_dim[shape=(3, 16, 128, 128) broadcast_dimensions=()]" source_file="/home/brent/tensorf-jax/tensorf/tensor_vm.py" source_line=222}
  %iota.119 = s32[3,4096,221,1]{2,1,0,3} iota(), iota_dimension=0, metadata={op_name="jit(training_step)/jit(main)/jit(jvp(render_rays))/jit(jit_jvp(render_rays))/jit(jvp(interpolate))/jit(jit_jvp(interpolate))/jit(jvp(vmap(vmap(_map_coordinates))))/jit(jit_jvp(vmap(vmap(_map_coordinates))))/iota[dtype=int32 shape=(3, 4096, 221, 1) dimension=0]" source_file="/home/brent/tensorf-jax/tensorf/tensor_vm.py" source_line=222}
  %constant_909 = s32[] constant(0)
  %broadcast.1356 = s32[3,4096,221]{2,1,0} broadcast(s32[] %constant_909), dimensions={}, metadata={op_name="jit(training_step)/jit(main)/jit(jvp(render_rays))/jit(jit_jvp(render_rays))/jit(jvp(interpolate))/jit(jit_jvp(interpolate))/jit(jvp(vmap(vmap(_map_coordinates))))/jit(jit_jvp(vmap(vmap(_map_coordinates))))/jit(vmap(clip))/jit(jit_vmap(clip))/max" source_file="/home/brent/tensorf-jax/tensorf/tensor_vm.py" source_line=222}
  %param_1.970 = f32[3,4096,221]{2,1,0} parameter(1)
  %floor.107 = f32[3,4096,221]{2,1,0} floor(f32[3,4096,221]{2,1,0} %param_1.970), metadata={op_name="jit(training_step)/jit(main)/jit(jvp(render_rays))/jit(jit_jvp(render_rays))/jit(jvp(interpolate))/jit(jit_jvp(interpolate))/jit(jvp(vmap(vmap(_map_coordinates))))/jit(jit_jvp(vmap(vmap(_map_coordinates))))/floor" source_file="/home/brent/tensorf-jax/tensorf/tensor_vm.py" source_line=222}
  %convert.70 = s32[3,4096,221]{2,1,0} convert(f32[3,4096,221]{2,1,0} %floor.107), metadata={op_name="jit(training_step)/jit(main)/jit(jvp(render_rays))/jit(jit_jvp(render_rays))/jit(jvp(interpolate))/jit(jit_jvp(interpolate))/jit(jvp(vmap(vmap(_map_coordinates))))/jit(jit_jvp(vmap(vmap(_map_coordinates))))/convert_element_type[new_dtype=int32 weak_type=False]" source_file="/home/brent/tensorf-jax/tensorf/tensor_vm.py" source_line=222}
  %constant_912 = s32[] constant(1)
  %broadcast.1355 = s32[3,4096,221]{2,1,0} broadcast(s32[] %constant_912), dimensions={}, metadata={op_name="jit(training_step)/jit(main)/jit(jvp(render_rays))/jit(jit_jvp(render_rays))/jit(jvp(interpolate))/jit(jit_jvp(interpolate))/jit(jvp(vmap(vmap(_map_coordinates))))/jit(jit_jvp(vmap(vmap(_map_coordinates))))/add" source_file="/home/brent/tensorf-jax/tensorf/tensor_vm.py" source_line=222}
  %add.588 = s32[3,4096,221]{2,1,0} add(s32[3,4096,221]{2,1,0} %convert.70, s32[3,4096,221]{2,1,0} %broadcast.1355), metadata={op_name="jit(training_step)/jit(main)/jit(jvp(render_rays))/jit(jit_jvp(render_rays))/jit(jvp(interpolate))/jit(jit_jvp(interpolate))/jit(jvp(vmap(vmap(_map_coordinates))))/jit(jit_jvp(vmap(vmap(_map_coordinates))))/add" source_file="/home/brent/tensorf-jax/tensorf/tensor_vm.py" source_line=222}
  %constant_908 = s32[] constant(127)
  %broadcast.1354 = s32[3,4096,221]{2,1,0} broadcast(s32[] %constant_908), dimensions={}, metadata={op_name="jit(training_step)/jit(main)/jit(jvp(render_rays))/jit(jit_jvp(render_rays))/jit(jvp(interpolate))/jit(jit_jvp(interpolate))/jit(jvp(vmap(vmap(_map_coordinates))))/jit(jit_jvp(vmap(vmap(_map_coordinates))))/jit(vmap(clip))/jit(jit_vmap(clip))/min" source_file="/home/brent/tensorf-jax/tensorf/tensor_vm.py" source_line=222}
  %clamp.59 = s32[3,4096,221]{2,1,0} clamp(s32[3,4096,221]{2,1,0} %broadcast.1356, s32[3,4096,221]{2,1,0} %add.588, s32[3,4096,221]{2,1,0} %broadcast.1354), metadata={op_name="jit(training_step)/jit(main)/jit(jvp(render_rays))/jit(jit_jvp(render_rays))/jit(jvp(interpolate))/jit(jit_jvp(interpolate))/jit(jvp(vmap(vmap(_map_coordinates))))/jit(jit_jvp(vmap(vmap(_map_coordinates))))/jit(vmap(clip))/jit(jit_vmap(clip))/min" source_file="/home/brent/tensorf-jax/tensorf/tensor_vm.py" source_line=222}
  %compare.185 = pred[3,4096,221]{2,1,0} compare(s32[3,4096,221]{2,1,0} %clamp.59, s32[3,4096,221]{2,1,0} %broadcast.1356), direction=LT, metadata={op_name="jit(training_step)/jit(main)/jit(jvp(render_rays))/jit(jit_jvp(render_rays))/jit(jvp(interpolate))/jit(jit_jvp(interpolate))/jit(jvp(vmap(vmap(_map_coordinates))))/jit(jit_jvp(vmap(vmap(_map_coordinates))))/lt" source_file="/home/brent/tensorf-jax/tensorf/tensor_vm.py" source_line=222}
  %constant_907 = s32[] constant(128)
  %broadcast.1353 = s32[3,4096,221]{2,1,0} broadcast(s32[] %constant_907), dimensions={}, metadata={op_name="jit(training_step)/jit(main)/jit(jvp(render_rays))/jit(jit_jvp(render_rays))/jit(jvp(interpolate))/jit(jit_jvp(interpolate))/jit(jvp(vmap(vmap(_map_coordinates))))/jit(jit_jvp(vmap(vmap(_map_coordinates))))/add" source_file="/home/brent/tensorf-jax/tensorf/tensor_vm.py" source_line=222}
  %add.586 = s32[3,4096,221]{2,1,0} add(s32[3,4096,221]{2,1,0} %clamp.59, s32[3,4096,221]{2,1,0} %broadcast.1353), metadata={op_name="jit(training_step)/jit(main)/jit(jvp(render_rays))/jit(jit_jvp(render_rays))/jit(jvp(interpolate))/jit(jit_jvp(interpolate))/jit(jvp(vmap(vmap(_map_coordinates))))/jit(jit_jvp(vmap(vmap(_map_coordinates))))/add" source_file="/home/brent/tensorf-jax/tensorf/tensor_vm.py" source_line=222}
  %select.197 = s32[3,4096,221]{2,1,0} select(pred[3,4096,221]{2,1,0} %compare.185, s32[3,4096,221]{2,1,0} %add.586, s32[3,4096,221]{2,1,0} %clamp.59), metadata={op_name="jit(training_step)/jit(main)/jit(jvp(render_rays))/jit(jit_jvp(render_rays))/jit(jvp(interpolate))/jit(jit_jvp(interpolate))/jit(jvp(vmap(vmap(_map_coordinates))))/jit(jit_jvp(vmap(vmap(_map_coordinates))))/select_n" source_file="/home/brent/tensorf-jax/tensorf/tensor_vm.py" source_line=222}
  %bitcast.190 = s32[3,4096,221,1]{2,1,0,3} bitcast(s32[3,4096,221]{2,1,0} %select.197), metadata={op_name="jit(training_step)/jit(main)/jit(jvp(render_rays))/jit(jit_jvp(render_rays))/jit(jvp(interpolate))/jit(jit_jvp(interpolate))/jit(jvp(vmap(vmap(_map_coordinates))))/jit(jit_jvp(vmap(vmap(_map_coordinates))))/broadcast_in_dim[shape=(3, 4096, 221, 1) broadcast_dimensions=(0, 1, 2)]" source_file="/home/brent/tensorf-jax/tensorf/tensor_vm.py" source_line=222}
  %param_0.737 = f32[3,4096,221]{2,1,0} parameter(0)
  %floor.106 = f32[3,4096,221]{2,1,0} floor(f32[3,4096,221]{2,1,0} %param_0.737), metadata={op_name="jit(training_step)/jit(main)/jit(jvp(render_rays))/jit(jit_jvp(render_rays))/jit(jvp(interpolate))/jit(jit_jvp(interpolate))/jit(jvp(vmap(vmap(_map_coordinates))))/jit(jit_jvp(vmap(vmap(_map_coordinates))))/floor" source_file="/home/brent/tensorf-jax/tensorf/tensor_vm.py" source_line=222}
  %convert.69 = s32[3,4096,221]{2,1,0} convert(f32[3,4096,221]{2,1,0} %floor.106), metadata={op_name="jit(training_step)/jit(main)/jit(jvp(render_rays))/jit(jit_jvp(render_rays))/jit(jvp(interpolate))/jit(jit_jvp(interpolate))/jit(jvp(vmap(vmap(_map_coordinates))))/jit(jit_jvp(vmap(vmap(_map_coordinates))))/convert_element_type[new_dtype=int32 weak_type=False]" source_file="/home/brent/tensorf-jax/tensorf/tensor_vm.py" source_line=222}
  %clamp.58 = s32[3,4096,221]{2,1,0} clamp(s32[3,4096,221]{2,1,0} %broadcast.1356, s32[3,4096,221]{2,1,0} %convert.69, s32[3,4096,221]{2,1,0} %broadcast.1354), metadata={op_name="jit(training_step)/jit(main)/jit(jvp(render_rays))/jit(jit_jvp(render_rays))/jit(jvp(interpolate))/jit(jit_jvp(interpolate))/jit(jvp(vmap(vmap(_map_coordinates))))/jit(jit_jvp(vmap(vmap(_map_coordinates))))/jit(vmap(clip))/jit(jit_vmap(clip))/min" source_file="/home/brent/tensorf-jax/tensorf/tensor_vm.py" source_line=222}
  %compare.184 = pred[3,4096,221]{2,1,0} compare(s32[3,4096,221]{2,1,0} %clamp.58, s32[3,4096,221]{2,1,0} %broadcast.1356), direction=LT, metadata={op_name="jit(training_step)/jit(main)/jit(jvp(render_rays))/jit(jit_jvp(render_rays))/jit(jvp(interpolate))/jit(jit_jvp(interpolate))/jit(jvp(vmap(vmap(_map_coordinates))))/jit(jit_jvp(vmap(vmap(_map_coordinates))))/lt" source_file="/home/brent/tensorf-jax/tensorf/tensor_vm.py" source_line=222}
  %add.584 = s32[3,4096,221]{2,1,0} add(s32[3,4096,221]{2,1,0} %clamp.58, s32[3,4096,221]{2,1,0} %broadcast.1353), metadata={op_name="jit(training_step)/jit(main)/jit(jvp(render_rays))/jit(jit_jvp(render_rays))/jit(jvp(interpolate))/jit(jit_jvp(interpolate))/jit(jvp(vmap(vmap(_map_coordinates))))/jit(jit_jvp(vmap(vmap(_map_coordinates))))/add" source_file="/home/brent/tensorf-jax/tensorf/tensor_vm.py" source_line=222}
  %select.196 = s32[3,4096,221]{2,1,0} select(pred[3,4096,221]{2,1,0} %compare.184, s32[3,4096,221]{2,1,0} %add.584, s32[3,4096,221]{2,1,0} %clamp.58), metadata={op_name="jit(training_step)/jit(main)/jit(jvp(render_rays))/jit(jit_jvp(render_rays))/jit(jvp(interpolate))/jit(jit_jvp(interpolate))/jit(jvp(vmap(vmap(_map_coordinates))))/jit(jit_jvp(vmap(vmap(_map_coordinates))))/select_n" source_file="/home/brent/tensorf-jax/tensorf/tensor_vm.py" source_line=222}
  %bitcast.189 = s32[3,4096,221,1]{2,1,0,3} bitcast(s32[3,4096,221]{2,1,0} %select.196), metadata={op_name="jit(training_step)/jit(main)/jit(jvp(render_rays))/jit(jit_jvp(render_rays))/jit(jvp(interpolate))/jit(jit_jvp(interpolate))/jit(jvp(vmap(vmap(_map_coordinates))))/jit(jit_jvp(vmap(vmap(_map_coordinates))))/broadcast_in_dim[shape=(3, 4096, 221, 1) broadcast_dimensions=(0, 1, 2)]" source_file="/home/brent/tensorf-jax/tensorf/tensor_vm.py" source_line=222}
  %concatenate.158 = s32[3,4096,221,3]{2,1,0,3} concatenate(s32[3,4096,221,1]{2,1,0,3} %iota.119, s32[3,4096,221,1]{2,1,0,3} %bitcast.190, s32[3,4096,221,1]{2,1,0,3} %bitcast.189), dimensions={3}, metadata={op_name="jit(training_step)/jit(main)/jit(jvp(render_rays))/jit(jit_jvp(render_rays))/jit(jvp(interpolate))/jit(jit_jvp(interpolate))/jit(jvp(vmap(vmap(_map_coordinates))))/jit(jit_jvp(vmap(vmap(_map_coordinates))))/concatenate[dimension=3]" source_file="/home/brent/tensorf-jax/tensorf/tensor_vm.py" source_line=222}
  %copy.19 = s32[3,4096,221,3]{3,2,1,0} copy(s32[3,4096,221,3]{2,1,0,3} %concatenate.158), metadata={op_name="jit(training_step)/jit(main)/jit(jvp(render_rays))/jit(jit_jvp(render_rays))/jit(jvp(interpolate))/jit(jit_jvp(interpolate))/jit(jvp(vmap(vmap(_map_coordinates))))/jit(jit_jvp(vmap(vmap(_map_coordinates))))/concatenate[dimension=3]" source_file="/home/brent/tensorf-jax/tensorf/tensor_vm.py" source_line=222}
  %subtract.144 = f32[3,4096,221]{2,1,0} subtract(f32[3,4096,221]{2,1,0} %param_1.970, f32[3,4096,221]{2,1,0} %floor.107), metadata={op_name="jit(training_step)/jit(main)/jit(jvp(render_rays))/jit(jit_jvp(render_rays))/jit(jvp(interpolate))/jit(jit_jvp(interpolate))/jit(jvp(vmap(vmap(_map_coordinates))))/jit(jit_jvp(vmap(vmap(_map_coordinates))))/sub" source_file="/home/brent/tensorf-jax/tensorf/tensor_vm.py" source_line=222}
  %constant_864 = f32[] constant(1)
  %broadcast.1310 = f32[3,4096,221]{2,1,0} broadcast(f32[] %constant_864), dimensions={}, metadata={op_name="jit(training_step)/jit(main)/jit(jvp(render_rays))/jit(jit_jvp(render_rays))/jit(jvp(interpolate))/jit(jit_jvp(interpolate))/jit(jvp(vmap(vmap(_map_coordinates))))/jit(jit_jvp(vmap(vmap(_map_coordinates))))/sub" source_file="/home/brent/tensorf-jax/tensorf/tensor_vm.py" source_line=222}
  %subtract.143 = f32[3,4096,221]{2,1,0} subtract(f32[3,4096,221]{2,1,0} %param_0.737, f32[3,4096,221]{2,1,0} %floor.106), metadata={op_name="jit(training_step)/jit(main)/jit(jvp(render_rays))/jit(jit_jvp(render_rays))/jit(jvp(interpolate))/jit(jit_jvp(interpolate))/jit(jvp(vmap(vmap(_map_coordinates))))/jit(jit_jvp(vmap(vmap(_map_coordinates))))/sub" source_file="/home/brent/tensorf-jax/tensorf/tensor_vm.py" source_line=222}
  %subtract.142 = f32[3,4096,221]{2,1,0} subtract(f32[3,4096,221]{2,1,0} %broadcast.1310, f32[3,4096,221]{2,1,0} %subtract.143), metadata={op_name="jit(training_step)/jit(main)/jit(jvp(render_rays))/jit(jit_jvp(render_rays))/jit(jvp(interpolate))/jit(jit_jvp(interpolate))/jit(jvp(vmap(vmap(_map_coordinates))))/jit(jit_jvp(vmap(vmap(_map_coordinates))))/sub" source_file="/home/brent/tensorf-jax/tensorf/tensor_vm.py" source_line=222}
  %multiply.431 = f32[3,4096,221]{2,1,0} multiply(f32[3,4096,221]{2,1,0} %subtract.144, f32[3,4096,221]{2,1,0} %subtract.142), metadata={op_name="jit(training_step)/jit(main)/jit(jvp(render_rays))/jit(jit_jvp(render_rays))/jit(jvp(interpolate))/jit(jit_jvp(interpolate))/jit(jvp(vmap(vmap(_map_coordinates))))/jit(jit_jvp(vmap(vmap(_map_coordinates))))/mul" source_file="/home/brent/tensorf-jax/tensorf/tensor_vm.py" source_line=222}
  %broadcast.1308 = f32[3,16,4096,221]{3,2,1,0} broadcast(f32[3,4096,221]{2,1,0} %multiply.431), dimensions={0,2,3}, metadata={op_name="jit(training_step)/jit(main)/jit(jvp(render_rays))/jit(jit_jvp(render_rays))/jit(jvp(interpolate))/jit(jit_jvp(interpolate))/jit(jvp(vmap(vmap(_map_coordinates))))/jit(jit_jvp(vmap(vmap(_map_coordinates))))/mul" source_file="/home/brent/tensorf-jax/tensorf/tensor_vm.py" source_line=222}
  %param_2.990 = f32[3,16,4096,221]{3,2,1,0} parameter(2)
  %param_10.153 = f32[4096,221]{1,0} parameter(10)
  %slice.718 = f32[4096,1]{1,0} slice(f32[4096,221]{1,0} %param_10.153), slice={[0:4096], [220:221]}, metadata={op_name="jit(training_step)/jit(main)/jit(transpose(jvp(render_rays)))/jit(jit_transpose(jvp(render_rays)))/jit(transpose(jvp(_cumulative_reduction)))/jit(jit_transpose(jvp(_cumulative_reduction)))/slice[start_indices=(0, 0) limit_indices=(4096, 1) strides=(1, 1)]" source_file="/home/brent/tensorf-jax/tensorf/render.py" source_line=272}
  %param_11.111 = f32[4096,110]{1,0} parameter(11)
  %param_12.81 = f32[4096,110]{1,0} parameter(12)
  %add.1035 = f32[4096,110]{1,0} add(f32[4096,110]{1,0} %param_11.111, f32[4096,110]{1,0} %param_12.81), metadata={op_name="jit(training_step)/jit(main)/jit(transpose(jvp(render_rays)))/jit(jit_transpose(jvp(render_rays)))/jit(transpose(jvp(_cumulative_reduction)))/jit(jit_transpose(jvp(_cumulative_reduction)))/add" source_file="/home/brent/tensorf-jax/tensorf/render.py" source_line=272}
  %slice.717 = f32[4096,110]{1,0} slice(f32[4096,221]{1,0} %param_10.153), slice={[0:4096:1], [0:219:2]}, metadata={op_name="jit(training_step)/jit(main)/jit(transpose(jvp(render_rays)))/jit(jit_transpose(jvp(render_rays)))/jit(transpose(jvp(_cumulative_reduction)))/jit(jit_transpose(jvp(_cumulative_reduction)))/slice[start_indices=(0, 2) limit_indices=(4096, 221) strides=(1, 2)]" source_file="/home/brent/tensorf-jax/tensorf/render.py" source_line=272}
  %reverse.37 = f32[4096,110]{1,0} reverse(f32[4096,110]{1,0} %slice.717), dimensions={1}, metadata={op_name="jit(training_step)/jit(main)/jit(transpose(jvp(render_rays)))/jit(jit_transpose(jvp(render_rays)))/jit(transpose(jvp(_cumulative_reduction)))/jit(jit_transpose(jvp(_cumulative_reduction)))/slice[start_indices=(0, 2) limit_indices=(4096, 221) strides=(1, 2)]" source_file="/home/brent/tensorf-jax/tensorf/render.py" source_line=272}
  %add.1034 = f32[4096,110]{1,0} add(f32[4096,110]{1,0} %add.1035, f32[4096,110]{1,0} %reverse.37), metadata={op_name="jit(training_step)/jit(main)/jit(transpose(jvp(render_rays)))/jit(jit_transpose(jvp(render_rays)))/jit(transpose(jvp(_cumulative_reduction)))/jit(jit_transpose(jvp(_cumulative_reduction)))/add" source_file="/home/brent/tensorf-jax/tensorf/render.py" source_line=272}
  %concatenate.259 = f32[4096,111]{1,0} concatenate(f32[4096,1]{1,0} %slice.718, f32[4096,110]{1,0} %add.1034), dimensions={1}, metadata={op_name="jit(training_step)/jit(main)/jit(transpose(jvp(render_rays)))/jit(jit_transpose(jvp(render_rays)))/jit(transpose(jvp(_cumulative_reduction)))/jit(jit_transpose(jvp(_cumulative_reduction)))/concatenate[dimension=1]" source_file="/home/brent/tensorf-jax/tensorf/render.py" source_line=272}
  %pad.188 = f32[4096,221]{1,0} pad(f32[4096,111]{1,0} %concatenate.259, f32[] %constant_481), padding=0_0_0x0_0_1, metadata={op_name="jit(training_step)/jit(main)/jit(transpose(jvp(render_rays)))/jit(jit_transpose(jvp(render_rays)))/jit(transpose(jvp(_cumulative_reduction)))/jit(jit_transpose(jvp(_cumulative_reduction)))/pad[padding_config=((0, 0, 0), (0, 0, 1))]" source_file="/home/brent/tensorf-jax/tensorf/render.py" source_line=272}
  %pad.187 = f32[4096,221]{1,0} pad(f32[4096,110]{1,0} %add.1035, f32[] %constant_481), padding=0_0_0x1_1_1, metadata={op_name="jit(training_step)/jit(main)/jit(transpose(jvp(render_rays)))/jit(jit_transpose(jvp(render_rays)))/jit(transpose(jvp(_cumulative_reduction)))/jit(jit_transpose(jvp(_cumulative_reduction)))/pad[padding_config=((0, 0, 0), (1, 1, 1))]" source_file="/home/brent/tensorf-jax/tensorf/render.py" source_line=272}
  %add.1033 = f32[4096,221]{1,0} add(f32[4096,221]{1,0} %pad.188, f32[4096,221]{1,0} %pad.187), metadata={op_name="jit(training_step)/jit(main)/jit(transpose(jvp(render_rays)))/jit(jit_transpose(jvp(render_rays)))/jit(transpose(jvp(_cumulative_reduction)))/jit(jit_transpose(jvp(_cumulative_reduction)))/add" source_file="/home/brent/tensorf-jax/tensorf/render.py" source_line=272}
  %reverse.36 = f32[4096,221]{1,0} reverse(f32[4096,221]{1,0} %add.1033), dimensions={1}, metadata={op_name="jit(training_step)/jit(main)/jit(transpose(jvp(render_rays)))/jit(jit_transpose(jvp(render_rays)))/jit(transpose(jvp(_cumulative_reduction)))/jit(jit_transpose(jvp(_cumulative_reduction)))/rev[dimensions=(1,)]" source_file="/home/brent/tensorf-jax/tensorf/render.py" source_line=272}
  %param_8.359 = f32[4096,221]{1,0} parameter(8)
  %param_9.232 = f32[4096,221]{1,0} parameter(9)
  %slice.716 = f32[4096,220]{1,0} slice(f32[4096,221]{1,0} %param_9.232), slice={[0:4096], [0:220]}, metadata={op_name="jit(training_step)/jit(main)/jit(jvp(render_rays))/jit(jit_jvp(render_rays))/gather[dimension_numbers=GatherDimensionNumbers(offset_dims=(0, 1), collapsed_slice_dims=(), start_index_map=(1,)) slice_sizes=(4096, 220) unique_indices=True indices_are_sorted=True mode=GatherScatterMode.PROMISE_IN_BOUNDS fill_value=None]" source_file="/home/brent/tensorf-jax/tensorf/render.py" source_line=286}
  %pad.186 = f32[4096,221]{1,0} pad(f32[4096,220]{1,0} %slice.716, f32[] %constant_864), padding=0_0x1_0, metadata={op_name="jit(training_step)/jit(main)/jit(jvp(render_rays))/jit(jit_jvp(render_rays))/concatenate[dimension=1]" source_file="/home/brent/tensorf-jax/tensorf/render.py" source_line=283}
  %multiply.641 = f32[4096,221]{1,0} multiply(f32[4096,221]{1,0} %param_8.359, f32[4096,221]{1,0} %pad.186), metadata={op_name="jit(training_step)/jit(main)/jit(transpose(jvp(render_rays)))/jit(jit_transpose(jvp(render_rays)))/mul" source_file="/home/brent/tensorf-jax/tensorf/render.py" source_line=280}
  %negate.67 = f32[4096,221]{1,0} negate(f32[4096,221]{1,0} %multiply.641), metadata={op_name="jit(training_step)/jit(main)/jit(transpose(jvp(render_rays)))/jit(jit_transpose(jvp(render_rays)))/neg" source_file="/home/brent/tensorf-jax/tensorf/render.py" source_line=276}
  %param_3.871 = f32[4096,221]{1,0} parameter(3)
  %negate.66 = f32[4096,221]{1,0} negate(f32[4096,221]{1,0} %param_3.871), metadata={op_name="jit(training_step)/jit(main)/jit(jvp(render_rays))/jit(jit_jvp(render_rays))/neg" source_file="/home/brent/tensorf-jax/tensorf/render.py" source_line=271}
  %param_5.580 = pred[4096]{0} parameter(5)
  %param_7.440 = f32[4096]{0} parameter(7)
  %param_6.501 = f32[4096]{0} parameter(6)
  %constant_1822 = f32[] constant(0.001)
  %broadcast.2286 = f32[4096]{0} broadcast(f32[] %constant_1822), dimensions={}, metadata={op_name="jit(training_step)/jit(main)/jit(jvp(render_rays))/jit(jit_jvp(render_rays))/add" source_file="/home/brent/tensorf-jax/tensorf/render.py" source_line=374}
  %add.1032 = f32[4096]{0} add(f32[4096]{0} %param_6.501, f32[4096]{0} %broadcast.2286), metadata={op_name="jit(training_step)/jit(main)/jit(jvp(render_rays))/jit(jit_jvp(render_rays))/add" source_file="/home/brent/tensorf-jax/tensorf/render.py" source_line=374}
  %maximum.105 = f32[4096]{0} maximum(f32[4096]{0} %param_7.440, f32[4096]{0} %add.1032), metadata={op_name="jit(training_step)/jit(main)/jit(jvp(render_rays))/jit(jit_jvp(render_rays))/max" source_file="/home/brent/tensorf-jax/tensorf/render.py" source_line=374}
  %select.437 = f32[4096]{0} select(pred[4096]{0} %param_5.580, f32[4096]{0} %maximum.105, f32[4096]{0} %broadcast.2286), metadata={op_name="jit(training_step)/jit(main)/jit(jvp(render_rays))/jit(jit_jvp(render_rays))/jit(vmap(_where))/jit(jit_vmap(_where))/select_n" source_file="/home/brent/tensorf-jax/tensorf/render.py" source_line=379}
  %broadcast.2285 = f32[4096]{0} broadcast(f32[] %constant_481), dimensions={}, metadata={op_name="jit(training_step)/jit(main)/jit(jvp(render_rays))/jit(jit_jvp(render_rays))/max" source_file="/home/brent/tensorf-jax/tensorf/render.py" source_line=372}
  %select.435 = f32[4096]{0} select(pred[4096]{0} %param_5.580, f32[4096]{0} %param_6.501, f32[4096]{0} %broadcast.2285), metadata={op_name="jit(training_step)/jit(main)/jit(jvp(render_rays))/jit(jit_jvp(render_rays))/jit(vmap(_where))/jit(jit_vmap(_where))/select_n" source_file="/home/brent/tensorf-jax/tensorf/render.py" source_line=378}
  %subtract.390 = f32[4096]{0} subtract(f32[4096]{0} %select.437, f32[4096]{0} %select.435), metadata={op_name="jit(training_step)/jit(main)/jit(jvp(render_rays))/jit(jit_jvp(render_rays))/sub" source_file="/home/brent/tensorf-jax/tensorf/render.py" source_line=319}
  %constant_1820 = f32[] constant(0.00452488707)
  %broadcast.2284 = f32[4096]{0} broadcast(f32[] %constant_1820), dimensions={}, metadata={op_name="jit(training_step)/jit(main)/jit(jvp(render_rays))/jit(jit_jvp(render_rays))/div" source_file="/home/brent/tensorf-jax/tensorf/render.py" source_line=319}
  %multiply.640 = f32[4096]{0} multiply(f32[4096]{0} %subtract.390, f32[4096]{0} %broadcast.2284), metadata={op_name="jit(training_step)/jit(main)/jit(jvp(render_rays))/jit(jit_jvp(render_rays))/div" source_file="/home/brent/tensorf-jax/tensorf/render.py" source_line=319}
  %broadcast.2283 = f32[4096,221]{1,0} broadcast(f32[4096]{0} %multiply.640), dimensions={0}, metadata={op_name="jit(training_step)/jit(main)/jit(jvp(render_rays))/jit(jit_jvp(render_rays))/mul" source_file="/home/brent/tensorf-jax/tensorf/render.py" source_line=330}
  %multiply.639 = f32[4096,221]{1,0} multiply(f32[4096,221]{1,0} %negate.66, f32[4096,221]{1,0} %broadcast.2283), metadata={op_name="jit(training_step)/jit(main)/jit(jvp(render_rays))/jit(jit_jvp(render_rays))/mul" source_file="/home/brent/tensorf-jax/tensorf/render.py" source_line=271}
  %exponential.40 = f32[4096,221]{1,0} exponential(f32[4096,221]{1,0} %multiply.639), metadata={op_name="jit(training_step)/jit(main)/jit(jvp(render_rays))/jit(jit_jvp(render_rays))/exp" source_file="/home/brent/tensorf-jax/tensorf/render.py" source_line=276}
  %multiply.638 = f32[4096,221]{1,0} multiply(f32[4096,221]{1,0} %negate.67, f32[4096,221]{1,0} %exponential.40), metadata={op_name="jit(training_step)/jit(main)/jit(transpose(jvp(render_rays)))/jit(jit_transpose(jvp(render_rays)))/mul" source_file="/home/brent/tensorf-jax/tensorf/render.py" source_line=276}
  %add.1031 = f32[4096,221]{1,0} add(f32[4096,221]{1,0} %reverse.36, f32[4096,221]{1,0} %multiply.638), metadata={op_name="jit(training_step)/jit(main)/jit(transpose(jvp(render_rays)))/jit(jit_transpose(jvp(render_rays)))/add_any" source_file="/home/brent/tensorf-jax/tensorf/render.py" source_line=276}
  %multiply.636 = f32[4096,221]{1,0} multiply(f32[4096,221]{1,0} %add.1031, f32[4096,221]{1,0} %broadcast.2283), metadata={op_name="jit(training_step)/jit(main)/jit(transpose(jvp(render_rays)))/jit(jit_transpose(jvp(render_rays)))/mul" source_file="/home/brent/tensorf-jax/tensorf/render.py" source_line=271}
  %negate.65 = f32[4096,221]{1,0} negate(f32[4096,221]{1,0} %multiply.636), metadata={op_name="jit(training_step)/jit(main)/jit(transpose(jvp(render_rays)))/jit(jit_transpose(jvp(render_rays)))/neg" source_file="/home/brent/tensorf-jax/tensorf/render.py" source_line=271}
  %param_4.633 = f32[4096,221]{1,0} parameter(4)
  %constant_1819 = f32[] constant(10)
  %broadcast.2278 = f32[4096,221]{1,0} broadcast(f32[] %constant_1819), dimensions={}, metadata={op_name="jit(training_step)/jit(main)/jit(jvp(render_rays))/jit(jit_jvp(render_rays))/add" source_file="/home/brent/tensorf-jax/tensorf/render.py" source_line=156}
  %add.1029 = f32[4096,221]{1,0} add(f32[4096,221]{1,0} %param_4.633, f32[4096,221]{1,0} %broadcast.2278), metadata={op_name="jit(training_step)/jit(main)/jit(jvp(render_rays))/jit(jit_jvp(render_rays))/add" source_file="/home/brent/tensorf-jax/tensorf/render.py" source_line=156}
  %constant_1818 = f32[] constant(inf)
  %broadcast.2277 = f32[4096,221]{1,0} broadcast(f32[] %constant_1818), dimensions={}, metadata={op_name="jit(training_step)/jit(main)/jit(jvp(render_rays))/jit(jit_jvp(render_rays))/jit(jvp(softplus))/jit(jit_jvp(softplus))/eq" source_file="/home/brent/tensorf-jax/tensorf/render.py" source_line=156}
  %compare.351 = pred[4096,221]{1,0} compare(f32[4096,221]{1,0} %add.1029, f32[4096,221]{1,0} %broadcast.2277), direction=EQ, metadata={op_name="jit(training_step)/jit(main)/jit(jvp(render_rays))/jit(jit_jvp(render_rays))/jit(jvp(softplus))/jit(jit_jvp(softplus))/eq" source_file="/home/brent/tensorf-jax/tensorf/render.py" source_line=156}
  %broadcast.2276 = f32[4096,221]{1,0} broadcast(f32[] %constant_481), dimensions={}, metadata={op_name="jit(training_step)/jit(main)/jit(jvp(render_rays))/jit(jit_jvp(render_rays))/jit(jvp(softplus))/jit(jit_jvp(softplus))/jit(logaddexp)/jit(jit_logaddexp)/max" source_file="/home/brent/tensorf-jax/tensorf/render.py" source_line=156}
  %select.431 = f32[4096,221]{1,0} select(pred[4096,221]{1,0} %compare.351, f32[4096,221]{1,0} %broadcast.2276, f32[4096,221]{1,0} %add.1029), metadata={op_name="jit(training_step)/jit(main)/jit(jvp(render_rays))/jit(jit_jvp(render_rays))/jit(jvp(softplus))/jit(jit_jvp(softplus))/select_n" source_file="/home/brent/tensorf-jax/tensorf/render.py" source_line=156}
  %compare.350 = pred[4096,221]{1,0} compare(f32[4096,221]{1,0} %param_3.871, f32[4096,221]{1,0} %broadcast.2277), direction=EQ, metadata={op_name="jit(training_step)/jit(main)/jit(jvp(render_rays))/jit(jit_jvp(render_rays))/jit(jvp(softplus))/jit(jit_jvp(softplus))/eq" source_file="/home/brent/tensorf-jax/tensorf/render.py" source_line=156}
  %select.430 = f32[4096,221]{1,0} select(pred[4096,221]{1,0} %compare.350, f32[4096,221]{1,0} %broadcast.2276, f32[4096,221]{1,0} %param_3.871), metadata={op_name="jit(training_step)/jit(main)/jit(jvp(render_rays))/jit(jit_jvp(render_rays))/jit(jvp(softplus))/jit(jit_jvp(softplus))/select_n" source_file="/home/brent/tensorf-jax/tensorf/render.py" source_line=156}
  %subtract.388 = f32[4096,221]{1,0} subtract(f32[4096,221]{1,0} %select.431, f32[4096,221]{1,0} %select.430), metadata={op_name="jit(training_step)/jit(main)/jit(jvp(render_rays))/jit(jit_jvp(render_rays))/jit(jvp(softplus))/jit(jit_jvp(softplus))/sub" source_file="/home/brent/tensorf-jax/tensorf/render.py" source_line=156}
  %exponential.39 = f32[4096,221]{1,0} exponential(f32[4096,221]{1,0} %subtract.388), metadata={op_name="jit(training_step)/jit(main)/jit(jvp(render_rays))/jit(jit_jvp(render_rays))/jit(jvp(softplus))/jit(jit_jvp(softplus))/exp" source_file="/home/brent/tensorf-jax/tensorf/render.py" source_line=156}
  %multiply.635 = f32[4096,221]{1,0} multiply(f32[4096,221]{1,0} %negate.65, f32[4096,221]{1,0} %exponential.39), metadata={op_name="jit(training_step)/jit(main)/jit(transpose(jvp(render_rays)))/jit(jit_transpose(jvp(render_rays)))/jit(transpose(jvp(softplus)))/jit(jit_transpose(jvp(softplus)))/mul" source_file="/home/brent/tensorf-jax/tensorf/render.py" source_line=156}
  %broadcast.2275 = f32[3,16,4096,221]{2,1,0,3} broadcast(f32[4096,221]{1,0} %multiply.635), dimensions={2,3}, metadata={op_name="jit(training_step)/jit(main)/jit(transpose(jvp(render_rays)))/jit(jit_transpose(jvp(render_rays)))/jit(transpose(jvp(interpolate)))/jit(jit_transpose(jvp(interpolate)))/reshape[new_sizes=(3, 16, 4096, 221) dimensions=None]" source_file="/home/brent/tensorf-jax/tensorf/tensor_vm.py" source_line=95}
  %copy.37 = f32[3,16,4096,221]{3,2,1,0} copy(f32[3,16,4096,221]{2,1,0,3} %broadcast.2275), metadata={op_name="jit(training_step)/jit(main)/jit(transpose(jvp(render_rays)))/jit(jit_transpose(jvp(render_rays)))/jit(transpose(jvp(interpolate)))/jit(jit_transpose(jvp(interpolate)))/reshape[new_sizes=(3, 16, 4096, 221) dimensions=None]" source_file="/home/brent/tensorf-jax/tensorf/tensor_vm.py" source_line=95}
  %multiply.634 = f32[3,16,4096,221]{3,2,1,0} multiply(f32[3,16,4096,221]{3,2,1,0} %param_2.990, f32[3,16,4096,221]{3,2,1,0} %copy.37), metadata={op_name="jit(training_step)/jit(main)/jit(transpose(jvp(render_rays)))/jit(jit_transpose(jvp(render_rays)))/jit(transpose(jvp(interpolate)))/jit(jit_transpose(jvp(interpolate)))/mul" source_file="/home/brent/tensorf-jax/tensorf/tensor_vm.py" source_line=176}
  %multiply.244 = f32[3,16,4096,221]{3,2,1,0} multiply(f32[3,16,4096,221]{3,2,1,0} %broadcast.1308, f32[3,16,4096,221]{3,2,1,0} %multiply.634), metadata={op_name="jit(training_step)/jit(main)/jit(transpose(jvp(render_rays)))/jit(jit_transpose(jvp(render_rays)))/jit(transpose(jvp(interpolate)))/jit(jit_transpose(jvp(interpolate)))/jit(transpose(jvp(vmap(vmap(_map_coordinates)))))/jit(jit_transpose(jvp(vmap(vmap(_map_coordinates)))))/mul" source_file="/home/brent/tensorf-jax/tensorf/tensor_vm.py" source_line=222}
  ROOT %scatter.44 = f32[3,16,128,128]{3,2,1,0} scatter(f32[3,16,128,128]{3,2,1,0} %broadcast.963, s32[3,4096,221,3]{3,2,1,0} %copy.19, f32[3,16,4096,221]{3,2,1,0} %multiply.244), update_window_dims={1}, inserted_window_dims={0,2,3}, scatter_dims_to_operand_dims={0,2,3}, index_vector_dim=3, to_apply=%region_22.1608, metadata={op_name="jit(training_step)/jit(main)/jit(transpose(jvp(render_rays)))/jit(jit_transpose(jvp(render_rays)))/jit(transpose(jvp(interpolate)))/jit(jit_transpose(jvp(interpolate)))/jit(transpose(jvp(vmap(vmap(_map_coordinates)))))/jit(jit_transpose(jvp(vmap(vmap(_map_coordinates)))))/scatter-add[update_consts=() dimension_numbers=ScatterDimensionNumbers(update_window_dims=(1,), inserted_window_dims=(0, 2, 3), scatter_dims_to_operand_dims=(0, 2, 3)) indices_are_sorted=False unique_indices=False mode=GatherScatterMode.PROMISE_IN_BOUNDS]" source_file="/home/brent/tensorf-jax/tensorf/tensor_vm.py" source_line=222}
}

%region_21.1604 (Arg_0.1605: f32[], Arg_1.1606: f32[]) -> f32[] {
  %Arg_0.1605 = f32[] parameter(0)
  %Arg_1.1606 = f32[] parameter(1)
  ROOT %add.1607 = f32[] add(f32[] %Arg_0.1605, f32[] %Arg_1.1606), metadata={op_name="add" source_file="/home/brent/tensorf-jax/tensorf/render.py" source_line=452}
}

%input_fused_computation_scatter.3 (param_0.735: f32[3,4096,221], param_1.968: f32[3,4096,221], param_2.988: f32[3,16,4096,221], param_3.865: f32[4096,221], param_4.625: f32[4096,221], param_5.570: pred[4096], param_6.489: f32[4096], param_7.424: f32[4096], param_8.349: f32[4096,221], param_9.224: f32[4096,221], param_10.139: f32[4096,221], param_11.97: f32[4096,110], param_12.64: f32[4096,110]) -> f32[3,16,128,128] {
  %constant_482 = f32[] constant(0)
  %broadcast.964 = f32[3,16,128,128]{3,2,1,0} broadcast(f32[] %constant_482), dimensions={}, metadata={op_name="jit(training_step)/jit(main)/jit(transpose(jvp(render_rays)))/jit(jit_transpose(jvp(render_rays)))/jit(transpose(jvp(interpolate)))/jit(jit_transpose(jvp(interpolate)))/jit(transpose(jvp(vmap(vmap(_map_coordinates)))))/jit(jit_transpose(jvp(vmap(vmap(_map_coordinates)))))/broadcast_in_dim[shape=(3, 16, 128, 128) broadcast_dimensions=()]" source_file="/home/brent/tensorf-jax/tensorf/tensor_vm.py" source_line=222}
  %iota.115 = s32[3,4096,221,1]{3,2,1,0} iota(), iota_dimension=0, metadata={op_name="jit(training_step)/jit(main)/jit(jvp(render_rays))/jit(jit_jvp(render_rays))/jit(jvp(interpolate))/jit(jit_jvp(interpolate))/jit(jvp(vmap(vmap(_map_coordinates))))/jit(jit_jvp(vmap(vmap(_map_coordinates))))/iota[dtype=int32 shape=(3, 4096, 221, 1) dimension=0]" source_file="/home/brent/tensorf-jax/tensorf/tensor_vm.py" source_line=222}
  %constant_854 = s32[] constant(0)
  %broadcast.1299 = s32[3,4096,221]{2,1,0} broadcast(s32[] %constant_854), dimensions={}, metadata={op_name="jit(training_step)/jit(main)/jit(jvp(render_rays))/jit(jit_jvp(render_rays))/jit(jvp(interpolate))/jit(jit_jvp(interpolate))/jit(jvp(vmap(vmap(_map_coordinates))))/jit(jit_jvp(vmap(vmap(_map_coordinates))))/jit(vmap(clip))/jit(jit_vmap(clip))/max" source_file="/home/brent/tensorf-jax/tensorf/tensor_vm.py" source_line=222}
  %param_1.968 = f32[3,4096,221]{2,1,0} parameter(1)
  %floor.87 = f32[3,4096,221]{2,1,0} floor(f32[3,4096,221]{2,1,0} %param_1.968), metadata={op_name="jit(training_step)/jit(main)/jit(jvp(render_rays))/jit(jit_jvp(render_rays))/jit(jvp(interpolate))/jit(jit_jvp(interpolate))/jit(jvp(vmap(vmap(_map_coordinates))))/jit(jit_jvp(vmap(vmap(_map_coordinates))))/floor" source_file="/home/brent/tensorf-jax/tensorf/tensor_vm.py" source_line=222}
  %convert.58 = s32[3,4096,221]{2,1,0} convert(f32[3,4096,221]{2,1,0} %floor.87), metadata={op_name="jit(training_step)/jit(main)/jit(jvp(render_rays))/jit(jit_jvp(render_rays))/jit(jvp(interpolate))/jit(jit_jvp(interpolate))/jit(jvp(vmap(vmap(_map_coordinates))))/jit(jit_jvp(vmap(vmap(_map_coordinates))))/convert_element_type[new_dtype=int32 weak_type=False]" source_file="/home/brent/tensorf-jax/tensorf/tensor_vm.py" source_line=222}
  %constant_853 = s32[] constant(1)
  %broadcast.1298 = s32[3,4096,221]{2,1,0} broadcast(s32[] %constant_853), dimensions={}, metadata={op_name="jit(training_step)/jit(main)/jit(jvp(render_rays))/jit(jit_jvp(render_rays))/jit(jvp(interpolate))/jit(jit_jvp(interpolate))/jit(jvp(vmap(vmap(_map_coordinates))))/jit(jit_jvp(vmap(vmap(_map_coordinates))))/add" source_file="/home/brent/tensorf-jax/tensorf/tensor_vm.py" source_line=222}
  %add.565 = s32[3,4096,221]{2,1,0} add(s32[3,4096,221]{2,1,0} %convert.58, s32[3,4096,221]{2,1,0} %broadcast.1298), metadata={op_name="jit(training_step)/jit(main)/jit(jvp(render_rays))/jit(jit_jvp(render_rays))/jit(jvp(interpolate))/jit(jit_jvp(interpolate))/jit(jvp(vmap(vmap(_map_coordinates))))/jit(jit_jvp(vmap(vmap(_map_coordinates))))/add" source_file="/home/brent/tensorf-jax/tensorf/tensor_vm.py" source_line=222}
  %constant_852 = s32[] constant(127)
  %broadcast.1297 = s32[3,4096,221]{2,1,0} broadcast(s32[] %constant_852), dimensions={}, metadata={op_name="jit(training_step)/jit(main)/jit(jvp(render_rays))/jit(jit_jvp(render_rays))/jit(jvp(interpolate))/jit(jit_jvp(interpolate))/jit(jvp(vmap(vmap(_map_coordinates))))/jit(jit_jvp(vmap(vmap(_map_coordinates))))/jit(vmap(clip))/jit(jit_vmap(clip))/min" source_file="/home/brent/tensorf-jax/tensorf/tensor_vm.py" source_line=222}
  %clamp.47 = s32[3,4096,221]{2,1,0} clamp(s32[3,4096,221]{2,1,0} %broadcast.1299, s32[3,4096,221]{2,1,0} %add.565, s32[3,4096,221]{2,1,0} %broadcast.1297), metadata={op_name="jit(training_step)/jit(main)/jit(jvp(render_rays))/jit(jit_jvp(render_rays))/jit(jvp(interpolate))/jit(jit_jvp(interpolate))/jit(jvp(vmap(vmap(_map_coordinates))))/jit(jit_jvp(vmap(vmap(_map_coordinates))))/jit(vmap(clip))/jit(jit_vmap(clip))/min" source_file="/home/brent/tensorf-jax/tensorf/tensor_vm.py" source_line=222}
  %compare.173 = pred[3,4096,221]{2,1,0} compare(s32[3,4096,221]{2,1,0} %clamp.47, s32[3,4096,221]{2,1,0} %broadcast.1299), direction=LT, metadata={op_name="jit(training_step)/jit(main)/jit(jvp(render_rays))/jit(jit_jvp(render_rays))/jit(jvp(interpolate))/jit(jit_jvp(interpolate))/jit(jvp(vmap(vmap(_map_coordinates))))/jit(jit_jvp(vmap(vmap(_map_coordinates))))/lt" source_file="/home/brent/tensorf-jax/tensorf/tensor_vm.py" source_line=222}
  %constant_851 = s32[] constant(128)
  %broadcast.1296 = s32[3,4096,221]{2,1,0} broadcast(s32[] %constant_851), dimensions={}, metadata={op_name="jit(training_step)/jit(main)/jit(jvp(render_rays))/jit(jit_jvp(render_rays))/jit(jvp(interpolate))/jit(jit_jvp(interpolate))/jit(jvp(vmap(vmap(_map_coordinates))))/jit(jit_jvp(vmap(vmap(_map_coordinates))))/add" source_file="/home/brent/tensorf-jax/tensorf/tensor_vm.py" source_line=222}
  %add.563 = s32[3,4096,221]{2,1,0} add(s32[3,4096,221]{2,1,0} %clamp.47, s32[3,4096,221]{2,1,0} %broadcast.1296), metadata={op_name="jit(training_step)/jit(main)/jit(jvp(render_rays))/jit(jit_jvp(render_rays))/jit(jvp(interpolate))/jit(jit_jvp(interpolate))/jit(jvp(vmap(vmap(_map_coordinates))))/jit(jit_jvp(vmap(vmap(_map_coordinates))))/add" source_file="/home/brent/tensorf-jax/tensorf/tensor_vm.py" source_line=222}
  %select.185 = s32[3,4096,221]{2,1,0} select(pred[3,4096,221]{2,1,0} %compare.173, s32[3,4096,221]{2,1,0} %add.563, s32[3,4096,221]{2,1,0} %clamp.47), metadata={op_name="jit(training_step)/jit(main)/jit(jvp(render_rays))/jit(jit_jvp(render_rays))/jit(jvp(interpolate))/jit(jit_jvp(interpolate))/jit(jvp(vmap(vmap(_map_coordinates))))/jit(jit_jvp(vmap(vmap(_map_coordinates))))/select_n" source_file="/home/brent/tensorf-jax/tensorf/tensor_vm.py" source_line=222}
  %bitcast.178 = s32[3,4096,221,1]{3,2,1,0} bitcast(s32[3,4096,221]{2,1,0} %select.185), metadata={op_name="jit(training_step)/jit(main)/jit(jvp(render_rays))/jit(jit_jvp(render_rays))/jit(jvp(interpolate))/jit(jit_jvp(interpolate))/jit(jvp(vmap(vmap(_map_coordinates))))/jit(jit_jvp(vmap(vmap(_map_coordinates))))/broadcast_in_dim[shape=(3, 4096, 221, 1) broadcast_dimensions=(0, 1, 2)]" source_file="/home/brent/tensorf-jax/tensorf/tensor_vm.py" source_line=222}
  %param_0.735 = f32[3,4096,221]{2,1,0} parameter(0)
  %floor.86 = f32[3,4096,221]{2,1,0} floor(f32[3,4096,221]{2,1,0} %param_0.735), metadata={op_name="jit(training_step)/jit(main)/jit(jvp(render_rays))/jit(jit_jvp(render_rays))/jit(jvp(interpolate))/jit(jit_jvp(interpolate))/jit(jvp(vmap(vmap(_map_coordinates))))/jit(jit_jvp(vmap(vmap(_map_coordinates))))/floor" source_file="/home/brent/tensorf-jax/tensorf/tensor_vm.py" source_line=222}
  %convert.57 = s32[3,4096,221]{2,1,0} convert(f32[3,4096,221]{2,1,0} %floor.86), metadata={op_name="jit(training_step)/jit(main)/jit(jvp(render_rays))/jit(jit_jvp(render_rays))/jit(jvp(interpolate))/jit(jit_jvp(interpolate))/jit(jvp(vmap(vmap(_map_coordinates))))/jit(jit_jvp(vmap(vmap(_map_coordinates))))/convert_element_type[new_dtype=int32 weak_type=False]" source_file="/home/brent/tensorf-jax/tensorf/tensor_vm.py" source_line=222}
  %add.562 = s32[3,4096,221]{2,1,0} add(s32[3,4096,221]{2,1,0} %convert.57, s32[3,4096,221]{2,1,0} %broadcast.1298), metadata={op_name="jit(training_step)/jit(main)/jit(jvp(render_rays))/jit(jit_jvp(render_rays))/jit(jvp(interpolate))/jit(jit_jvp(interpolate))/jit(jvp(vmap(vmap(_map_coordinates))))/jit(jit_jvp(vmap(vmap(_map_coordinates))))/add" source_file="/home/brent/tensorf-jax/tensorf/tensor_vm.py" source_line=222}
  %clamp.46 = s32[3,4096,221]{2,1,0} clamp(s32[3,4096,221]{2,1,0} %broadcast.1299, s32[3,4096,221]{2,1,0} %add.562, s32[3,4096,221]{2,1,0} %broadcast.1297), metadata={op_name="jit(training_step)/jit(main)/jit(jvp(render_rays))/jit(jit_jvp(render_rays))/jit(jvp(interpolate))/jit(jit_jvp(interpolate))/jit(jvp(vmap(vmap(_map_coordinates))))/jit(jit_jvp(vmap(vmap(_map_coordinates))))/jit(vmap(clip))/jit(jit_vmap(clip))/min" source_file="/home/brent/tensorf-jax/tensorf/tensor_vm.py" source_line=222}
  %compare.172 = pred[3,4096,221]{2,1,0} compare(s32[3,4096,221]{2,1,0} %clamp.46, s32[3,4096,221]{2,1,0} %broadcast.1299), direction=LT, metadata={op_name="jit(training_step)/jit(main)/jit(jvp(render_rays))/jit(jit_jvp(render_rays))/jit(jvp(interpolate))/jit(jit_jvp(interpolate))/jit(jvp(vmap(vmap(_map_coordinates))))/jit(jit_jvp(vmap(vmap(_map_coordinates))))/lt" source_file="/home/brent/tensorf-jax/tensorf/tensor_vm.py" source_line=222}
  %add.560 = s32[3,4096,221]{2,1,0} add(s32[3,4096,221]{2,1,0} %clamp.46, s32[3,4096,221]{2,1,0} %broadcast.1296), metadata={op_name="jit(training_step)/jit(main)/jit(jvp(render_rays))/jit(jit_jvp(render_rays))/jit(jvp(interpolate))/jit(jit_jvp(interpolate))/jit(jvp(vmap(vmap(_map_coordinates))))/jit(jit_jvp(vmap(vmap(_map_coordinates))))/add" source_file="/home/brent/tensorf-jax/tensorf/tensor_vm.py" source_line=222}
  %select.184 = s32[3,4096,221]{2,1,0} select(pred[3,4096,221]{2,1,0} %compare.172, s32[3,4096,221]{2,1,0} %add.560, s32[3,4096,221]{2,1,0} %clamp.46), metadata={op_name="jit(training_step)/jit(main)/jit(jvp(render_rays))/jit(jit_jvp(render_rays))/jit(jvp(interpolate))/jit(jit_jvp(interpolate))/jit(jvp(vmap(vmap(_map_coordinates))))/jit(jit_jvp(vmap(vmap(_map_coordinates))))/select_n" source_file="/home/brent/tensorf-jax/tensorf/tensor_vm.py" source_line=222}
  %bitcast.177 = s32[3,4096,221,1]{3,2,1,0} bitcast(s32[3,4096,221]{2,1,0} %select.184), metadata={op_name="jit(training_step)/jit(main)/jit(jvp(render_rays))/jit(jit_jvp(render_rays))/jit(jvp(interpolate))/jit(jit_jvp(interpolate))/jit(jvp(vmap(vmap(_map_coordinates))))/jit(jit_jvp(vmap(vmap(_map_coordinates))))/broadcast_in_dim[shape=(3, 4096, 221, 1) broadcast_dimensions=(0, 1, 2)]" source_file="/home/brent/tensorf-jax/tensorf/tensor_vm.py" source_line=222}
  %concatenate.154 = s32[3,4096,221,3]{3,2,1,0} concatenate(s32[3,4096,221,1]{3,2,1,0} %iota.115, s32[3,4096,221,1]{3,2,1,0} %bitcast.178, s32[3,4096,221,1]{3,2,1,0} %bitcast.177), dimensions={3}, metadata={op_name="jit(training_step)/jit(main)/jit(jvp(render_rays))/jit(jit_jvp(render_rays))/jit(jvp(interpolate))/jit(jit_jvp(interpolate))/jit(jvp(vmap(vmap(_map_coordinates))))/jit(jit_jvp(vmap(vmap(_map_coordinates))))/concatenate[dimension=3]" source_file="/home/brent/tensorf-jax/tensorf/tensor_vm.py" source_line=222}
  %subtract.132 = f32[3,4096,221]{2,1,0} subtract(f32[3,4096,221]{2,1,0} %param_1.968, f32[3,4096,221]{2,1,0} %floor.87), metadata={op_name="jit(training_step)/jit(main)/jit(jvp(render_rays))/jit(jit_jvp(render_rays))/jit(jvp(interpolate))/jit(jit_jvp(interpolate))/jit(jvp(vmap(vmap(_map_coordinates))))/jit(jit_jvp(vmap(vmap(_map_coordinates))))/sub" source_file="/home/brent/tensorf-jax/tensorf/tensor_vm.py" source_line=222}
  %subtract.131 = f32[3,4096,221]{2,1,0} subtract(f32[3,4096,221]{2,1,0} %param_0.735, f32[3,4096,221]{2,1,0} %floor.86), metadata={op_name="jit(training_step)/jit(main)/jit(jvp(render_rays))/jit(jit_jvp(render_rays))/jit(jvp(interpolate))/jit(jit_jvp(interpolate))/jit(jvp(vmap(vmap(_map_coordinates))))/jit(jit_jvp(vmap(vmap(_map_coordinates))))/sub" source_file="/home/brent/tensorf-jax/tensorf/tensor_vm.py" source_line=222}
  %multiply.426 = f32[3,4096,221]{2,1,0} multiply(f32[3,4096,221]{2,1,0} %subtract.132, f32[3,4096,221]{2,1,0} %subtract.131), metadata={op_name="jit(training_step)/jit(main)/jit(jvp(render_rays))/jit(jit_jvp(render_rays))/jit(jvp(interpolate))/jit(jit_jvp(interpolate))/jit(jvp(vmap(vmap(_map_coordinates))))/jit(jit_jvp(vmap(vmap(_map_coordinates))))/mul" source_file="/home/brent/tensorf-jax/tensorf/tensor_vm.py" source_line=222}
  %broadcast.1223 = f32[3,16,4096,221]{3,2,1,0} broadcast(f32[3,4096,221]{2,1,0} %multiply.426), dimensions={0,2,3}, metadata={op_name="jit(training_step)/jit(main)/jit(jvp(render_rays))/jit(jit_jvp(render_rays))/jit(jvp(interpolate))/jit(jit_jvp(interpolate))/jit(jvp(vmap(vmap(_map_coordinates))))/jit(jit_jvp(vmap(vmap(_map_coordinates))))/mul" source_file="/home/brent/tensorf-jax/tensorf/tensor_vm.py" source_line=222}
  %param_2.988 = f32[3,16,4096,221]{3,2,1,0} parameter(2)
  %param_10.139 = f32[4096,221]{1,0} parameter(10)
  %slice.712 = f32[4096,1]{1,0} slice(f32[4096,221]{1,0} %param_10.139), slice={[0:4096], [220:221]}, metadata={op_name="jit(training_step)/jit(main)/jit(transpose(jvp(render_rays)))/jit(jit_transpose(jvp(render_rays)))/jit(transpose(jvp(_cumulative_reduction)))/jit(jit_transpose(jvp(_cumulative_reduction)))/slice[start_indices=(0, 0) limit_indices=(4096, 1) strides=(1, 1)]" source_file="/home/brent/tensorf-jax/tensorf/render.py" source_line=272}
  %param_11.97 = f32[4096,110]{1,0} parameter(11)
  %param_12.64 = f32[4096,110]{1,0} parameter(12)
  %add.1021 = f32[4096,110]{1,0} add(f32[4096,110]{1,0} %param_11.97, f32[4096,110]{1,0} %param_12.64), metadata={op_name="jit(training_step)/jit(main)/jit(transpose(jvp(render_rays)))/jit(jit_transpose(jvp(render_rays)))/jit(transpose(jvp(_cumulative_reduction)))/jit(jit_transpose(jvp(_cumulative_reduction)))/add" source_file="/home/brent/tensorf-jax/tensorf/render.py" source_line=272}
  %slice.711 = f32[4096,110]{1,0} slice(f32[4096,221]{1,0} %param_10.139), slice={[0:4096:1], [0:219:2]}, metadata={op_name="jit(training_step)/jit(main)/jit(transpose(jvp(render_rays)))/jit(jit_transpose(jvp(render_rays)))/jit(transpose(jvp(_cumulative_reduction)))/jit(jit_transpose(jvp(_cumulative_reduction)))/slice[start_indices=(0, 2) limit_indices=(4096, 221) strides=(1, 2)]" source_file="/home/brent/tensorf-jax/tensorf/render.py" source_line=272}
  %reverse.33 = f32[4096,110]{1,0} reverse(f32[4096,110]{1,0} %slice.711), dimensions={1}, metadata={op_name="jit(training_step)/jit(main)/jit(transpose(jvp(render_rays)))/jit(jit_transpose(jvp(render_rays)))/jit(transpose(jvp(_cumulative_reduction)))/jit(jit_transpose(jvp(_cumulative_reduction)))/slice[start_indices=(0, 2) limit_indices=(4096, 221) strides=(1, 2)]" source_file="/home/brent/tensorf-jax/tensorf/render.py" source_line=272}
  %add.1020 = f32[4096,110]{1,0} add(f32[4096,110]{1,0} %add.1021, f32[4096,110]{1,0} %reverse.33), metadata={op_name="jit(training_step)/jit(main)/jit(transpose(jvp(render_rays)))/jit(jit_transpose(jvp(render_rays)))/jit(transpose(jvp(_cumulative_reduction)))/jit(jit_transpose(jvp(_cumulative_reduction)))/add" source_file="/home/brent/tensorf-jax/tensorf/render.py" source_line=272}
  %concatenate.257 = f32[4096,111]{1,0} concatenate(f32[4096,1]{1,0} %slice.712, f32[4096,110]{1,0} %add.1020), dimensions={1}, metadata={op_name="jit(training_step)/jit(main)/jit(transpose(jvp(render_rays)))/jit(jit_transpose(jvp(render_rays)))/jit(transpose(jvp(_cumulative_reduction)))/jit(jit_transpose(jvp(_cumulative_reduction)))/concatenate[dimension=1]" source_file="/home/brent/tensorf-jax/tensorf/render.py" source_line=272}
  %pad.182 = f32[4096,221]{1,0} pad(f32[4096,111]{1,0} %concatenate.257, f32[] %constant_482), padding=0_0_0x0_0_1, metadata={op_name="jit(training_step)/jit(main)/jit(transpose(jvp(render_rays)))/jit(jit_transpose(jvp(render_rays)))/jit(transpose(jvp(_cumulative_reduction)))/jit(jit_transpose(jvp(_cumulative_reduction)))/pad[padding_config=((0, 0, 0), (0, 0, 1))]" source_file="/home/brent/tensorf-jax/tensorf/render.py" source_line=272}
  %pad.181 = f32[4096,221]{1,0} pad(f32[4096,110]{1,0} %add.1021, f32[] %constant_482), padding=0_0_0x1_1_1, metadata={op_name="jit(training_step)/jit(main)/jit(transpose(jvp(render_rays)))/jit(jit_transpose(jvp(render_rays)))/jit(transpose(jvp(_cumulative_reduction)))/jit(jit_transpose(jvp(_cumulative_reduction)))/pad[padding_config=((0, 0, 0), (1, 1, 1))]" source_file="/home/brent/tensorf-jax/tensorf/render.py" source_line=272}
  %add.1019 = f32[4096,221]{1,0} add(f32[4096,221]{1,0} %pad.182, f32[4096,221]{1,0} %pad.181), metadata={op_name="jit(training_step)/jit(main)/jit(transpose(jvp(render_rays)))/jit(jit_transpose(jvp(render_rays)))/jit(transpose(jvp(_cumulative_reduction)))/jit(jit_transpose(jvp(_cumulative_reduction)))/add" source_file="/home/brent/tensorf-jax/tensorf/render.py" source_line=272}
  %reverse.32 = f32[4096,221]{1,0} reverse(f32[4096,221]{1,0} %add.1019), dimensions={1}, metadata={op_name="jit(training_step)/jit(main)/jit(transpose(jvp(render_rays)))/jit(jit_transpose(jvp(render_rays)))/jit(transpose(jvp(_cumulative_reduction)))/jit(jit_transpose(jvp(_cumulative_reduction)))/rev[dimensions=(1,)]" source_file="/home/brent/tensorf-jax/tensorf/render.py" source_line=272}
  %param_8.349 = f32[4096,221]{1,0} parameter(8)
  %param_9.224 = f32[4096,221]{1,0} parameter(9)
  %slice.710 = f32[4096,220]{1,0} slice(f32[4096,221]{1,0} %param_9.224), slice={[0:4096], [0:220]}, metadata={op_name="jit(training_step)/jit(main)/jit(jvp(render_rays))/jit(jit_jvp(render_rays))/gather[dimension_numbers=GatherDimensionNumbers(offset_dims=(0, 1), collapsed_slice_dims=(), start_index_map=(1,)) slice_sizes=(4096, 220) unique_indices=True indices_are_sorted=True mode=GatherScatterMode.PROMISE_IN_BOUNDS fill_value=None]" source_file="/home/brent/tensorf-jax/tensorf/render.py" source_line=286}
  %constant_1805 = f32[] constant(1)
  %pad.180 = f32[4096,221]{1,0} pad(f32[4096,220]{1,0} %slice.710, f32[] %constant_1805), padding=0_0x1_0, metadata={op_name="jit(training_step)/jit(main)/jit(jvp(render_rays))/jit(jit_jvp(render_rays))/concatenate[dimension=1]" source_file="/home/brent/tensorf-jax/tensorf/render.py" source_line=283}
  %multiply.625 = f32[4096,221]{1,0} multiply(f32[4096,221]{1,0} %param_8.349, f32[4096,221]{1,0} %pad.180), metadata={op_name="jit(training_step)/jit(main)/jit(transpose(jvp(render_rays)))/jit(jit_transpose(jvp(render_rays)))/mul" source_file="/home/brent/tensorf-jax/tensorf/render.py" source_line=280}
  %negate.61 = f32[4096,221]{1,0} negate(f32[4096,221]{1,0} %multiply.625), metadata={op_name="jit(training_step)/jit(main)/jit(transpose(jvp(render_rays)))/jit(jit_transpose(jvp(render_rays)))/neg" source_file="/home/brent/tensorf-jax/tensorf/render.py" source_line=276}
  %param_3.865 = f32[4096,221]{1,0} parameter(3)
  %negate.60 = f32[4096,221]{1,0} negate(f32[4096,221]{1,0} %param_3.865), metadata={op_name="jit(training_step)/jit(main)/jit(jvp(render_rays))/jit(jit_jvp(render_rays))/neg" source_file="/home/brent/tensorf-jax/tensorf/render.py" source_line=271}
  %param_5.570 = pred[4096]{0} parameter(5)
  %param_7.424 = f32[4096]{0} parameter(7)
  %param_6.489 = f32[4096]{0} parameter(6)
  %constant_1801 = f32[] constant(0.001)
  %broadcast.2262 = f32[4096]{0} broadcast(f32[] %constant_1801), dimensions={}, metadata={op_name="jit(training_step)/jit(main)/jit(jvp(render_rays))/jit(jit_jvp(render_rays))/add" source_file="/home/brent/tensorf-jax/tensorf/render.py" source_line=374}
  %add.1018 = f32[4096]{0} add(f32[4096]{0} %param_6.489, f32[4096]{0} %broadcast.2262), metadata={op_name="jit(training_step)/jit(main)/jit(jvp(render_rays))/jit(jit_jvp(render_rays))/add" source_file="/home/brent/tensorf-jax/tensorf/render.py" source_line=374}
  %maximum.101 = f32[4096]{0} maximum(f32[4096]{0} %param_7.424, f32[4096]{0} %add.1018), metadata={op_name="jit(training_step)/jit(main)/jit(jvp(render_rays))/jit(jit_jvp(render_rays))/max" source_file="/home/brent/tensorf-jax/tensorf/render.py" source_line=374}
  %select.423 = f32[4096]{0} select(pred[4096]{0} %param_5.570, f32[4096]{0} %maximum.101, f32[4096]{0} %broadcast.2262), metadata={op_name="jit(training_step)/jit(main)/jit(jvp(render_rays))/jit(jit_jvp(render_rays))/jit(vmap(_where))/jit(jit_vmap(_where))/select_n" source_file="/home/brent/tensorf-jax/tensorf/render.py" source_line=379}
  %broadcast.2261 = f32[4096]{0} broadcast(f32[] %constant_482), dimensions={}, metadata={op_name="jit(training_step)/jit(main)/jit(jvp(render_rays))/jit(jit_jvp(render_rays))/max" source_file="/home/brent/tensorf-jax/tensorf/render.py" source_line=372}
  %select.422 = f32[4096]{0} select(pred[4096]{0} %param_5.570, f32[4096]{0} %param_6.489, f32[4096]{0} %broadcast.2261), metadata={op_name="jit(training_step)/jit(main)/jit(jvp(render_rays))/jit(jit_jvp(render_rays))/jit(vmap(_where))/jit(jit_vmap(_where))/select_n" source_file="/home/brent/tensorf-jax/tensorf/render.py" source_line=378}
  %subtract.384 = f32[4096]{0} subtract(f32[4096]{0} %select.423, f32[4096]{0} %select.422), metadata={op_name="jit(training_step)/jit(main)/jit(jvp(render_rays))/jit(jit_jvp(render_rays))/sub" source_file="/home/brent/tensorf-jax/tensorf/render.py" source_line=319}
  %constant_1799 = f32[] constant(0.00452488707)
  %broadcast.2260 = f32[4096]{0} broadcast(f32[] %constant_1799), dimensions={}, metadata={op_name="jit(training_step)/jit(main)/jit(jvp(render_rays))/jit(jit_jvp(render_rays))/div" source_file="/home/brent/tensorf-jax/tensorf/render.py" source_line=319}
  %multiply.624 = f32[4096]{0} multiply(f32[4096]{0} %subtract.384, f32[4096]{0} %broadcast.2260), metadata={op_name="jit(training_step)/jit(main)/jit(jvp(render_rays))/jit(jit_jvp(render_rays))/div" source_file="/home/brent/tensorf-jax/tensorf/render.py" source_line=319}
  %broadcast.2259 = f32[4096,221]{1,0} broadcast(f32[4096]{0} %multiply.624), dimensions={0}, metadata={op_name="jit(training_step)/jit(main)/jit(jvp(render_rays))/jit(jit_jvp(render_rays))/mul" source_file="/home/brent/tensorf-jax/tensorf/render.py" source_line=330}
  %multiply.623 = f32[4096,221]{1,0} multiply(f32[4096,221]{1,0} %negate.60, f32[4096,221]{1,0} %broadcast.2259), metadata={op_name="jit(training_step)/jit(main)/jit(jvp(render_rays))/jit(jit_jvp(render_rays))/mul" source_file="/home/brent/tensorf-jax/tensorf/render.py" source_line=271}
  %exponential.36 = f32[4096,221]{1,0} exponential(f32[4096,221]{1,0} %multiply.623), metadata={op_name="jit(training_step)/jit(main)/jit(jvp(render_rays))/jit(jit_jvp(render_rays))/exp" source_file="/home/brent/tensorf-jax/tensorf/render.py" source_line=276}
  %multiply.622 = f32[4096,221]{1,0} multiply(f32[4096,221]{1,0} %negate.61, f32[4096,221]{1,0} %exponential.36), metadata={op_name="jit(training_step)/jit(main)/jit(transpose(jvp(render_rays)))/jit(jit_transpose(jvp(render_rays)))/mul" source_file="/home/brent/tensorf-jax/tensorf/render.py" source_line=276}
  %add.1017 = f32[4096,221]{1,0} add(f32[4096,221]{1,0} %reverse.32, f32[4096,221]{1,0} %multiply.622), metadata={op_name="jit(training_step)/jit(main)/jit(transpose(jvp(render_rays)))/jit(jit_transpose(jvp(render_rays)))/add_any" source_file="/home/brent/tensorf-jax/tensorf/render.py" source_line=276}
  %multiply.620 = f32[4096,221]{1,0} multiply(f32[4096,221]{1,0} %add.1017, f32[4096,221]{1,0} %broadcast.2259), metadata={op_name="jit(training_step)/jit(main)/jit(transpose(jvp(render_rays)))/jit(jit_transpose(jvp(render_rays)))/mul" source_file="/home/brent/tensorf-jax/tensorf/render.py" source_line=271}
  %negate.59 = f32[4096,221]{1,0} negate(f32[4096,221]{1,0} %multiply.620), metadata={op_name="jit(training_step)/jit(main)/jit(transpose(jvp(render_rays)))/jit(jit_transpose(jvp(render_rays)))/neg" source_file="/home/brent/tensorf-jax/tensorf/render.py" source_line=271}
  %param_4.625 = f32[4096,221]{1,0} parameter(4)
  %constant_1798 = f32[] constant(10)
  %broadcast.2254 = f32[4096,221]{1,0} broadcast(f32[] %constant_1798), dimensions={}, metadata={op_name="jit(training_step)/jit(main)/jit(jvp(render_rays))/jit(jit_jvp(render_rays))/add" source_file="/home/brent/tensorf-jax/tensorf/render.py" source_line=156}
  %add.1015 = f32[4096,221]{1,0} add(f32[4096,221]{1,0} %param_4.625, f32[4096,221]{1,0} %broadcast.2254), metadata={op_name="jit(training_step)/jit(main)/jit(jvp(render_rays))/jit(jit_jvp(render_rays))/add" source_file="/home/brent/tensorf-jax/tensorf/render.py" source_line=156}
  %constant_1797 = f32[] constant(inf)
  %broadcast.2253 = f32[4096,221]{1,0} broadcast(f32[] %constant_1797), dimensions={}, metadata={op_name="jit(training_step)/jit(main)/jit(jvp(render_rays))/jit(jit_jvp(render_rays))/jit(jvp(softplus))/jit(jit_jvp(softplus))/eq" source_file="/home/brent/tensorf-jax/tensorf/render.py" source_line=156}
  %compare.347 = pred[4096,221]{1,0} compare(f32[4096,221]{1,0} %add.1015, f32[4096,221]{1,0} %broadcast.2253), direction=EQ, metadata={op_name="jit(training_step)/jit(main)/jit(jvp(render_rays))/jit(jit_jvp(render_rays))/jit(jvp(softplus))/jit(jit_jvp(softplus))/eq" source_file="/home/brent/tensorf-jax/tensorf/render.py" source_line=156}
  %broadcast.2252 = f32[4096,221]{1,0} broadcast(f32[] %constant_482), dimensions={}, metadata={op_name="jit(training_step)/jit(main)/jit(jvp(render_rays))/jit(jit_jvp(render_rays))/jit(jvp(softplus))/jit(jit_jvp(softplus))/jit(logaddexp)/jit(jit_logaddexp)/max" source_file="/home/brent/tensorf-jax/tensorf/render.py" source_line=156}
  %select.419 = f32[4096,221]{1,0} select(pred[4096,221]{1,0} %compare.347, f32[4096,221]{1,0} %broadcast.2252, f32[4096,221]{1,0} %add.1015), metadata={op_name="jit(training_step)/jit(main)/jit(jvp(render_rays))/jit(jit_jvp(render_rays))/jit(jvp(softplus))/jit(jit_jvp(softplus))/select_n" source_file="/home/brent/tensorf-jax/tensorf/render.py" source_line=156}
  %compare.346 = pred[4096,221]{1,0} compare(f32[4096,221]{1,0} %param_3.865, f32[4096,221]{1,0} %broadcast.2253), direction=EQ, metadata={op_name="jit(training_step)/jit(main)/jit(jvp(render_rays))/jit(jit_jvp(render_rays))/jit(jvp(softplus))/jit(jit_jvp(softplus))/eq" source_file="/home/brent/tensorf-jax/tensorf/render.py" source_line=156}
  %select.417 = f32[4096,221]{1,0} select(pred[4096,221]{1,0} %compare.346, f32[4096,221]{1,0} %broadcast.2252, f32[4096,221]{1,0} %param_3.865), metadata={op_name="jit(training_step)/jit(main)/jit(jvp(render_rays))/jit(jit_jvp(render_rays))/jit(jvp(softplus))/jit(jit_jvp(softplus))/select_n" source_file="/home/brent/tensorf-jax/tensorf/render.py" source_line=156}
  %subtract.382 = f32[4096,221]{1,0} subtract(f32[4096,221]{1,0} %select.419, f32[4096,221]{1,0} %select.417), metadata={op_name="jit(training_step)/jit(main)/jit(jvp(render_rays))/jit(jit_jvp(render_rays))/jit(jvp(softplus))/jit(jit_jvp(softplus))/sub" source_file="/home/brent/tensorf-jax/tensorf/render.py" source_line=156}
  %exponential.35 = f32[4096,221]{1,0} exponential(f32[4096,221]{1,0} %subtract.382), metadata={op_name="jit(training_step)/jit(main)/jit(jvp(render_rays))/jit(jit_jvp(render_rays))/jit(jvp(softplus))/jit(jit_jvp(softplus))/exp" source_file="/home/brent/tensorf-jax/tensorf/render.py" source_line=156}
  %multiply.619 = f32[4096,221]{1,0} multiply(f32[4096,221]{1,0} %negate.59, f32[4096,221]{1,0} %exponential.35), metadata={op_name="jit(training_step)/jit(main)/jit(transpose(jvp(render_rays)))/jit(jit_transpose(jvp(render_rays)))/jit(transpose(jvp(softplus)))/jit(jit_transpose(jvp(softplus)))/mul" source_file="/home/brent/tensorf-jax/tensorf/render.py" source_line=156}
  %broadcast.2251 = f32[3,16,4096,221]{2,1,0,3} broadcast(f32[4096,221]{1,0} %multiply.619), dimensions={2,3}, metadata={op_name="jit(training_step)/jit(main)/jit(transpose(jvp(render_rays)))/jit(jit_transpose(jvp(render_rays)))/jit(transpose(jvp(interpolate)))/jit(jit_transpose(jvp(interpolate)))/reshape[new_sizes=(3, 16, 4096, 221) dimensions=None]" source_file="/home/brent/tensorf-jax/tensorf/tensor_vm.py" source_line=95}
  %copy.35 = f32[3,16,4096,221]{3,2,1,0} copy(f32[3,16,4096,221]{2,1,0,3} %broadcast.2251), metadata={op_name="jit(training_step)/jit(main)/jit(transpose(jvp(render_rays)))/jit(jit_transpose(jvp(render_rays)))/jit(transpose(jvp(interpolate)))/jit(jit_transpose(jvp(interpolate)))/reshape[new_sizes=(3, 16, 4096, 221) dimensions=None]" source_file="/home/brent/tensorf-jax/tensorf/tensor_vm.py" source_line=95}
  %multiply.618 = f32[3,16,4096,221]{3,2,1,0} multiply(f32[3,16,4096,221]{3,2,1,0} %param_2.988, f32[3,16,4096,221]{3,2,1,0} %copy.35), metadata={op_name="jit(training_step)/jit(main)/jit(transpose(jvp(render_rays)))/jit(jit_transpose(jvp(render_rays)))/jit(transpose(jvp(interpolate)))/jit(jit_transpose(jvp(interpolate)))/mul" source_file="/home/brent/tensorf-jax/tensorf/tensor_vm.py" source_line=176}
  %multiply.245 = f32[3,16,4096,221]{3,2,1,0} multiply(f32[3,16,4096,221]{3,2,1,0} %broadcast.1223, f32[3,16,4096,221]{3,2,1,0} %multiply.618), metadata={op_name="jit(training_step)/jit(main)/jit(transpose(jvp(render_rays)))/jit(jit_transpose(jvp(render_rays)))/jit(transpose(jvp(interpolate)))/jit(jit_transpose(jvp(interpolate)))/jit(transpose(jvp(vmap(vmap(_map_coordinates)))))/jit(jit_transpose(jvp(vmap(vmap(_map_coordinates)))))/mul" source_file="/home/brent/tensorf-jax/tensorf/tensor_vm.py" source_line=222}
  ROOT %scatter.45 = f32[3,16,128,128]{3,2,1,0} scatter(f32[3,16,128,128]{3,2,1,0} %broadcast.964, s32[3,4096,221,3]{3,2,1,0} %concatenate.154, f32[3,16,4096,221]{3,2,1,0} %multiply.245), update_window_dims={1}, inserted_window_dims={0,2,3}, scatter_dims_to_operand_dims={0,2,3}, index_vector_dim=3, to_apply=%region_21.1604, metadata={op_name="jit(training_step)/jit(main)/jit(transpose(jvp(render_rays)))/jit(jit_transpose(jvp(render_rays)))/jit(transpose(jvp(interpolate)))/jit(jit_transpose(jvp(interpolate)))/jit(transpose(jvp(vmap(vmap(_map_coordinates)))))/jit(jit_transpose(jvp(vmap(vmap(_map_coordinates)))))/scatter-add[update_consts=() dimension_numbers=ScatterDimensionNumbers(update_window_dims=(1,), inserted_window_dims=(0, 2, 3), scatter_dims_to_operand_dims=(0, 2, 3)) indices_are_sorted=False unique_indices=False mode=GatherScatterMode.PROMISE_IN_BOUNDS]" source_file="/home/brent/tensorf-jax/tensorf/tensor_vm.py" source_line=222}
}

%fused_computation.7 (param_0.24: f32[3,16,128], param_1.977: f32[], param_2.998: f32[], param_3.883: f32[], param_4.647: f32[3,16,128], param_5.602: f32[3,16,128], param_6.535: f32[3,16,128], param_7.484: f32[3,16,128]) -> (f32[3,16,128], f32[3,16,128], f32[3,16,128]) {
  %param_0.24 = f32[3,16,128]{2,1,0} parameter(0)
  %param_5.602 = f32[3,16,128]{2,1,0} parameter(5)
  %param_6.535 = f32[3,16,128]{2,1,0} parameter(6)
  %add.493.clone.1 = f32[3,16,128]{2,1,0} add(f32[3,16,128]{2,1,0} %param_5.602, f32[3,16,128]{2,1,0} %param_6.535), metadata={op_name="jit(training_step)/jit(main)/jit(transpose(jvp(render_rays)))/jit(jit_transpose(jvp(render_rays)))/jit(transpose(jvp(interpolate)))/jit(jit_transpose(jvp(interpolate)))/jit(transpose(jvp(vmap(vmap(_map_coordinates)))))/jit(jit_transpose(jvp(vmap(vmap(_map_coordinates)))))/add_any" source_file="/home/brent/tensorf-jax/tensorf/tensor_vm.py" source_line=222}
  %constant_488_clone_1 = f32[] constant(0.0100000007)
  %broadcast.811.clone.1 = f32[3,16,128]{2,1,0} broadcast(f32[] %constant_488_clone_1), dimensions={}, metadata={op_name="jit(training_step)/jit(main)/mul" source_file="/home/brent/miniconda/envs/py38/lib/python3.8/site-packages/optax/_src/transform.py" source_line=81}
  %multiply.254.clone.1 = f32[3,16,128]{2,1,0} multiply(f32[3,16,128]{2,1,0} %add.493.clone.1, f32[3,16,128]{2,1,0} %broadcast.811.clone.1), metadata={op_name="jit(training_step)/jit(main)/mul" source_file="/home/brent/miniconda/envs/py38/lib/python3.8/site-packages/optax/_src/transform.py" source_line=81}
  %param_7.484 = f32[3,16,128]{2,1,0} parameter(7)
  %constant_489_clone_1 = f32[] constant(0.9)
  %broadcast.810.clone.1 = f32[3,16,128]{2,1,0} broadcast(f32[] %constant_489_clone_1), dimensions={}, metadata={op_name="jit(training_step)/jit(main)/mul" source_file="/home/brent/miniconda/envs/py38/lib/python3.8/site-packages/optax/_src/transform.py" source_line=81}
  %multiply.253.clone.1 = f32[3,16,128]{2,1,0} multiply(f32[3,16,128]{2,1,0} %param_7.484, f32[3,16,128]{2,1,0} %broadcast.810.clone.1), metadata={op_name="jit(training_step)/jit(main)/mul" source_file="/home/brent/miniconda/envs/py38/lib/python3.8/site-packages/optax/_src/transform.py" source_line=81}
  %add.341.clone.1 = f32[3,16,128]{2,1,0} add(f32[3,16,128]{2,1,0} %multiply.254.clone.1, f32[3,16,128]{2,1,0} %multiply.253.clone.1), metadata={op_name="jit(training_step)/jit(main)/add" source_file="/home/brent/miniconda/envs/py38/lib/python3.8/site-packages/optax/_src/transform.py" source_line=81}
  %param_2.998 = f32[] parameter(2)
  %broadcast.805 = f32[3,16,128]{2,1,0} broadcast(f32[] %param_2.998), dimensions={}, metadata={op_name="jit(training_step)/jit(main)/div" source_file="/home/brent/miniconda/envs/py38/lib/python3.8/site-packages/optax/_src/transform.py" source_line=87}
  %constant_487_clone_1 = f32[] constant(0.1)
…
  %cublas-gemm.5 = f32[135168,128]{1,0} custom-call(f32[135168,150]{1,0} %fusion.72, f32[150,128]{1,0} %copy.45, f32[135168,128]{1,0} %broadcast.545), custom_call_target="__cublas$gemm", metadata={op_name="jit(training_step)/jit(main)/jit(jvp(render_rays))/jit(jit_jvp(render_rays))/add" source_file="/home/brent/miniconda/envs/py38/lib/python3.8/site-packages/flax/linen/linear.py" source_line=195}, backend_config="{\"alpha_real\":1,\"alpha_imag\":0,\"beta\":1,\"dot_dimension_numbers\":{\"lhs_contracting_dimensions\":[\"1\"],\"rhs_contracting_dimensions\":[\"0\"],\"lhs_batch_dimensions\":[],\"rhs_batch_dimensions\":[]},\"batch_size\":\"1\",\"lhs_stride\":\"20275200\",\"rhs_stride\":\"19200\",\"selected_algorithm\":\"99\"}"
  %fusion.153 = f32[135168,128]{1,0} fusion(f32[135168,128]{1,0} %cublas-gemm.5), kind=kLoop, calls=%fused_computation.153, metadata={op_name="jit(training_step)/jit(main)/jit(jvp(render_rays))/jit(jit_jvp(render_rays))/jit(relu)/jit(jit_relu)/max" source_file="/home/brent/tensorf-jax/tensorf/networks.py" source_line=96}
  %Arg_4.5 = f32[128,128]{1,0} parameter(4)
  %copy.47 = f32[128,128]{1,0} copy(f32[128,128]{1,0} %Arg_4.5)
  %Arg_3.4 = f32[128]{0} parameter(3)
  %broadcast.548 = f32[135168,128]{1,0} broadcast(f32[128]{0} %Arg_3.4), dimensions={1}, metadata={op_name="jit(training_step)/jit(main)/jit(jvp(render_rays))/jit(jit_jvp(render_rays))/add" source_file="/home/brent/miniconda/envs/py38/lib/python3.8/site-packages/flax/linen/linear.py" source_line=195}
  %cublas-gemm.9 = f32[135168,128]{1,0} custom-call(f32[135168,128]{1,0} %fusion.153, f32[128,128]{1,0} %copy.47, f32[135168,128]{1,0} %broadcast.548), custom_call_target="__cublas$gemm", metadata={op_name="jit(training_step)/jit(main)/jit(jvp(render_rays))/jit(jit_jvp(render_rays))/add" source_file="/home/brent/miniconda/envs/py38/lib/python3.8/site-packages/flax/linen/linear.py" source_line=195}, backend_config="{\"alpha_real\":1,\"alpha_imag\":0,\"beta\":1,\"dot_dimension_numbers\":{\"lhs_contracting_dimensions\":[\"1\"],\"rhs_contracting_dimensions\":[\"0\"],\"lhs_batch_dimensions\":[],\"rhs_batch_dimensions\":[]},\"batch_size\":\"1\",\"lhs_stride\":\"17301504\",\"rhs_stride\":\"16384\",\"selected_algorithm\":\"12\"}"
  %fusion.152 = f32[135168,128]{1,0} fusion(f32[135168,128]{1,0} %cublas-gemm.9), kind=kLoop, calls=%fused_computation.152, metadata={op_name="jit(training_step)/jit(main)/jit(jvp(render_rays))/jit(jit_jvp(render_rays))/jit(relu)/jit(jit_relu)/max" source_file="/home/brent/tensorf-jax/tensorf/networks.py" source_line=105}
  %Arg_6.7 = f32[128,3]{1,0} parameter(6)
  %copy.49 = f32[128,3]{1,0} copy(f32[128,3]{1,0} %Arg_6.7)
  %Arg_5.6 = f32[3]{0} parameter(5)
  %broadcast.551 = f32[135168,3]{0,1} broadcast(f32[3]{0} %Arg_5.6), dimensions={1}, metadata={op_name="jit(training_step)/jit(main)/jit(jvp(render_rays))/jit(jit_jvp(render_rays))/add" source_file="/home/brent/miniconda/envs/py38/lib/python3.8/site-packages/flax/linen/linear.py" source_line=195}
  %cublas-gemm.13 = f32[135168,3]{0,1} custom-call(f32[135168,128]{1,0} %fusion.152, f32[128,3]{1,0} %copy.49, f32[135168,3]{0,1} %broadcast.551), custom_call_target="__cublas$gemm", metadata={op_name="jit(training_step)/jit(main)/jit(jvp(render_rays))/jit(jit_jvp(render_rays))/add" source_file="/home/brent/miniconda/envs/py38/lib/python3.8/site-packages/flax/linen/linear.py" source_line=195}, backend_config="{\"alpha_real\":1,\"alpha_imag\":0,\"beta\":1,\"dot_dimension_numbers\":{\"lhs_contracting_dimensions\":[\"1\"],\"rhs_contracting_dimensions\":[\"0\"],\"lhs_batch_dimensions\":[],\"rhs_batch_dimensions\":[]},\"batch_size\":\"1\",\"lhs_stride\":\"17301504\",\"rhs_stride\":\"384\",\"selected_algorithm\":\"11\"}"
  %Arg_37.38 = f32[4096,3]{1,0} parameter(37)
  %input_fusion_scatter.13 = f32[4096,221,3]{1,0,2} fusion(s32[4096,33,2]{1,0,2} %fusion.97, pred[4096,33,3]{1,0,2} %fusion.70, f32[135168,3]{0,1} %cublas-gemm.13), kind=kInput, calls=%input_fused_computation_scatter.13, metadata={op_name="jit(training_step)/jit(main)/jit(jvp(render_rays))/jit(jit_jvp(render_rays))/scatter-add[update_consts=() dimension_numbers=ScatterDimensionNumbers(update_window_dims=(2,), inserted_window_dims=(0, 1), scatter_dims_to_operand_dims=(0, 1)) indices_are_sorted=False unique_indices=False mode=GatherScatterMode.PROMISE_IN_BOUNDS]" source_file="/home/brent/tensorf-jax/tensorf/render.py" source_line=452}
  %input_fusion_reduce.5 = f32[3,4096]{0,1} fusion(f32[4096,221,3]{1,0,2} %input_fusion_scatter.13, f32[4096,221]{1,0} %get-tuple-element.195), kind=kInput, calls=%input_fused_computation_reduce.5
  %get-tuple-element.196 = f32[4096,221]{1,0} get-tuple-element((f32[4096,221]{1,0}, f32[4096,221]{1,0}, f32[4096,221]{1,0}) %fusion.98), index=2
  %input_fusion_reduce.4 = f32[4096]{0} fusion(f32[4096,221]{1,0} %get-tuple-element.195, s32[4096,33,2]{1,0,2} %fusion.97), kind=kInput, calls=%input_fused_computation_reduce.4, metadata={op_name="jit(training_step)/jit(main)/jit(jvp(render_rays))/jit(jit_jvp(render_rays))/reduce_sum[axes=(1,)]" source_file="/home/brent/tensorf-jax/tensorf/render.py" source_line=486}
  %fusion.66 = f32[4096,3]{1,0} fusion(f32[4096,3]{1,0} %Arg_37.38, f32[3,4096]{0,1} %input_fusion_reduce.5, f32[4096,221]{1,0} %get-tuple-element.196, f32[4096]{0} %input_fusion_reduce.4), kind=kLoop, calls=%fused_computation.66, metadata={op_name="jit(training_step)/jit(main)/sub" source_file="/home/brent/tensorf-jax/tensorf/training.py" source_line=291}
  %fusion.64 = f32[135168,3]{0,1} fusion(pred[4096,33,3]{1,0,2} %fusion.70, s32[4096,33,2]{1,0,2} %fusion.97, f32[4096,221]{1,0} %get-tuple-element.195, f32[135168,3]{0,1} %cublas-gemm.13, f32[4096,3]{1,0} %fusion.66, /*index=5*/f32[4096]{0} %input_fusion_reduce.4, f32[4096,221]{1,0} %get-tuple-element.196), kind=kLoop, calls=%fused_computation.64, metadata={op_name="jit(training_step)/jit(main)/jit(transpose(jvp(render_rays)))/jit(jit_transpose(jvp(render_rays)))/jit(transpose(jvp(sigmoid)))/jit(jit_transpose(jvp(sigmoid)))/mul" source_file="/home/brent/tensorf-jax/tensorf/networks.py" source_line=116}
  %cublas-gemm.15 = f32[135168,128]{1,0} custom-call(f32[135168,3]{0,1} %fusion.64, f32[128,3]{1,0} %copy.49), custom_call_target="__cublas$gemm", metadata={op_name="jit(training_step)/jit(main)/jit(transpose(jvp(render_rays)))/jit(jit_transpose(jvp(render_rays)))/dot_general[dimension_numbers=(((1,), (1,)), ((), ())) precision=None preferred_element_type=None]" source_file="/home/brent/miniconda/envs/py38/lib/python3.8/site-packages/flax/linen/linear.py" source_line=188}, backend_config="{\"alpha_real\":1,\"alpha_imag\":0,\"beta\":0,\"dot_dimension_numbers\":{\"lhs_contracting_dimensions\":[\"1\"],\"rhs_contracting_dimensions\":[\"1\"],\"lhs_batch_dimensions\":[],\"rhs_batch_dimensions\":[]},\"batch_size\":\"1\",\"lhs_stride\":\"405504\",\"rhs_stride\":\"384\",\"selected_algorithm\":\"-1\"}"
  %fusion.63 = f32[135168,128]{1,0} fusion(f32[135168,128]{1,0} %cublas-gemm.15, f32[135168,128]{1,0} %cublas-gemm.9), kind=kLoop, calls=%fused_computation.63, metadata={op_name="jit(training_step)/jit(main)/jit(transpose(jvp(render_rays)))/jit(jit_transpose(jvp(render_rays)))/select_n" source_file="/home/brent/tensorf-jax/tensorf/networks.py" source_line=105}
  %cublas-gemm.17 = f32[135168,128]{1,0} custom-call(f32[135168,128]{1,0} %fusion.63, f32[128,128]{1,0} %copy.47), custom_call_target="__cublas$gemm", metadata={op_name="jit(training_step)/jit(main)/jit(transpose(jvp(render_rays)))/jit(jit_transpose(jvp(render_rays)))/dot_general[dimension_numbers=(((1,), (1,)), ((), ())) precision=None preferred_element_type=None]" source_file="/home/brent/miniconda/envs/py38/lib/python3.8/site-packages/flax/linen/linear.py" source_line=188}, backend_config="{\"alpha_real\":1,\"alpha_imag\":0,\"beta\":0,\"dot_dimension_numbers\":{\"lhs_contracting_dimensions\":[\"1\"],\"rhs_contracting_dimensions\":[\"1\"],\"lhs_batch_dimensions\":[],\"rhs_batch_dimensions\":[]},\"batch_size\":\"1\",\"lhs_stride\":\"17301504\",\"rhs_stride\":\"16384\",\"selected_algorithm\":\"-1\"}"
  %fusion.62 = f32[135168,128]{1,0} fusion(f32[135168,128]{1,0} %cublas-gemm.17, f32[135168,128]{1,0} %cublas-gemm.5), kind=kLoop, calls=%fused_computation.62, metadata={op_name="jit(training_step)/jit(main)/jit(transpose(jvp(render_rays)))/jit(jit_transpose(jvp(render_rays)))/select_n" source_file="/home/brent/tensorf-jax/tensorf/networks.py" source_line=96}
  %cublas-gemm.19 = f32[135168,150]{1,0} custom-call(f32[135168,128]{1,0} %fusion.62, f32[150,128]{1,0} %copy.45), custom_call_target="__cublas$gemm", metadata={op_name="jit(training_step)/jit(main)/jit(transpose(jvp(render_rays)))/jit(jit_transpose(jvp(render_rays)))/dot_general[dimension_numbers=(((1,), (1,)), ((), ())) precision=None preferred_element_type=None]" source_file="/home/brent/miniconda/envs/py38/lib/python3.8/site-packages/flax/linen/linear.py" source_line=188}, backend_config="{\"alpha_real\":1,\"alpha_imag\":0,\"beta\":0,\"dot_dimension_numbers\":{\"lhs_contracting_dimensions\":[\"1\"],\"rhs_contracting_dimensions\":[\"1\"],\"lhs_batch_dimensions\":[],\"rhs_batch_dimensions\":[]},\"batch_size\":\"1\",\"lhs_stride\":\"17301504\",\"rhs_stride\":\"19200\",\"selected_algorithm\":\"-1\"}"
  %fusion.61 = f32[135168,27]{1,0} fusion(f32[135168,27,4]{2,1,0} %fusion.73, f32[135168,150]{1,0} %cublas-gemm.19, f32[2]{0} %fusion.74), kind=kLoop, calls=%fused_computation.61, metadata={op_name="jit(training_step)/jit(main)/jit(transpose(jvp(render_rays)))/jit(jit_transpose(jvp(render_rays)))/add_any" source_file="/home/brent/tensorf-jax/tensorf/networks.py" source_line=27}
  %cublas-gemm.21 = f32[144,27]{1,0} custom-call(f32[135168,144]{0,1} %fusion.75, f32[135168,27]{1,0} %fusion.61), custom_call_target="__cublas$gemm", metadata={op_name="jit(training_step)/jit(main)/jit(transpose(jvp(render_rays)))/jit(jit_transpose(jvp(render_rays)))/transpose[permutation=(1, 0)]" source_file="/home/brent/miniconda/envs/py38/lib/python3.8/site-packages/flax/linen/linear.py" source_line=188}, backend_config="{\"alpha_real\":1,\"alpha_imag\":0,\"beta\":0,\"dot_dimension_numbers\":{\"lhs_contracting_dimensions\":[\"0\"],\"rhs_contracting_dimensions\":[\"0\"],\"lhs_batch_dimensions\":[],\"rhs_batch_dimensions\":[]},\"batch_size\":\"1\",\"lhs_stride\":\"19464192\",\"rhs_stride\":\"3649536\",\"selected_algorithm\":\"0\"}"
  %Arg_12.13 = f32[144,27]{1,0} parameter(12)
  %fusion.54 = (f32[144,27]{1,0}, f32[144,27]{1,0}, f32[144,27]{1,0}) fusion(f32[144,27]{1,0} %copy.43, f32[] %get-tuple-element.186, f32[] %get-tuple-element.187, f32[] %get-tuple-element.184, f32[144,27]{1,0} %Arg_23.24, /*index=5*/f32[144,27]{1,0} %cublas-gemm.21, f32[144,27]{1,0} %Arg_12.13), kind=kLoop, calls=%fused_computation.54, metadata={op_name="jit(training_step)/jit(main)/add" source_file="/home/brent/miniconda/envs/py38/lib/python3.8/site-packages/optax/_src/update.py" source_line=43}
  %get-tuple-element.222 = f32[144,27]{1,0} get-tuple-element((f32[144,27]{1,0}, f32[144,27]{1,0}, f32[144,27]{1,0}) %fusion.54), index=0
  %Arg_26.27 = f32[128]{0} parameter(26)
  %input_fusion_reduce.2 = (f32[368,128]{1,0}, f32[368,128]{1,0}) fusion(f32[135168,128]{1,0} %fusion.63, f32[135168,128]{1,0} %fusion.62), kind=kInput, calls=%input_fused_computation_reduce.2
  %get-tuple-element.220 = f32[368,128]{1,0} get-tuple-element((f32[368,128]{1,0}, f32[368,128]{1,0}) %input_fusion_reduce.2), index=0
  %get-tuple-element.221 = f32[368,128]{1,0} get-tuple-element((f32[368,128]{1,0}, f32[368,128]{1,0}) %input_fusion_reduce.2), index=1
  %input_fusion_reduce.7 = (f32[128]{0}, f32[128]{0}) fusion(f32[368,128]{1,0} %get-tuple-element.220, f32[] %constant_70, f32[368,128]{1,0} %get-tuple-element.221), kind=kInput, calls=%input_fused_computation_reduce.7, metadata={op_name="jit(training_step)/jit(main)/jit(transpose(jvp(render_rays)))/jit(jit_transpose(jvp(render_rays)))/reduce_sum[axes=(0,)]" source_file="/home/brent/miniconda/envs/py38/lib/python3.8/site-packages/flax/linen/linear.py" source_line=195}
  %get-tuple-element.218 = f32[128]{0} get-tuple-element((f32[128]{0}, f32[128]{0}) %input_fusion_reduce.7), index=0
  %Arg_15.16 = f32[128]{0} parameter(15)
  %Arg_24.25 = f32[128]{0} parameter(24)
  %get-tuple-element.219 = f32[128]{0} get-tuple-element((f32[128]{0}, f32[128]{0}) %input_fusion_reduce.7), index=1
  %Arg_13.14 = f32[128]{0} parameter(13)
  %fusion.45 = (f32[128]{0}, f32[128]{0}, f32[128]{0}, f32[128]{0}, f32[128]{0}, /*index=5*/f32[128]{0}) fusion(f32[128]{0} %Arg_3.4, f32[] %get-tuple-element.186, f32[] %get-tuple-element.187, f32[] %get-tuple-element.184, f32[128]{0} %Arg_26.27, /*index=5*/f32[128]{0} %get-tuple-element.218, f32[128]{0} %Arg_15.16, f32[128]{0} %Arg_1.2, f32[128]{0} %Arg_24.25, f32[128]{0} %get-tuple-element.219, /*index=10*/f32[128]{0} %Arg_13.14), kind=kLoop, calls=%fused_computation.45, metadata={op_name="jit(training_step)/jit(main)/add" source_file="/home/brent/miniconda/envs/py38/lib/python3.8/site-packages/optax/_src/update.py" source_line=43}
  %get-tuple-element.223 = f32[128]{0} get-tuple-element((f32[128]{0}, f32[128]{0}, f32[128]{0}, f32[128]{0}, f32[128]{0}, /*index=5*/f32[128]{0}) %fusion.45), index=3
  %Arg_25.26 = f32[150,128]{1,0} parameter(25)
  %cublas-gemm.23 = f32[150,128]{1,0} custom-call(f32[135168,150]{1,0} %fusion.72, f32[135168,128]{1,0} %fusion.62), custom_call_target="__cublas$gemm", metadata={op_name="jit(training_step)/jit(main)/jit(transpose(jvp(render_rays)))/jit(jit_transpose(jvp(render_rays)))/transpose[permutation=(1, 0)]" source_file="/home/brent/miniconda/envs/py38/lib/python3.8/site-packages/flax/linen/linear.py" source_line=188}, backend_config="{\"alpha_real\":1,\"alpha_imag\":0,\"beta\":0,\"dot_dimension_numbers\":{\"lhs_contracting_dimensions\":[\"0\"],\"rhs_contracting_dimensions\":[\"0\"],\"lhs_batch_dimensions\":[],\"rhs_batch_dimensions\":[]},\"batch_size\":\"1\",\"lhs_stride\":\"20275200\",\"rhs_stride\":\"17301504\",\"selected_algorithm\":\"0\"}"
  %Arg_14.15 = f32[150,128]{1,0} parameter(14)
  %fusion.48 = (f32[150,128]{1,0}, f32[150,128]{1,0}, f32[150,128]{1,0}) fusion(f32[150,128]{1,0} %copy.45, f32[] %get-tuple-element.186, f32[] %get-tuple-element.187, f32[] %get-tuple-element.184, f32[150,128]{1,0} %Arg_25.26, /*index=5*/f32[150,128]{1,0} %cublas-gemm.23, f32[150,128]{1,0} %Arg_14.15), kind=kLoop, calls=%fused_computation.48, metadata={op_name="jit(training_step)/jit(main)/add" source_file="/home/brent/miniconda/envs/py38/lib/python3.8/site-packages/optax/_src/update.py" source_line=43}
  %get-tuple-element.224 = f32[150,128]{1,0} get-tuple-element((f32[150,128]{1,0}, f32[150,128]{1,0}, f32[150,128]{1,0}) %fusion.48), index=0
  %get-tuple-element.225 = f32[128]{0} get-tuple-element((f32[128]{0}, f32[128]{0}, f32[128]{0}, f32[128]{0}, f32[128]{0}, /*index=5*/f32[128]{0}) %fusion.45), index=0
  %Arg_27.28 = f32[128,128]{1,0} parameter(27)
  %cublas-gemm.25 = f32[128,128]{1,0} custom-call(f32[135168,128]{1,0} %fusion.153, f32[135168,128]{1,0} %fusion.63), custom_call_target="__cublas$gemm", metadata={op_name="jit(training_step)/jit(main)/jit(transpose(jvp(render_rays)))/jit(jit_transpose(jvp(render_rays)))/transpose[permutation=(1, 0)]" source_file="/home/brent/miniconda/envs/py38/lib/python3.8/site-packages/flax/linen/linear.py" source_line=188}, backend_config="{\"alpha_real\":1,\"alpha_imag\":0,\"beta\":0,\"dot_dimension_numbers\":{\"lhs_contracting_dimensions\":[\"0\"],\"rhs_contracting_dimensions\":[\"0\"],\"lhs_batch_dimensions\":[],\"rhs_batch_dimensions\":[]},\"batch_size\":\"1\",\"lhs_stride\":\"17301504\",\"rhs_stride\":\"17301504\",\"selected_algorithm\":\"11\"}"
  %Arg_16.17 = f32[128,128]{1,0} parameter(16)
  %fusion.42 = (f32[128,128]{1,0}, f32[128,128]{1,0}, f32[128,128]{1,0}) fusion(f32[128,128]{1,0} %copy.47, f32[] %get-tuple-element.186, f32[] %get-tuple-element.187, f32[] %get-tuple-element.184, f32[128,128]{1,0} %Arg_27.28, /*index=5*/f32[128,128]{1,0} %cublas-gemm.25, f32[128,128]{1,0} %Arg_16.17), kind=kLoop, calls=%fused_computation.42, metadata={op_name="jit(training_step)/jit(main)/add" source_file="/home/brent/miniconda/envs/py38/lib/python3.8/site-packages/optax/_src/update.py" source_line=43}
  %get-tuple-element.226 = f32[128,128]{1,0} get-tuple-element((f32[128,128]{1,0}, f32[128,128]{1,0}, f32[128,128]{1,0}) %fusion.42), index=0
  %Arg_28.29 = f32[3]{0} parameter(28)
  %input_fusion_reduce.1 = f32[3,368]{1,0} fusion(f32[135168,3]{0,1} %fusion.64), kind=kInput, calls=%input_fused_computation_reduce.1
  %reduce.17 = f32[3]{0} reduce(f32[3,368]{1,0} %input_fusion_reduce.1, f32[] %constant_70), dimensions={1}, to_apply=%region_27.1710, metadata={op_name="jit(training_step)/jit(main)/jit(transpose(jvp(render_rays)))/jit(jit_transpose(jvp(render_rays)))/reduce_sum[axes=(0,)]" source_file="/home/brent/miniconda/envs/py38/lib/python3.8/site-packages/flax/linen/linear.py" source_line=195}
  %Arg_17.18 = f32[3]{0} parameter(17)
  %fusion.39 = (f32[3]{0}, f32[3]{0}, f32[3]{0}) fusion(f32[3]{0} %Arg_5.6, f32[] %get-tuple-element.186, f32[] %get-tuple-element.187, f32[] %get-tuple-element.184, f32[3]{0} %Arg_28.29, /*index=5*/f32[3]{0} %reduce.17, f32[3]{0} %Arg_17.18), kind=kLoop, calls=%fused_computation.39, metadata={op_name="jit(training_step)/jit(main)/add" source_file="/home/brent/miniconda/envs/py38/lib/python3.8/site-packages/optax/_src/update.py" source_line=43}
  %get-tuple-element.227 = f32[3]{0} get-tuple-element((f32[3]{0}, f32[3]{0}, f32[3]{0}) %fusion.39), index=0
  %Arg_29.30 = f32[128,3]{1,0} parameter(29)
  %cublas-gemm.27 = f32[128,3]{1,0} custom-call(f32[135168,128]{1,0} %fusion.152, f32[135168,3]{0,1} %fusion.64), custom_call_target="__cublas$gemm", metadata={op_name="jit(training_step)/jit(main)/jit(transpose(jvp(render_rays)))/jit(jit_transpose(jvp(render_rays)))/transpose[permutation=(1, 0)]" source_file="/home/brent/miniconda/envs/py38/lib/python3.8/site-packages/flax/linen/linear.py" source_line=188}, backend_config="{\"alpha_real\":1,\"alpha_imag\":0,\"beta\":0,\"dot_dimension_numbers\":{\"lhs_contracting_dimensions\":[\"0\"],\"rhs_contracting_dimensions\":[\"0\"],\"lhs_batch_dimensions\":[],\"rhs_batch_dimensions\":[]},\"batch_size\":\"1\",\"lhs_stride\":\"17301504\",\"rhs_stride\":\"405504\",\"selected_algorithm\":\"-1\"}"
  %Arg_18.19 = f32[128,3]{1,0} parameter(18)
  %fusion.36 = (f32[128,3]{1,0}, f32[128,3]{1,0}, f32[128,3]{1,0}) fusion(f32[128,3]{1,0} %copy.49, f32[] %get-tuple-element.186, f32[] %get-tuple-element.187, f32[] %get-tuple-element.184, f32[128,3]{1,0} %Arg_29.30, /*index=5*/f32[128,3]{1,0} %cublas-gemm.27, f32[128,3]{1,0} %Arg_18.19), kind=kLoop, calls=%fused_computation.36, metadata={op_name="jit(training_step)/jit(main)/add" source_file="/home/brent/miniconda/envs/py38/lib/python3.8/site-packages/optax/_src/update.py" source_line=43}
  %get-tuple-element.228 = f32[128,3]{1,0} get-tuple-element((f32[128,3]{1,0}, f32[128,3]{1,0}, f32[128,3]{1,0}) %fusion.36), index=0
  %Arg_30.31 = f32[3,48,128]{2,1,0} parameter(30)
  %cublas-gemm.29 = f32[135168,144]{1,0} custom-call(f32[135168,27]{1,0} %fusion.61, f32[144,27]{1,0} %copy.43), custom_call_target="__cublas$gemm", metadata={op_name="jit(training_step)/jit(main)/jit(transpose(jvp(render_rays)))/jit(jit_transpose(jvp(render_rays)))/dot_general[dimension_numbers=(((1,), (1,)), ((), ())) precision=None preferred_element_type=None]" source_file="/home/brent/miniconda/envs/py38/lib/python3.8/site-packages/flax/linen/linear.py" source_line=188}, backend_config="{\"alpha_real\":1,\"alpha_imag\":0,\"beta\":0,\"dot_dimension_numbers\":{\"lhs_contracting_dimensions\":[\"1\"],\"rhs_contracting_dimensions\":[\"1\"],\"lhs_batch_dimensions\":[],\"rhs_batch_dimensions\":[]},\"batch_size\":\"1\",\"lhs_stride\":\"3649536\",\"rhs_stride\":\"3888\",\"selected_algorithm\":\"0\"}"
  %fusion.34 = f32[3,48,4096,33]{2,1,0,3} fusion(f32[3,48,128,128]{3,2,1,0} %copy.51, f32[3,3,4096,33]{3,2,0,1} %fusion.96, f32[135168,144]{1,0} %cublas-gemm.29), kind=kLoop, calls=%fused_computation.34, metadata={op_name="jit(training_step)/jit(main)/jit(transpose(jvp(render_rays)))/jit(jit_transpose(jvp(render_rays)))/jit(transpose(jvp(interpolate)))/jit(jit_transpose(jvp(interpolate)))/mul" source_file="/home/brent/tensorf-jax/tensorf/tensor_vm.py" source_line=176}
  %input_fusion_scatter.12 = f32[3,48,128]{2,1,0} fusion(f32[3,48,4096,33]{2,1,0,3} %fusion.34, f32[3,3,4096,33]{3,2,0,1} %fusion.96), kind=kInput, calls=%input_fused_computation_scatter.12, metadata={op_name="jit(training_step)/jit(main)/jit(transpose(jvp(render_rays)))/jit(jit_transpose(jvp(render_rays)))/jit(transpose(jvp(interpolate)))/jit(jit_transpose(jvp(interpolate)))/jit(transpose(jvp(vmap(vmap(_map_coordinates)))))/jit(jit_transpose(jvp(vmap(vmap(_map_coordinates)))))/scatter-add[update_consts=() dimension_numbers=ScatterDimensionNumbers(update_window_dims=(1,), inserted_window_dims=(0, 2), scatter_dims_to_operand_dims=(0, 2)) indices_are_sorted=False unique_indices=False mode=GatherScatterMode.PROMISE_IN_BOUNDS]" source_file="/home/brent/tensorf-jax/tensorf/tensor_vm.py" source_line=222}
  %input_fusion_scatter.11 = f32[3,48,128]{2,1,0} fusion(f32[3,48,4096,33]{2,1,0,3} %fusion.34, f32[3,3,4096,33]{3,2,0,1} %fusion.96), kind=kInput, calls=%input_fused_computation_scatter.11, metadata={op_name="jit(training_step)/jit(main)/jit(transpose(jvp(render_rays)))/jit(jit_transpose(jvp(render_rays)))/jit(transpose(jvp(interpolate)))/jit(jit_transpose(jvp(interpolate)))/jit(transpose(jvp(vmap(vmap(_map_coordinates)))))/jit(jit_transpose(jvp(vmap(vmap(_map_coordinates)))))/scatter-add[update_consts=() dimension_numbers=ScatterDimensionNumbers(update_window_dims=(1,), inserted_window_dims=(0, 2), scatter_dims_to_operand_dims=(0, 2)) indices_are_sorted=False unique_indices=False mode=GatherScatterMode.PROMISE_IN_BOUNDS]" source_file="/home/brent/tensorf-jax/tensorf/tensor_vm.py" source_line=222}
  %Arg_19.20 = f32[3,48,128]{2,1,0} parameter(19)
  %fusion.31 = (f32[3,48,128]{2,1,0}, f32[3,48,128]{2,1,0}, f32[3,48,128]{2,1,0}) fusion(f32[3,48,128]{2,1,0} %copy.50, f32[] %get-tuple-element.186, f32[] %get-tuple-element.187, f32[] %get-tuple-element.184, f32[3,48,128]{2,1,0} %Arg_30.31, /*index=5*/f32[3,48,128]{2,1,0} %input_fusion_scatter.12, f32[3,48,128]{2,1,0} %input_fusion_scatter.11, f32[3,48,128]{2,1,0} %Arg_19.20), kind=kLoop, calls=%fused_computation.31, metadata={op_name="jit(training_step)/jit(main)/add" source_file="/home/brent/miniconda/envs/py38/lib/python3.8/site-packages/optax/_src/update.py" source_line=43}
  %get-tuple-element.229 = f32[3,48,128]{2,1,0} get-tuple-element((f32[3,48,128]{2,1,0}, f32[3,48,128]{2,1,0}, f32[3,48,128]{2,1,0}) %fusion.31), index=0
  %Arg_31.32 = f32[3,48,128,128]{3,2,1,0} parameter(31)
  %fusion.30 = f32[3,48,4096,33]{3,2,1,0} fusion(f32[3,48,128]{2,1,0} %copy.50, f32[3,3,4096,33]{3,2,0,1} %fusion.96, f32[135168,144]{1,0} %cublas-gemm.29), kind=kLoop, calls=%fused_computation.30, metadata={op_name="jit(training_step)/jit(main)/jit(transpose(jvp(render_rays)))/jit(jit_transpose(jvp(render_rays)))/jit(transpose(jvp(interpolate)))/jit(jit_transpose(jvp(interpolate)))/mul" source_file="/home/brent/tensorf-jax/tensorf/tensor_vm.py" source_line=176}
  %input_fusion_scatter.10 = f32[3,48,128,128]{3,2,1,0} fusion(f32[3,48,4096,33]{3,2,1,0} %fusion.30, f32[3,3,4096,33]{3,2,0,1} %fusion.96), kind=kInput, calls=%input_fused_computation_scatter.10, metadata={op_name="jit(training_step)/jit(main)/jit(transpose(jvp(render_rays)))/jit(jit_transpose(jvp(render_rays)))/jit(transpose(jvp(interpolate)))/jit(jit_transpose(jvp(interpolate)))/jit(transpose(jvp(vmap(vmap(_map_coordinates)))))/jit(jit_transpose(jvp(vmap(vmap(_map_coordinates)))))/scatter-add[update_consts=() dimension_numbers=ScatterDimensionNumbers(update_window_dims=(1,), inserted_window_dims=(0, 2, 3), scatter_dims_to_operand_dims=(0, 2, 3)) indices_are_sorted=False unique_indices=False mode=GatherScatterMode.PROMISE_IN_BOUNDS]" source_file="/home/brent/tensorf-jax/tensorf/tensor_vm.py" source_line=222}
  %input_fusion_scatter.9 = f32[3,48,128,128]{3,2,1,0} fusion(f32[3,48,4096,33]{3,2,1,0} %fusion.30, f32[3,3,4096,33]{3,2,0,1} %fusion.96), kind=kInput, calls=%input_fused_computation_scatter.9, metadata={op_name="jit(training_step)/jit(main)/jit(transpose(jvp(render_rays)))/jit(jit_transpose(jvp(render_rays)))/jit(transpose(jvp(interpolate)))/jit(jit_transpose(jvp(interpolate)))/jit(transpose(jvp(vmap(vmap(_map_coordinates)))))/jit(jit_transpose(jvp(vmap(vmap(_map_coordinates)))))/scatter-add[update_consts=() dimension_numbers=ScatterDimensionNumbers(update_window_dims=(1,), inserted_window_dims=(0, 2, 3), scatter_dims_to_operand_dims=(0, 2, 3)) indices_are_sorted=False unique_indices=False mode=GatherScatterMode.PROMISE_IN_BOUNDS]" source_file="/home/brent/tensorf-jax/tensorf/tensor_vm.py" source_line=222}
  %input_fusion_scatter.8 = f32[3,48,128,128]{3,2,1,0} fusion(f32[3,48,4096,33]{3,2,1,0} %fusion.30, f32[3,48,128,128]{3,2,1,0} %input_fusion_scatter.10, f32[3,48,128,128]{3,2,1,0} %input_fusion_scatter.9, f32[3,3,4096,33]{3,2,0,1} %fusion.96), kind=kInput, calls=%input_fused_computation_scatter.8, metadata={op_name="jit(training_step)/jit(main)/jit(transpose(jvp(render_rays)))/jit(jit_transpose(jvp(render_rays)))/jit(transpose(jvp(interpolate)))/jit(jit_transpose(jvp(interpolate)))/jit(transpose(jvp(vmap(vmap(_map_coordinates)))))/jit(jit_transpose(jvp(vmap(vmap(_map_coordinates)))))/scatter-add[update_consts=() dimension_numbers=ScatterDimensionNumbers(update_window_dims=(1,), inserted_window_dims=(0, 2, 3), scatter_dims_to_operand_dims=(0, 2, 3)) indices_are_sorted=False unique_indices=False mode=GatherScatterMode.PROMISE_IN_BOUNDS]" source_file="/home/brent/tensorf-jax/tensorf/tensor_vm.py" source_line=222}
  %input_fusion_scatter.7 = f32[3,48,128,128]{3,2,1,0} fusion(f32[3,48,4096,33]{3,2,1,0} %fusion.30, f32[3,3,4096,33]{3,2,0,1} %fusion.96), kind=kInput, calls=%input_fused_computation_scatter.7, metadata={op_name="jit(training_step)/jit(main)/jit(transpose(jvp(render_rays)))/jit(jit_transpose(jvp(render_rays)))/jit(transpose(jvp(interpolate)))/jit(jit_transpose(jvp(interpolate)))/jit(transpose(jvp(vmap(vmap(_map_coordinates)))))/jit(jit_transpose(jvp(vmap(vmap(_map_coordinates)))))/scatter-add[update_consts=() dimension_numbers=ScatterDimensionNumbers(update_window_dims=(1,), inserted_window_dims=(0, 2, 3), scatter_dims_to_operand_dims=(0, 2, 3)) indices_are_sorted=False unique_indices=False mode=GatherScatterMode.PROMISE_IN_BOUNDS]" source_file="/home/brent/tensorf-jax/tensorf/tensor_vm.py" source_line=222}
  %Arg_20.21 = f32[3,48,128,128]{3,2,1,0} parameter(20)
  %fusion.27 = (f32[3,48,128,128]{3,2,1,0}, f32[3,48,128,128]{3,2,1,0}, f32[3,48,128,128]{3,2,1,0}) fusion(f32[3,48,128,128]{3,2,1,0} %copy.51, f32[] %get-tuple-element.186, f32[] %get-tuple-element.187, f32[] %get-tuple-element.184, f32[3,48,128,128]{3,2,1,0} %Arg_31.32, /*index=5*/f32[3,48,128,128]{3,2,1,0} %input_fusion_scatter.8, f32[3,48,128,128]{3,2,1,0} %input_fusion_scatter.7, f32[3,48,128,128]{3,2,1,0} %Arg_20.21), kind=kLoop, calls=%fused_computation.27, metadata={op_name="jit(training_step)/jit(main)/add" source_file="/home/brent/miniconda/envs/py38/lib/python3.8/site-packages/optax/_src/update.py" source_line=43}
  %get-tuple-element.230 = f32[3,48,128,128]{3,2,1,0} get-tuple-element((f32[3,48,128,128]{3,2,1,0}, f32[3,48,128,128]{3,2,1,0}, f32[3,48,128,128]{3,2,1,0}) %fusion.27), index=0
  %Arg_32.33 = f32[3,16,128]{2,1,0} parameter(32)
  %fusion.24 = f32[4096,221]{1,0} fusion(f32[4096,221,3]{1,0,2} %input_fusion_scatter.13, f32[4096,3]{1,0} %fusion.66, f32[4096]{0} %input_fusion_reduce.4, f32[4096,221]{1,0} %get-tuple-element.196), kind=kLoop, calls=%fused_computation.24, metadata={op_name="jit(training_step)/jit(main)/jit(transpose(jvp(render_rays)))/jit(jit_transpose(jvp(render_rays)))/reduce_sum[axes=(2,)]" source_file="/home/brent/tensorf-jax/tensorf/render.py" source_line=188}
  %fusion.25 = f32[4096]{0} fusion(f32[3,4096]{0,1} %input_fusion_reduce.5, f32[4096,3]{1,0} %fusion.66), kind=kLoop, calls=%fused_computation.25, metadata={op_name="jit(training_step)/jit(main)/jit(transpose(jvp(render_rays)))/jit(jit_transpose(jvp(render_rays)))/reduce_sum[axes=(1,)]" source_file="/home/brent/tensorf-jax/tensorf/render.py" source_line=188}
  %input_fusion_scatter.6 = f32[4096,221]{1,0} fusion(f32[4096,221]{1,0} %fusion.24, s32[4096,33,2]{1,0,2} %fusion.97, f32[4096]{0} %fusion.25, f32[4096,221]{1,0} %get-tuple-element.196, f32[4096]{0} %input_fusion_reduce.4), kind=kInput, calls=%input_fused_computation_scatter.6, metadata={op_name="jit(training_step)/jit(main)/jit(transpose(jvp(render_rays)))/jit(jit_transpose(jvp(render_rays)))/scatter-add[update_consts=() dimension_numbers=ScatterDimensionNumbers(update_window_dims=(), inserted_window_dims=(0, 1), scatter_dims_to_operand_dims=(0, 1)) indices_are_sorted=False unique_indices=False mode=GatherScatterMode.PROMISE_IN_BOUNDS]" source_file="/home/brent/tensorf-jax/tensorf/render.py" source_line=472}
  %fusion.23 = f32[4096,221]{1,0} fusion(f32[4096,221]{1,0} %get-tuple-element.196, f32[4096,221]{1,0} %input_fusion_scatter.6, f32[4096]{0} %fusion.25, pred[4096]{0} %get-tuple-element.204, f32[4096]{0} %get-tuple-element.206, /*index=5*/f32[4096]{0} %get-tuple-element.205, f32[4096,221]{1,0} %fusion.114, f32[4096]{0} %input_fusion_reduce.4, f32[4096,3]{1,0} %fusion.66), kind=kLoop, calls=%fused_computation.23, metadata={op_name="jit(training_step)/jit(main)/jit(transpose(jvp(render_rays)))/jit(jit_transpose(jvp(render_rays)))/mul" source_file="/home/brent/tensorf-jax/tensorf/render.py" source_line=272}
  %fusion.21 = f32[4096,55]{1,0} fusion(f32[4096,221]{1,0} %fusion.23), kind=kLoop, calls=%fused_computation.21, metadata={op_name="jit(training_step)/jit(main)/jit(transpose(jvp(render_rays)))/jit(jit_transpose(jvp(render_rays)))/jit(transpose(jvp(_cumulative_reduction)))/jit(jit_transpose(jvp(_cumulative_reduction)))/add" source_file="/home/brent/tensorf-jax/tensorf/render.py" source_line=272}
  %fusion.19 = f32[4096,13]{1,0} fusion(f32[4096,55]{1,0} %fusion.21), kind=kLoop, calls=%fused_computation.19, metadata={op_name="jit(training_step)/jit(main)/jit(transpose(jvp(render_rays)))/jit(jit_transpose(jvp(render_rays)))/jit(transpose(jvp(_cumulative_reduction)))/jit(jit_transpose(jvp(_cumulative_reduction)))/add" source_file="/home/brent/tensorf-jax/tensorf/render.py" source_line=272}
  %fusion.17 = f32[4096,3]{1,0} fusion(f32[4096,13]{1,0} %fusion.19), kind=kLoop, calls=%fused_computation.17, metadata={op_name="jit(training_step)/jit(main)/jit(transpose(jvp(render_rays)))/jit(jit_transpose(jvp(render_rays)))/jit(transpose(jvp(_cumulative_reduction)))/jit(jit_transpose(jvp(_cumulative_reduction)))/add" source_file="/home/brent/tensorf-jax/tensorf/render.py" source_line=272}
  %fusion.16 = f32[4096,6]{1,0} fusion(f32[4096,3]{1,0} %fusion.17, f32[4096,13]{1,0} %fusion.19), kind=kLoop, calls=%fused_computation.16, metadata={op_name="jit(training_step)/jit(main)/jit(transpose(jvp(render_rays)))/jit(jit_transpose(jvp(render_rays)))/jit(transpose(jvp(_cumulative_reduction)))/jit(jit_transpose(jvp(_cumulative_reduction)))/pad[padding_config=((0, 0, 0), (0, 1, 1))]" source_file="/home/brent/tensorf-jax/tensorf/render.py" source_line=272}
  %pad.73 = f32[4096,6]{1,0} pad(f32[4096,3]{1,0} %fusion.17, f32[] %constant_70), padding=0_0_0x1_0_1, metadata={op_name="jit(training_step)/jit(main)/jit(transpose(jvp(render_rays)))/jit(jit_transpose(jvp(render_rays)))/jit(transpose(jvp(_cumulative_reduction)))/jit(jit_transpose(jvp(_cumulative_reduction)))/pad[padding_config=((0, 0, 0), (1, 0, 1))]" source_file="/home/brent/tensorf-jax/tensorf/render.py" source_line=272}
  %fusion.164 = (f32[4096,27]{1,0}, f32[4096,27]{1,0}) fusion(f32[4096,13]{1,0} %fusion.19, f32[4096,6]{1,0} %fusion.16, f32[4096,6]{1,0} %pad.73, f32[4096,55]{1,0} %fusion.21), kind=kLoop, calls=%fused_computation.164, metadata={op_name="jit(training_step)/jit(main)/jit(transpose(jvp(render_rays)))/jit(jit_transpose(jvp(render_rays)))/jit(transpose(jvp(_cumulative_reduction)))/jit(jit_transpose(jvp(_cumulative_reduction)))/pad[padding_config=((0, 0, 0), (1, 1, 1))]" source_file="/home/brent/tensorf-jax/tensorf/render.py" source_line=272}
  %get-tuple-element.155 = f32[4096,27]{1,0} get-tuple-element((f32[4096,27]{1,0}, f32[4096,27]{1,0}) %fusion.164), index=1
  %get-tuple-element.154 = f32[4096,27]{1,0} get-tuple-element((f32[4096,27]{1,0}, f32[4096,27]{1,0}) %fusion.164), index=0
  %fusion.165 = (f32[4096,110]{1,0}, f32[4096,110]{1,0}) fusion(f32[4096,55]{1,0} %fusion.21, f32[4096,27]{1,0} %get-tuple-element.155, f32[4096,27]{1,0} %get-tuple-element.154, f32[4096,221]{1,0} %fusion.23), kind=kLoop, calls=%fused_computation.165, metadata={op_name="jit(training_step)/jit(main)/jit(transpose(jvp(render_rays)))/jit(jit_transpose(jvp(render_rays)))/jit(transpose(jvp(_cumulative_reduction)))/jit(jit_transpose(jvp(_cumulative_reduction)))/pad[padding_config=((0, 0, 0), (1, 0, 1))]" source_file="/home/brent/tensorf-jax/tensorf/render.py" source_line=272}
  %get-tuple-element.153 = f32[4096,110]{1,0} get-tuple-element((f32[4096,110]{1,0}, f32[4096,110]{1,0}) %fusion.165), index=1
  %get-tuple-element.152 = f32[4096,110]{1,0} get-tuple-element((f32[4096,110]{1,0}, f32[4096,110]{1,0}) %fusion.165), index=0
  %fusion.10 = f32[3,16,4096,221]{2,1,0,3} fusion(f32[3,16,128,128]{3,2,1,0} %copy.53, f32[3,4096,221]{2,1,0} %get-tuple-element.203, f32[3,4096,221]{2,1,0} %get-tuple-element.201, f32[4096,221]{1,0} %fusion.114, f32[4096,221]{1,0} %input_fusion_reduce.6, /*index=5*/pred[4096]{0} %get-tuple-element.204, f32[4096]{0} %get-tuple-element.206, f32[4096]{0} %get-tuple-element.205, f32[4096,221]{1,0} %input_fusion_scatter.6, f32[4096,221]{1,0} %get-tuple-element.196, /*index=10*/f32[4096,221]{1,0} %fusion.23, f32[4096,110]{1,0} %get-tuple-element.153, f32[4096,110]{1,0} %get-tuple-element.152), kind=kLoop, calls=%fused_computation.10, metadata={op_name="jit(training_step)/jit(main)/jit(transpose(jvp(render_rays)))/jit(jit_transpose(jvp(render_rays)))/jit(transpose(jvp(interpolate)))/jit(jit_transpose(jvp(interpolate)))/mul" source_file="/home/brent/tensorf-jax/tensorf/tensor_vm.py" source_line=176}
  %input_fusion_scatter.5 = f32[3,16,128]{2,1,0} fusion(f32[3,16,4096,221]{2,1,0,3} %fusion.10, f32[3,4096,221]{2,1,0} %get-tuple-element.202), kind=kInput, calls=%input_fused_computation_scatter.5, metadata={op_name="jit(training_step)/jit(main)/jit(transpose(jvp(render_rays)))/jit(jit_transpose(jvp(render_rays)))/jit(transpose(jvp(interpolate)))/jit(jit_transpose(jvp(interpolate)))/jit(transpose(jvp(vmap(vmap(_map_coordinates)))))/jit(jit_transpose(jvp(vmap(vmap(_map_coordinates)))))/scatter-add[update_consts=() dimension_numbers=ScatterDimensionNumbers(update_window_dims=(1,), inserted_window_dims=(0, 2), scatter_dims_to_operand_dims=(0, 2)) indices_are_sorted=False unique_indices=False mode=GatherScatterMode.PROMISE_IN_BOUNDS]" source_file="/home/brent/tensorf-jax/tensorf/tensor_vm.py" source_line=222}
  %input_fusion_scatter.4 = f32[3,16,128]{2,1,0} fusion(f32[3,16,4096,221]{2,1,0,3} %fusion.10, f32[3,4096,221]{2,1,0} %get-tuple-element.202), kind=kInput, calls=%input_fused_computation_scatter.4, metadata={op_name="jit(training_step)/jit(main)/jit(transpose(jvp(render_rays)))/jit(jit_transpose(jvp(render_rays)))/jit(transpose(jvp(interpolate)))/jit(jit_transpose(jvp(interpolate)))/jit(transpose(jvp(vmap(vmap(_map_coordinates)))))/jit(jit_transpose(jvp(vmap(vmap(_map_coordinates)))))/scatter-add[update_consts=() dimension_numbers=ScatterDimensionNumbers(update_window_dims=(1,), inserted_window_dims=(0, 2), scatter_dims_to_operand_dims=(0, 2)) indices_are_sorted=False unique_indices=False mode=GatherScatterMode.PROMISE_IN_BOUNDS]" source_file="/home/brent/tensorf-jax/tensorf/tensor_vm.py" source_line=222}
  %Arg_21.22 = f32[3,16,128]{2,1,0} parameter(21)
  %fusion.7 = (f32[3,16,128]{2,1,0}, f32[3,16,128]{2,1,0}, f32[3,16,128]{2,1,0}) fusion(f32[3,16,128]{2,1,0} %Arg_9.10, f32[] %get-tuple-element.186, f32[] %get-tuple-element.187, f32[] %get-tuple-element.184, f32[3,16,128]{2,1,0} %Arg_32.33, /*index=5*/f32[3,16,128]{2,1,0} %input_fusion_scatter.5, f32[3,16,128]{2,1,0} %input_fusion_scatter.4, f32[3,16,128]{2,1,0} %Arg_21.22), kind=kLoop, calls=%fused_computation.7, metadata={op_name="jit(training_step)/jit(main)/add" source_file="/home/brent/miniconda/envs/py38/lib/python3.8/site-packages/optax/_src/update.py" source_line=43}
  %get-tuple-element.231 = f32[3,16,128]{2,1,0} get-tuple-element((f32[3,16,128]{2,1,0}, f32[3,16,128]{2,1,0}, f32[3,16,128]{2,1,0}) %fusion.7), index=0
  %Arg_33.34 = f32[3,16,128,128]{3,2,1,0} parameter(33)
  %input_fusion_scatter.3 = f32[3,16,128,128]{3,2,1,0} fusion(f32[3,4096,221]{2,1,0} %get-tuple-element.203, f32[3,4096,221]{2,1,0} %get-tuple-element.201, f32[3,16,4096,221]{3,2,1,0} %fusion.131, f32[4096,221]{1,0} %fusion.114, f32[4096,221]{1,0} %input_fusion_reduce.6, /*index=5*/pred[4096]{0} %get-tuple-element.204, f32[4096]{0} %get-tuple-element.206, f32[4096]{0} %get-tuple-element.205, f32[4096,221]{1,0} %input_fusion_scatter.6, f32[4096,221]{1,0} %get-tuple-element.196, /*index=10*/f32[4096,221]{1,0} %fusion.23, f32[4096,110]{1,0} %get-tuple-element.153, f32[4096,110]{1,0} %get-tuple-element.152), kind=kInput, calls=%input_fused_computation_scatter.3, metadata={op_name="jit(training_step)/jit(main)/jit(transpose(jvp(render_rays)))/jit(jit_transpose(jvp(render_rays)))/jit(transpose(jvp(interpolate)))/jit(jit_transpose(jvp(interpolate)))/jit(transpose(jvp(vmap(vmap(_map_coordinates)))))/jit(jit_transpose(jvp(vmap(vmap(_map_coordinates)))))/scatter-add[update_consts=() dimension_numbers=ScatterDimensionNumbers(update_window_dims=(1,), inserted_window_dims=(0, 2, 3), scatter_dims_to_operand_dims=(0, 2, 3)) indices_are_sorted=False unique_indices=False mode=GatherScatterMode.PROMISE_IN_BOUNDS]" source_file="/home/brent/tensorf-jax/tensorf/tensor_vm.py" source_line=222}
  %input_fusion_scatter.2 = f32[3,16,128,128]{3,2,1,0} fusion(f32[3,4096,221]{2,1,0} %get-tuple-element.203, f32[3,4096,221]{2,1,0} %get-tuple-element.201, f32[3,16,4096,221]{3,2,1,0} %fusion.131, f32[4096,221]{1,0} %fusion.114, f32[4096,221]{1,0} %input_fusion_reduce.6, /*index=5*/pred[4096]{0} %get-tuple-element.204, f32[4096]{0} %get-tuple-element.206, f32[4096]{0} %get-tuple-element.205, f32[4096,221]{1,0} %input_fusion_scatter.6, f32[4096,221]{1,0} %get-tuple-element.196, /*index=10*/f32[4096,221]{1,0} %fusion.23, f32[4096,110]{1,0} %get-tuple-element.153, f32[4096,110]{1,0} %get-tuple-element.152), kind=kInput, calls=%input_fused_computation_scatter.2, metadata={op_name="jit(training_step)/jit(main)/jit(transpose(jvp(render_rays)))/jit(jit_transpose(jvp(render_rays)))/jit(transpose(jvp(interpolate)))/jit(jit_transpose(jvp(interpolate)))/jit(transpose(jvp(vmap(vmap(_map_coordinates)))))/jit(jit_transpose(jvp(vmap(vmap(_map_coordinates)))))/scatter-add[update_consts=() dimension_numbers=ScatterDimensionNumbers(update_window_dims=(1,), inserted_window_dims=(0, 2, 3), scatter_dims_to_operand_dims=(0, 2, 3)) indices_are_sorted=False unique_indices=False mode=GatherScatterMode.PROMISE_IN_BOUNDS]" source_file="/home/brent/tensorf-jax/tensorf/tensor_vm.py" source_line=222}
  %input_fusion_scatter.1 = f32[3,16,128,128]{3,2,1,0} fusion(f32[3,16,128,128]{3,2,1,0} %input_fusion_scatter.3, f32[3,16,128,128]{3,2,1,0} %input_fusion_scatter.2, f32[3,4096,221]{2,1,0} %get-tuple-element.203, f32[3,4096,221]{2,1,0} %get-tuple-element.201, f32[3,16,4096,221]{3,2,1,0} %fusion.131, /*index=5*/f32[4096,221]{1,0} %fusion.114, f32[4096,221]{1,0} %input_fusion_reduce.6, pred[4096]{0} %get-tuple-element.204, f32[4096]{0} %get-tuple-element.206, f32[4096]{0} %get-tuple-element.205, /*index=10*/f32[4096,221]{1,0} %input_fusion_scatter.6, f32[4096,221]{1,0} %get-tuple-element.196, f32[4096,221]{1,0} %fusion.23, f32[4096,110]{1,0} %get-tuple-element.153, f32[4096,110]{1,0} %get-tuple-element.152), kind=kInput, calls=%input_fused_computation_scatter.1, metadata={op_name="jit(training_step)/jit(main)/jit(transpose(jvp(render_rays)))/jit(jit_transpose(jvp(render_rays)))/jit(transpose(jvp(interpolate)))/jit(jit_transpose(jvp(interpolate)))/jit(transpose(jvp(vmap(vmap(_map_coordinates)))))/jit(jit_transpose(jvp(vmap(vmap(_map_coordinates)))))/scatter-add[update_consts=() dimension_numbers=ScatterDimensionNumbers(update_window_dims=(1,), inserted_window_dims=(0, 2, 3), scatter_dims_to_operand_dims=(0, 2, 3)) indices_are_sorted=False unique_indices=False mode=GatherScatterMode.PROMISE_IN_BOUNDS]" source_file="/home/brent/tensorf-jax/tensorf/tensor_vm.py" source_line=222}
  %input_fusion_scatter = f32[3,16,128,128]{3,2,1,0} fusion(f32[3,4096,221]{2,1,0} %get-tuple-element.203, f32[3,4096,221]{2,1,0} %get-tuple-element.201, f32[3,16,4096,221]{3,2,1,0} %fusion.131, f32[4096,221]{1,0} %fusion.114, f32[4096,221]{1,0} %input_fusion_reduce.6, /*index=5*/pred[4096]{0} %get-tuple-element.204, f32[4096]{0} %get-tuple-element.206, f32[4096]{0} %get-tuple-element.205, f32[4096,221]{1,0} %input_fusion_scatter.6, f32[4096,221]{1,0} %get-tuple-element.196, /*index=10*/f32[4096,221]{1,0} %fusion.23, f32[4096,110]{1,0} %get-tuple-element.153, f32[4096,110]{1,0} %get-tuple-element.152), kind=kInput, calls=%input_fused_computation_scatter, metadata={op_name="jit(training_step)/jit(main)/jit(transpose(jvp(render_rays)))/jit(jit_transpose(jvp(render_rays)))/jit(transpose(jvp(interpolate)))/jit(jit_transpose(jvp(interpolate)))/jit(transpose(jvp(vmap(vmap(_map_coordinates)))))/jit(jit_transpose(jvp(vmap(vmap(_map_coordinates)))))/scatter-add[update_consts=() dimension_numbers=ScatterDimensionNumbers(update_window_dims=(1,), inserted_window_dims=(0, 2, 3), scatter_dims_to_operand_dims=(0, 2, 3)) indices_are_sorted=False unique_indices=False mode=GatherScatterMode.PROMISE_IN_BOUNDS]" source_file="/home/brent/tensorf-jax/tensorf/tensor_vm.py" source_line=222}
  %Arg_22.23 = f32[3,16,128,128]{3,2,1,0} parameter(22)
  %fusion.3 = (f32[3,16,128,128]{3,2,1,0}, f32[3,16,128,128]{3,2,1,0}, f32[3,16,128,128]{3,2,1,0}) fusion(f32[3,16,128,128]{3,2,1,0} %copy.53, f32[] %get-tuple-element.186, f32[] %get-tuple-element.187, f32[] %get-tuple-element.184, f32[3,16,128,128]{3,2,1,0} %Arg_33.34, /*index=5*/f32[3,16,128,128]{3,2,1,0} %input_fusion_scatter.1, f32[3,16,128,128]{3,2,1,0} %input_fusion_scatter, f32[3,16,128,128]{3,2,1,0} %Arg_22.23), kind=kLoop, calls=%fused_computation.3, metadata={op_name="jit(training_step)/jit(main)/add" source_file="/home/brent/miniconda/envs/py38/lib/python3.8/site-packages/optax/_src/update.py" source_line=43}
  %get-tuple-element.232 = f32[3,16,128,128]{3,2,1,0} get-tuple-element((f32[3,16,128,128]{3,2,1,0}, f32[3,16,128,128]{3,2,1,0}, f32[3,16,128,128]{3,2,1,0}) %fusion.3), index=0
  %get-tuple-element.233 = s32[] get-tuple-element((f32[], f32[], s32[]) %fusion.56), index=2
  %get-tuple-element.234 = f32[144,27]{1,0} get-tuple-element((f32[144,27]{1,0}, f32[144,27]{1,0}, f32[144,27]{1,0}) %fusion.54), index=2
  %get-tuple-element.235 = f32[128]{0} get-tuple-element((f32[128]{0}, f32[128]{0}, f32[128]{0}, f32[128]{0}, f32[128]{0}, /*index=5*/f32[128]{0}) %fusion.45), index=5
  %get-tuple-element.236 = f32[150,128]{1,0} get-tuple-element((f32[150,128]{1,0}, f32[150,128]{1,0}, f32[150,128]{1,0}) %fusion.48), index=2
  %get-tuple-element.237 = f32[128]{0} get-tuple-element((f32[128]{0}, f32[128]{0}, f32[128]{0}, f32[128]{0}, f32[128]{0}, /*index=5*/f32[128]{0}) %fusion.45), index=2
  %get-tuple-element.238 = f32[128,128]{1,0} get-tuple-element((f32[128,128]{1,0}, f32[128,128]{1,0}, f32[128,128]{1,0}) %fusion.42), index=2
  %get-tuple-element.239 = f32[3]{0} get-tuple-element((f32[3]{0}, f32[3]{0}, f32[3]{0}) %fusion.39), index=2
  %get-tuple-element.240 = f32[128,3]{1,0} get-tuple-element((f32[128,3]{1,0}, f32[128,3]{1,0}, f32[128,3]{1,0}) %fusion.36), index=2
  %get-tuple-element.241 = f32[3,48,128]{2,1,0} get-tuple-element((f32[3,48,128]{2,1,0}, f32[3,48,128]{2,1,0}, f32[3,48,128]{2,1,0}) %fusion.31), index=2
  %get-tuple-element.242 = f32[3,48,128,128]{3,2,1,0} get-tuple-element((f32[3,48,128,128]{3,2,1,0}, f32[3,48,128,128]{3,2,1,0}, f32[3,48,128,128]{3,2,1,0}) %fusion.27), index=2
  %get-tuple-element.243 = f32[3,16,128]{2,1,0} get-tuple-element((f32[3,16,128]{2,1,0}, f32[3,16,128]{2,1,0}, f32[3,16,128]{2,1,0}) %fusion.7), index=2
  %get-tuple-element.244 = f32[3,16,128,128]{3,2,1,0} get-tuple-element((f32[3,16,128,128]{3,2,1,0}, f32[3,16,128,128]{3,2,1,0}, f32[3,16,128,128]{3,2,1,0}) %fusion.3), index=2
  %get-tuple-element.245 = f32[144,27]{1,0} get-tuple-element((f32[144,27]{1,0}, f32[144,27]{1,0}, f32[144,27]{1,0}) %fusion.54), index=1
  %get-tuple-element.246 = f32[128]{0} get-tuple-element((f32[128]{0}, f32[128]{0}, f32[128]{0}, f32[128]{0}, f32[128]{0}, /*index=5*/f32[128]{0}) %fusion.45), index=4
  %get-tuple-element.247 = f32[150,128]{1,0} get-tuple-element((f32[150,128]{1,0}, f32[150,128]{1,0}, f32[150,128]{1,0}) %fusion.48), index=1
  %get-tuple-element.248 = f32[128]{0} get-tuple-element((f32[128]{0}, f32[128]{0}, f32[128]{0}, f32[128]{0}, f32[128]{0}, /*index=5*/f32[128]{0}) %fusion.45), index=1
  %get-tuple-element.249 = f32[128,128]{1,0} get-tuple-element((f32[128,128]{1,0}, f32[128,128]{1,0}, f32[128,128]{1,0}) %fusion.42), index=1
  %get-tuple-element.250 = f32[3]{0} get-tuple-element((f32[3]{0}, f32[3]{0}, f32[3]{0}) %fusion.39), index=1
  %get-tuple-element.251 = f32[128,3]{1,0} get-tuple-element((f32[128,3]{1,0}, f32[128,3]{1,0}, f32[128,3]{1,0}) %fusion.36), index=1
  %get-tuple-element.252 = f32[3,48,128]{2,1,0} get-tuple-element((f32[3,48,128]{2,1,0}, f32[3,48,128]{2,1,0}, f32[3,48,128]{2,1,0}) %fusion.31), index=1
  %get-tuple-element.253 = f32[3,48,128,128]{3,2,1,0} get-tuple-element((f32[3,48,128,128]{3,2,1,0}, f32[3,48,128,128]{3,2,1,0}, f32[3,48,128,128]{3,2,1,0}) %fusion.27), index=1
  %get-tuple-element.254 = f32[3,16,128]{2,1,0} get-tuple-element((f32[3,16,128]{2,1,0}, f32[3,16,128]{2,1,0}, f32[3,16,128]{2,1,0}) %fusion.7), index=1
  %get-tuple-element.255 = f32[3,16,128,128]{3,2,1,0} get-tuple-element((f32[3,16,128,128]{3,2,1,0}, f32[3,16,128,128]{3,2,1,0}, f32[3,16,128,128]{3,2,1,0}) %fusion.3), index=1
  %get-tuple-element.257 = u32[2]{0} get-tuple-element((u32[2]{0}, u32[2]{0}, u32[2]{0}) %fusion.2), index=0
  %get-tuple-element.258 = s32[] get-tuple-element((f32[], f32[], s32[]) %fusion.166), index=2
  %get-tuple-element.259 = f32[] get-tuple-element((f32[], f32[], s32[]) %fusion.166), index=0
  %constant_43 = f32[] constant(0.02)
  %multiply.2257 = f32[] multiply(f32[] %get-tuple-element.184, f32[] %constant_43), metadata={op_name="jit(training_step)/jit(main)/mul" source_file="/home/brent/tensorf-jax/tensorf/training.py" source_line=355}
  %input_fusion_reduce = f32[] fusion(f32[4096,3]{1,0} %fusion.66), kind=kInput, calls=%input_fused_computation_reduce, metadata={op_name="jit(training_step)/jit(main)/reduce_sum[axes=(0, 1)]" source_file="/home/brent/tensorf-jax/tensorf/training.py" source_line=291}
  %fusion.1 = (f32[], f32[]) fusion(f32[] %input_fusion_reduce), kind=kLoop, calls=%fused_computation.1, metadata={op_name="jit(training_step)/jit(main)/mul" source_file="/home/brent/tensorf-jax/tensorf/utils.py" source_line=17}
  %get-tuple-element.261 = f32[] get-tuple-element((f32[], f32[]) %fusion.1), index=1
  %get-tuple-element.262 = f32[] get-tuple-element((f32[], f32[]) %fusion.1), index=0
  ROOT %tuple.91 = (f32[144,27]{1,0}, f32[128]{0}, f32[150,128]{1,0}, f32[128]{0}, f32[128,128]{1,0}, /*index=5*/f32[3]{0}, f32[128,3]{1,0}, f32[3,48,128]{2,1,0}, f32[3,48,128,128]{3,2,1,0}, f32[3,16,128]{2,1,0}, /*index=10*/f32[3,16,128,128]{3,2,1,0}, s32[], f32[144,27]{1,0}, f32[128]{0}, f32[150,128]{1,0}, /*index=15*/f32[128]{0}, f32[128,128]{1,0}, f32[3]{0}, f32[128,3]{1,0}, f32[3,48,128]{2,1,0}, /*index=20*/f32[3,48,128,128]{3,2,1,0}, f32[3,16,128]{2,1,0}, f32[3,16,128,128]{3,2,1,0}, f32[144,27]{1,0}, f32[128]{0}, /*index=25*/f32[150,128]{1,0}, f32[128]{0}, f32[128,128]{1,0}, f32[3]{0}, f32[128,3]{1,0}, /*index=30*/f32[3,48,128]{2,1,0}, f32[3,48,128,128]{3,2,1,0}, f32[3,16,128]{2,1,0}, f32[3,16,128,128]{3,2,1,0}, f32[2,3]{1,0}, /*index=35*/u32[2]{0}, s32[], f32[], f32[], f32[], /*index=40*/f32[]) tuple(f32[144,27]{1,0} %get-tuple-element.222, f32[128]{0} %get-tuple-element.223, f32[150,128]{1,0} %get-tuple-element.224, f32[128]{0} %get-tuple-element.225, f32[128,128]{1,0} %get-tuple-element.226, /*index=5*/f32[3]{0} %get-tuple-element.227, f32[128,3]{1,0} %get-tuple-element.228, f32[3,48,128]{2,1,0} %get-tuple-element.229, f32[3,48,128,128]{3,2,1,0} %get-tuple-element.230, f32[3,16,128]{2,1,0} %get-tuple-element.231, /*index=10*/f32[3,16,128,128]{3,2,1,0} %get-tuple-element.232, s32[] %get-tuple-element.233, f32[144,27]{1,0} %get-tuple-element.234, f32[128]{0} %get-tuple-element.235, f32[150,128]{1,0} %get-tuple-element.236, /*index=15*/f32[128]{0} %get-tuple-element.237, f32[128,128]{1,0} %get-tuple-element.238, f32[3]{0} %get-tuple-element.239, f32[128,3]{1,0} %get-tuple-element.240, f32[3,48,128]{2,1,0} %get-tuple-element.241, /*index=20*/f32[3,48,128,128]{3,2,1,0} %get-tuple-element.242, f32[3,16,128]{2,1,0} %get-tuple-element.243, f32[3,16,128,128]{3,2,1,0} %get-tuple-element.244, f32[144,27]{1,0} %get-tuple-element.245, f32[128]{0} %get-tuple-element.246, /*index=25*/f32[150,128]{1,0} %get-tuple-element.247, f32[128]{0} %get-tuple-element.248, f32[128,128]{1,0} %get-tuple-element.249, f32[3]{0} %get-tuple-element.250, f32[128,3]{1,0} %get-tuple-element.251, /*index=30*/f32[3,48,128]{2,1,0} %get-tuple-element.252, f32[3,48,128,128]{3,2,1,0} %get-tuple-element.253, f32[3,16,128]{2,1,0} %get-tuple-element.254, f32[3,16,128,128]{3,2,1,0} %get-tuple-element.255, f32[2,3]{1,0} %Arg_34.35, /*index=35*/u32[2]{0} %get-tuple-element.257, s32[] %get-tuple-element.258, f32[] %get-tuple-element.259, f32[] %multiply.2257, f32[] %get-tuple-element.261, /*index=40*/f32[] %get-tuple-element.262)
}

