HloModule jit_training_step.89, input_output_alias={ {0}: (0, {}, may-alias), {1}: (1, {}, may-alias), {2}: (2, {}, may-alias), {3}: (3, {}, may-alias), {4}: (4, {}, may-alias), {5}: (5, {}, may-alias), {6}: (6, {}, may-alias), {7}: (7, {}, may-alias), {8}: (8, {}, may-alias), {9}: (9, {}, may-alias), {10}: (10, {}, may-alias), {11}: (11, {}, may-alias), {12}: (12, {}, may-alias), {13}: (13, {}, may-alias), {14}: (14, {}, may-alias), {15}: (15, {}, may-alias), {16}: (16, {}, may-alias), {17}: (17, {}, may-alias), {18}: (18, {}, may-alias), {19}: (19, {}, may-alias), {20}: (20, {}, may-alias), {21}: (21, {}, may-alias), {22}: (22, {}, may-alias), {23}: (23, {}, may-alias), {24}: (24, {}, may-alias), {25}: (25, {}, may-alias), {26}: (26, {}, may-alias), {27}: (27, {}, may-alias), {28}: (28, {}, may-alias), {29}: (29, {}, may-alias), {30}: (30, {}, may-alias), {31}: (31, {}, may-alias), {32}: (32, {}, may-alias), {33}: (33, {}, may-alias), {34}: (34, {}, may-alias), {35}: (35, {}, may-alias), {36}: (36, {}, may-alias) }

%fused_computation (param_0.2: s32[], param_1.3: s32[], param_2.6: f32[], param_3.10: f32[]) -> pred[] {
  %param_3.10 = f32[] parameter(3)
  %compare.128 = pred[] compare(f32[] %param_3.10, f32[] %param_3.10), direction=NE, metadata={op_name="jit(training_step)/jit(main)/jit(jvp(render_rays))/jit(jit_jvp(render_rays))/jit(jvp(vmap(argsort)))/jit(jit_jvp(vmap(argsort)))/ne" source_file="/home/brent/tensorf-jax/tensorf/render.py" source_line=410}
  %constant_452 = s32[] constant(2143289344)
  %constant_451 = f32[] constant(0)
  %compare.127 = pred[] compare(f32[] %param_3.10, f32[] %constant_451), direction=EQ, metadata={op_name="jit(training_step)/jit(main)/jit(jvp(render_rays))/jit(jit_jvp(render_rays))/jit(jvp(vmap(argsort)))/jit(jit_jvp(vmap(argsort)))/eq" source_file="/home/brent/tensorf-jax/tensorf/render.py" source_line=410}
  %constant_450 = s32[] constant(0)
  %bitcast-convert.19 = s32[] bitcast-convert(f32[] %param_3.10), metadata={op_name="jit(training_step)/jit(main)/jit(jvp(render_rays))/jit(jit_jvp(render_rays))/jit(jvp(vmap(argsort)))/jit(jit_jvp(vmap(argsort)))/bitcast_convert_type[new_dtype=int32]" source_file="/home/brent/tensorf-jax/tensorf/render.py" source_line=410}
  %select.121 = s32[] select(pred[] %compare.127, s32[] %constant_450, s32[] %bitcast-convert.19), metadata={op_name="jit(training_step)/jit(main)/jit(jvp(render_rays))/jit(jit_jvp(render_rays))/jit(jvp(vmap(argsort)))/jit(jit_jvp(vmap(argsort)))/select_n" source_file="/home/brent/tensorf-jax/tensorf/render.py" source_line=410}
  %select.120 = s32[] select(pred[] %compare.128, s32[] %constant_452, s32[] %select.121), metadata={op_name="jit(training_step)/jit(main)/jit(jvp(render_rays))/jit(jit_jvp(render_rays))/jit(jvp(vmap(argsort)))/jit(jit_jvp(vmap(argsort)))/select_n" source_file="/home/brent/tensorf-jax/tensorf/render.py" source_line=410}
  %compare.126 = pred[] compare(s32[] %select.120, s32[] %constant_450), direction=LT, metadata={op_name="jit(training_step)/jit(main)/jit(jvp(render_rays))/jit(jit_jvp(render_rays))/jit(jvp(vmap(argsort)))/jit(jit_jvp(vmap(argsort)))/lt" source_file="/home/brent/tensorf-jax/tensorf/render.py" source_line=410}
  %constant_449 = u32[] constant(2147483647)
  %bitcast-convert.18 = u32[] bitcast-convert(f32[] %param_3.10), metadata={op_name="jit(training_step)/jit(main)/jit(jvp(render_rays))/jit(jit_jvp(render_rays))/jit(jvp(vmap(argsort)))/jit(jit_jvp(vmap(argsort)))/bitcast_convert_type[new_dtype=uint32]" source_file="/home/brent/tensorf-jax/tensorf/render.py" source_line=410}
  %subtract.62 = u32[] subtract(u32[] %constant_449, u32[] %bitcast-convert.18), metadata={op_name="jit(training_step)/jit(main)/jit(jvp(render_rays))/jit(jit_jvp(render_rays))/jit(jvp(vmap(argsort)))/jit(jit_jvp(vmap(argsort)))/sub" source_file="/home/brent/tensorf-jax/tensorf/render.py" source_line=410}
  %bitcast-convert.17 = s32[] bitcast-convert(u32[] %subtract.62), metadata={op_name="jit(training_step)/jit(main)/jit(jvp(render_rays))/jit(jit_jvp(render_rays))/jit(jvp(vmap(argsort)))/jit(jit_jvp(vmap(argsort)))/bitcast_convert_type[new_dtype=int32]" source_file="/home/brent/tensorf-jax/tensorf/render.py" source_line=410}
  %select.119 = s32[] select(pred[] %compare.126, s32[] %bitcast-convert.17, s32[] %select.120), metadata={op_name="jit(training_step)/jit(main)/jit(jvp(render_rays))/jit(jit_jvp(render_rays))/jit(jvp(vmap(argsort)))/jit(jit_jvp(vmap(argsort)))/select_n" source_file="/home/brent/tensorf-jax/tensorf/render.py" source_line=410}
  %param_2.6 = f32[] parameter(2)
  %compare.125 = pred[] compare(f32[] %param_2.6, f32[] %param_2.6), direction=NE, metadata={op_name="jit(training_step)/jit(main)/jit(jvp(render_rays))/jit(jit_jvp(render_rays))/jit(jvp(vmap(argsort)))/jit(jit_jvp(vmap(argsort)))/ne" source_file="/home/brent/tensorf-jax/tensorf/render.py" source_line=410}
  %compare.124 = pred[] compare(f32[] %param_2.6, f32[] %constant_451), direction=EQ, metadata={op_name="jit(training_step)/jit(main)/jit(jvp(render_rays))/jit(jit_jvp(render_rays))/jit(jvp(vmap(argsort)))/jit(jit_jvp(vmap(argsort)))/eq" source_file="/home/brent/tensorf-jax/tensorf/render.py" source_line=410}
  %bitcast-convert.16 = s32[] bitcast-convert(f32[] %param_2.6), metadata={op_name="jit(training_step)/jit(main)/jit(jvp(render_rays))/jit(jit_jvp(render_rays))/jit(jvp(vmap(argsort)))/jit(jit_jvp(vmap(argsort)))/bitcast_convert_type[new_dtype=int32]" source_file="/home/brent/tensorf-jax/tensorf/render.py" source_line=410}
  %select.118 = s32[] select(pred[] %compare.124, s32[] %constant_450, s32[] %bitcast-convert.16), metadata={op_name="jit(training_step)/jit(main)/jit(jvp(render_rays))/jit(jit_jvp(render_rays))/jit(jvp(vmap(argsort)))/jit(jit_jvp(vmap(argsort)))/select_n" source_file="/home/brent/tensorf-jax/tensorf/render.py" source_line=410}
  %select.117 = s32[] select(pred[] %compare.125, s32[] %constant_452, s32[] %select.118), metadata={op_name="jit(training_step)/jit(main)/jit(jvp(render_rays))/jit(jit_jvp(render_rays))/jit(jvp(vmap(argsort)))/jit(jit_jvp(vmap(argsort)))/select_n" source_file="/home/brent/tensorf-jax/tensorf/render.py" source_line=410}
  %compare.123 = pred[] compare(s32[] %select.117, s32[] %constant_450), direction=LT, metadata={op_name="jit(training_step)/jit(main)/jit(jvp(render_rays))/jit(jit_jvp(render_rays))/jit(jvp(vmap(argsort)))/jit(jit_jvp(vmap(argsort)))/lt" source_file="/home/brent/tensorf-jax/tensorf/render.py" source_line=410}
  %bitcast-convert.15 = u32[] bitcast-convert(f32[] %param_2.6), metadata={op_name="jit(training_step)/jit(main)/jit(jvp(render_rays))/jit(jit_jvp(render_rays))/jit(jvp(vmap(argsort)))/jit(jit_jvp(vmap(argsort)))/bitcast_convert_type[new_dtype=uint32]" source_file="/home/brent/tensorf-jax/tensorf/render.py" source_line=410}
  %subtract.61 = u32[] subtract(u32[] %constant_449, u32[] %bitcast-convert.15), metadata={op_name="jit(training_step)/jit(main)/jit(jvp(render_rays))/jit(jit_jvp(render_rays))/jit(jvp(vmap(argsort)))/jit(jit_jvp(vmap(argsort)))/sub" source_file="/home/brent/tensorf-jax/tensorf/render.py" source_line=410}
  %bitcast-convert.14 = s32[] bitcast-convert(u32[] %subtract.61), metadata={op_name="jit(training_step)/jit(main)/jit(jvp(render_rays))/jit(jit_jvp(render_rays))/jit(jvp(vmap(argsort)))/jit(jit_jvp(vmap(argsort)))/bitcast_convert_type[new_dtype=int32]" source_file="/home/brent/tensorf-jax/tensorf/render.py" source_line=410}
  %select.116 = s32[] select(pred[] %compare.123, s32[] %bitcast-convert.14, s32[] %select.117), metadata={op_name="jit(training_step)/jit(main)/jit(jvp(render_rays))/jit(jit_jvp(render_rays))/jit(jvp(vmap(argsort)))/jit(jit_jvp(vmap(argsort)))/select_n" source_file="/home/brent/tensorf-jax/tensorf/render.py" source_line=410}
  %compare.122 = pred[] compare(s32[] %select.119, s32[] %select.116), direction=LT, metadata={op_name="jit(training_step)/jit(main)/jit(jvp(render_rays))/jit(jit_jvp(render_rays))/jit(jvp(vmap(argsort)))/jit(jit_jvp(vmap(argsort)))/lt" source_file="/home/brent/tensorf-jax/tensorf/render.py" source_line=410}
  %compare.121 = pred[] compare(s32[] %select.116, s32[] %select.119), direction=LT, metadata={op_name="jit(training_step)/jit(main)/jit(jvp(render_rays))/jit(jit_jvp(render_rays))/jit(jvp(vmap(argsort)))/jit(jit_jvp(vmap(argsort)))/lt" source_file="/home/brent/tensorf-jax/tensorf/render.py" source_line=410}
  %compare.120 = pred[] compare(pred[] %compare.122, pred[] %compare.121), direction=EQ
  %param_0.2 = s32[] parameter(0)
  %param_1.3 = s32[] parameter(1)
  %compare.119 = pred[] compare(s32[] %param_0.2, s32[] %param_1.3), direction=LT
  ROOT %select.115 = pred[] select(pred[] %compare.120, pred[] %compare.119, pred[] %compare.122)
}

%region_5.628.clone (Arg_0.0: f32[], Arg_1.0: f32[], Arg_2.0: s32[], Arg_3.0: s32[], p.2.lhs.clone: s32[], p.2.rhs.clone: s32[]) -> pred[] {
  %Arg_2.0 = s32[] parameter(2)
  %Arg_3.0 = s32[] parameter(3)
  %p.2.lhs.clone = s32[] parameter(4)
  %p.2.rhs.clone = s32[] parameter(5)
  %Arg_1.0 = f32[] parameter(1)
  %Arg_0.0 = f32[] parameter(0)
  ROOT %fusion = pred[] fusion(s32[] %p.2.lhs.clone, s32[] %p.2.rhs.clone, f32[] %Arg_1.0, f32[] %Arg_0.0), kind=kLoop, calls=%fused_computation
}

%region_27.1717 (Arg_0.1718: f32[], Arg_1.1719: f32[]) -> f32[] {
  %Arg_0.1718 = f32[] parameter(0)
  %Arg_1.1719 = f32[] parameter(1)
  ROOT %add.1720 = f32[] add(f32[] %Arg_0.1718, f32[] %Arg_1.1719), metadata={op_name="jit(training_step)/jit(main)/jit(transpose(jvp(render_rays)))/jit(jit_transpose(jvp(render_rays)))/reduce_sum[axes=(0,)]" source_file="/home/brent/miniconda/envs/py38/lib/python3.8/site-packages/flax/linen/linear.py" source_line=195}
}

%fused_computation.1 (param_0.369: f32[]) -> (f32[], f32[]) {
  %param_0.369 = f32[] parameter(0)
  %constant_471 = f32[] constant(8.13802108e-05)
  %multiply.396 = f32[] multiply(f32[] %param_0.369, f32[] %constant_471), metadata={op_name="jit(training_step)/jit(main)/div" source_file="/home/brent/tensorf-jax/tensorf/training.py" source_line=291}
  %constant_454 = f32[] constant(1e-10)
  %maximum.59 = f32[] maximum(f32[] %multiply.396, f32[] %constant_454), metadata={op_name="jit(training_step)/jit(main)/max" source_file="/home/brent/tensorf-jax/tensorf/utils.py" source_line=8}
  %log.3 = f32[] log(f32[] %maximum.59), metadata={op_name="jit(training_step)/jit(main)/log" source_file="/home/brent/tensorf-jax/tensorf/utils.py" source_line=17}
  %constant_453 = f32[] constant(-4.34294462)
  %multiply.232 = f32[] multiply(f32[] %log.3, f32[] %constant_453), metadata={op_name="jit(training_step)/jit(main)/mul" source_file="/home/brent/tensorf-jax/tensorf/utils.py" source_line=17}
  ROOT %tuple.44 = (f32[], f32[]) tuple(f32[] %multiply.232, f32[] %multiply.396)
}

%region_10.1472 (Arg_0.1473: f32[], Arg_1.1474: f32[]) -> f32[] {
  %Arg_0.1473 = f32[] parameter(0)
  %Arg_1.1474 = f32[] parameter(1)
  ROOT %add.1475 = f32[] add(f32[] %Arg_0.1473, f32[] %Arg_1.1474), metadata={op_name="jit(training_step)/jit(main)/reduce_sum[axes=(0, 1)]" source_file="/home/brent/tensorf-jax/tensorf/training.py" source_line=291}
}

%input_fused_computation_reduce (param_0.370: f32[4096,3]) -> f32[] {
  %param_0.370 = f32[4096,3]{1,0} parameter(0)
  %multiply.233 = f32[4096,3]{1,0} multiply(f32[4096,3]{1,0} %param_0.370, f32[4096,3]{1,0} %param_0.370), metadata={op_name="jit(training_step)/jit(main)/mul" source_file="/home/brent/tensorf-jax/tensorf/training.py" source_line=291}
  %bitcast.73 = f32[12288]{0} bitcast(f32[4096,3]{1,0} %multiply.233)
  %constant_472 = f32[] constant(0)
  ROOT %reduce.36 = f32[] reduce(f32[12288]{0} %bitcast.73, f32[] %constant_472), dimensions={0}, to_apply=%region_10.1472, metadata={op_name="jit(training_step)/jit(main)/reduce_sum[axes=(0, 1)]" source_file="/home/brent/tensorf-jax/tensorf/training.py" source_line=291}
}

%fused_computation.2 (param_0.12: u32[2], param_1.10: u32[2]) -> (u32[2], u32[2], u32[2]) {
  %param_0.12 = u32[2]{0} parameter(0)
  %param_1.10 = u32[2]{0} parameter(1)
  %concatenate.100 = u32[4]{0} concatenate(u32[2]{0} %param_0.12, u32[2]{0} %param_1.10), dimensions={0}, metadata={op_name="jit(training_step)/jit(main)/concatenate[dimension=0]" source_file="/home/brent/tensorf-jax/tensorf/training.py" source_line=236}
  %bitcast.75 = u32[2,2]{1,0} bitcast(u32[4]{0} %concatenate.100), metadata={op_name="jit(training_step)/jit(main)/reshape[new_sizes=(2, 2) dimensions=None]" source_file="/home/brent/tensorf-jax/tensorf/training.py" source_line=236}
  %slice.274 = u32[1,2]{1,0} slice(u32[2,2]{1,0} %bitcast.75), slice={[1:2], [0:2]}, metadata={op_name="jit(training_step)/jit(main)/slice[start_indices=(1, 0) limit_indices=(2, 2) strides=(1, 1)]" source_file="/home/brent/tensorf-jax/tensorf/training.py" source_line=236}
  %bitcast.74 = u32[2]{0} bitcast(u32[1,2]{1,0} %slice.274), metadata={op_name="jit(training_step)/jit(main)/squeeze[dimensions=(0,)]" source_file="/home/brent/tensorf-jax/tensorf/training.py" source_line=236}
  %slice.358.clone.1 = u32[1]{0} slice(u32[2]{0} %param_0.12), slice={[1:2]}, metadata={op_name="jit(training_step)/jit(main)/jit(jvp(render_rays))/jit(jit_jvp(render_rays))/slice[start_indices=(1,) limit_indices=(2,) strides=(1,)]" source_file="/home/brent/tensorf-jax/tensorf/render.py" source_line=112}
  %bitcast.133.clone.1 = u32[] bitcast(u32[1]{0} %slice.358.clone.1), metadata={op_name="jit(training_step)/jit(main)/jit(jvp(render_rays))/jit(jit_jvp(render_rays))/squeeze[dimensions=(0,)]" source_file="/home/brent/tensorf-jax/tensorf/render.py" source_line=112}
  %broadcast.954.clone.1 = u32[2]{0} broadcast(u32[] %bitcast.133.clone.1), dimensions={}, metadata={op_name="jit(training_step)/jit(main)/jit(jvp(render_rays))/jit(jit_jvp(render_rays))/threefry2x32" source_file="/home/brent/tensorf-jax/tensorf/render.py" source_line=112}
  %slice.360.clone.1 = u32[1]{0} slice(u32[2]{0} %param_0.12), slice={[0:1]}, metadata={op_name="jit(training_step)/jit(main)/jit(jvp(render_rays))/jit(jit_jvp(render_rays))/slice[start_indices=(0,) limit_indices=(1,) strides=(1,)]" source_file="/home/brent/tensorf-jax/tensorf/render.py" source_line=112}
  %bitcast.134.clone.1 = u32[] bitcast(u32[1]{0} %slice.360.clone.1), metadata={op_name="jit(training_step)/jit(main)/jit(jvp(render_rays))/jit(jit_jvp(render_rays))/squeeze[dimensions=(0,)]" source_file="/home/brent/tensorf-jax/tensorf/render.py" source_line=112}
  %broadcast.955.clone.1 = u32[2]{0} broadcast(u32[] %bitcast.134.clone.1), dimensions={}, metadata={op_name="jit(training_step)/jit(main)/jit(jvp(render_rays))/jit(jit_jvp(render_rays))/threefry2x32" source_file="/home/brent/tensorf-jax/tensorf/render.py" source_line=112}
  ROOT %tuple.87 = (u32[2]{0}, u32[2]{0}, u32[2]{0}) tuple(u32[2]{0} %bitcast.74, u32[2]{0} %broadcast.954.clone.1, u32[2]{0} %broadcast.955.clone.1)
}

%fused_computation.3 (param_0.13: f32[3,16,128,128], param_1.967: f32[], param_2.991: f32[], param_3.874: f32[], param_4.627: f32[3,16,128,128], param_5.567: f32[3,16,128,128], param_6.501: f32[3,16,128,128], param_7.433: f32[3,16,128,128]) -> (f32[3,16,128,128], f32[3,16,128,128], f32[3,16,128,128]) {
  %param_0.13 = f32[3,16,128,128]{3,2,1,0} parameter(0)
  %param_5.567 = f32[3,16,128,128]{3,2,1,0} parameter(5)
  %param_6.501 = f32[3,16,128,128]{3,2,1,0} parameter(6)
  %add.491.clone.1 = f32[3,16,128,128]{3,2,1,0} add(f32[3,16,128,128]{3,2,1,0} %param_5.567, f32[3,16,128,128]{3,2,1,0} %param_6.501), metadata={op_name="jit(training_step)/jit(main)/jit(transpose(jvp(render_rays)))/jit(jit_transpose(jvp(render_rays)))/jit(transpose(jvp(interpolate)))/jit(jit_transpose(jvp(interpolate)))/jit(transpose(jvp(vmap(vmap(vmap(_map_coordinates))))))/jit(jit_transpose(jvp(vmap(vmap(vmap(_map_coordinates))))))/add_any" source_file="/home/brent/tensorf-jax/tensorf/tensor_vm.py" source_line=222}
  %constant_478_clone_1 = f32[] constant(0.0100000007)
  %broadcast.799.clone.1 = f32[3,16,128,128]{3,2,1,0} broadcast(f32[] %constant_478_clone_1), dimensions={}, metadata={op_name="jit(training_step)/jit(main)/mul" source_file="/home/brent/miniconda/envs/py38/lib/python3.8/site-packages/optax/_src/transform.py" source_line=81}
  %multiply.241.clone.1 = f32[3,16,128,128]{3,2,1,0} multiply(f32[3,16,128,128]{3,2,1,0} %add.491.clone.1, f32[3,16,128,128]{3,2,1,0} %broadcast.799.clone.1), metadata={op_name="jit(training_step)/jit(main)/mul" source_file="/home/brent/miniconda/envs/py38/lib/python3.8/site-packages/optax/_src/transform.py" source_line=81}
  %param_7.433 = f32[3,16,128,128]{3,2,1,0} parameter(7)
  %constant_479_clone_1 = f32[] constant(0.9)
  %broadcast.798.clone.1 = f32[3,16,128,128]{3,2,1,0} broadcast(f32[] %constant_479_clone_1), dimensions={}, metadata={op_name="jit(training_step)/jit(main)/mul" source_file="/home/brent/miniconda/envs/py38/lib/python3.8/site-packages/optax/_src/transform.py" source_line=81}
  %multiply.240.clone.1 = f32[3,16,128,128]{3,2,1,0} multiply(f32[3,16,128,128]{3,2,1,0} %param_7.433, f32[3,16,128,128]{3,2,1,0} %broadcast.798.clone.1), metadata={op_name="jit(training_step)/jit(main)/mul" source_file="/home/brent/miniconda/envs/py38/lib/python3.8/site-packages/optax/_src/transform.py" source_line=81}
  %add.336.clone.1 = f32[3,16,128,128]{3,2,1,0} add(f32[3,16,128,128]{3,2,1,0} %multiply.241.clone.1, f32[3,16,128,128]{3,2,1,0} %multiply.240.clone.1), metadata={op_name="jit(training_step)/jit(main)/add" source_file="/home/brent/miniconda/envs/py38/lib/python3.8/site-packages/optax/_src/transform.py" source_line=81}
  %param_2.991 = f32[] parameter(2)
  %broadcast.794 = f32[3,16,128,128]{3,2,1,0} broadcast(f32[] %param_2.991), dimensions={}, metadata={op_name="jit(training_step)/jit(main)/div" source_file="/home/brent/miniconda/envs/py38/lib/python3.8/site-packages/optax/_src/transform.py" source_line=87}
  %constant_477_clone_1 = f32[] constant(0.1)
  %broadcast.797.clone.1 = f32[3,16,128,128]{3,2,1,0} broadcast(f32[] %constant_477_clone_1), dimensions={}, metadata={op_name="jit(training_step)/jit(main)/div" source_file="/home/brent/tensorf-jax/tensorf/training.py" source_line=325}
  %multiply.239.clone.1 = f32[3,16,128,128]{3,2,1,0} multiply(f32[3,16,128,128]{3,2,1,0} %add.491.clone.1, f32[3,16,128,128]{3,2,1,0} %broadcast.797.clone.1), metadata={op_name="jit(training_step)/jit(main)/div" source_file="/home/brent/tensorf-jax/tensorf/training.py" source_line=325}
  %multiply.238.clone.1 = f32[3,16,128,128]{3,2,1,0} multiply(f32[3,16,128,128]{3,2,1,0} %multiply.239.clone.1, f32[3,16,128,128]{3,2,1,0} %multiply.239.clone.1), metadata={op_name="jit(training_step)/jit(main)/mul" source_file="/home/brent/miniconda/envs/py38/lib/python3.8/site-packages/optax/_src/transform.py" source_line=81}
  %constant_475_clone_1 = f32[] constant(0.01)
  %broadcast.796.clone.1 = f32[3,16,128,128]{3,2,1,0} broadcast(f32[] %constant_475_clone_1), dimensions={}, metadata={op_name="jit(training_step)/jit(main)/mul" source_file="/home/brent/miniconda/envs/py38/lib/python3.8/site-packages/optax/_src/transform.py" source_line=81}
  %multiply.237.clone.1 = f32[3,16,128,128]{3,2,1,0} multiply(f32[3,16,128,128]{3,2,1,0} %multiply.238.clone.1, f32[3,16,128,128]{3,2,1,0} %broadcast.796.clone.1), metadata={op_name="jit(training_step)/jit(main)/mul" source_file="/home/brent/miniconda/envs/py38/lib/python3.8/site-packages/optax/_src/transform.py" source_line=81}
  %param_4.627 = f32[3,16,128,128]{3,2,1,0} parameter(4)
  %constant_476_clone_1 = f32[] constant(0.99)
  %broadcast.795.clone.1 = f32[3,16,128,128]{3,2,1,0} broadcast(f32[] %constant_476_clone_1), dimensions={}, metadata={op_name="jit(training_step)/jit(main)/mul" source_file="/home/brent/miniconda/envs/py38/lib/python3.8/site-packages/optax/_src/transform.py" source_line=81}
  %multiply.236.clone.1 = f32[3,16,128,128]{3,2,1,0} multiply(f32[3,16,128,128]{3,2,1,0} %param_4.627, f32[3,16,128,128]{3,2,1,0} %broadcast.795.clone.1), metadata={op_name="jit(training_step)/jit(main)/mul" source_file="/home/brent/miniconda/envs/py38/lib/python3.8/site-packages/optax/_src/transform.py" source_line=81}
  %add.335.clone.1 = f32[3,16,128,128]{3,2,1,0} add(f32[3,16,128,128]{3,2,1,0} %multiply.237.clone.1, f32[3,16,128,128]{3,2,1,0} %multiply.236.clone.1), metadata={op_name="jit(training_step)/jit(main)/add" source_file="/home/brent/miniconda/envs/py38/lib/python3.8/site-packages/optax/_src/transform.py" source_line=81}
  %param_1.967 = f32[] parameter(1)
  %broadcast.793 = f32[3,16,128,128]{3,2,1,0} broadcast(f32[] %param_1.967), dimensions={}, metadata={op_name="jit(training_step)/jit(main)/div" source_file="/home/brent/miniconda/envs/py38/lib/python3.8/site-packages/optax/_src/transform.py" source_line=87}
  %divide.24 = f32[3,16,128,128]{3,2,1,0} divide(f32[3,16,128,128]{3,2,1,0} %add.335.clone.1, f32[3,16,128,128]{3,2,1,0} %broadcast.793), metadata={op_name="jit(training_step)/jit(main)/div" source_file="/home/brent/miniconda/envs/py38/lib/python3.8/site-packages/optax/_src/transform.py" source_line=87}
  %sqrt.0 = f32[3,16,128,128]{3,2,1,0} sqrt(f32[3,16,128,128]{3,2,1,0} %divide.24), metadata={op_name="jit(training_step)/jit(main)/sqrt" source_file="/home/brent/miniconda/envs/py38/lib/python3.8/site-packages/optax/_src/transform.py" source_line=302}
  %constant_474 = f32[] constant(1e-08)
  %broadcast.792 = f32[3,16,128,128]{3,2,1,0} broadcast(f32[] %constant_474), dimensions={}, metadata={op_name="jit(training_step)/jit(main)/add" source_file="/home/brent/miniconda/envs/py38/lib/python3.8/site-packages/optax/_src/transform.py" source_line=302}
  %add.334 = f32[3,16,128,128]{3,2,1,0} add(f32[3,16,128,128]{3,2,1,0} %sqrt.0, f32[3,16,128,128]{3,2,1,0} %broadcast.792), metadata={op_name="jit(training_step)/jit(main)/add" source_file="/home/brent/miniconda/envs/py38/lib/python3.8/site-packages/optax/_src/transform.py" source_line=302}
  %multiply.235 = f32[3,16,128,128]{3,2,1,0} multiply(f32[3,16,128,128]{3,2,1,0} %broadcast.794, f32[3,16,128,128]{3,2,1,0} %add.334)
  %divide.23 = f32[3,16,128,128]{3,2,1,0} divide(f32[3,16,128,128]{3,2,1,0} %add.336.clone.1, f32[3,16,128,128]{3,2,1,0} %multiply.235), metadata={op_name="jit(training_step)/jit(main)/div" source_file="/home/brent/miniconda/envs/py38/lib/python3.8/site-packages/optax/_src/transform.py" source_line=302}
  %param_3.874 = f32[] parameter(3)
  %constant_473 = f32[] constant(-0.02)
  %multiply.397 = f32[] multiply(f32[] %param_3.874, f32[] %constant_473), metadata={op_name="jit(training_step)/jit(main)/mul" source_file="/home/brent/tensorf-jax/tensorf/training.py" source_line=347}
  %broadcast.791 = f32[3,16,128,128]{3,2,1,0} broadcast(f32[] %multiply.397), dimensions={}, metadata={op_name="jit(training_step)/jit(main)/mul" source_file="/home/brent/tensorf-jax/tensorf/training.py" source_line=347}
  %multiply.234 = f32[3,16,128,128]{3,2,1,0} multiply(f32[3,16,128,128]{3,2,1,0} %divide.23, f32[3,16,128,128]{3,2,1,0} %broadcast.791), metadata={op_name="jit(training_step)/jit(main)/mul" source_file="/home/brent/tensorf-jax/tensorf/training.py" source_line=347}
  %add.333 = f32[3,16,128,128]{3,2,1,0} add(f32[3,16,128,128]{3,2,1,0} %param_0.13, f32[3,16,128,128]{3,2,1,0} %multiply.234), metadata={op_name="jit(training_step)/jit(main)/add" source_file="/home/brent/miniconda/envs/py38/lib/python3.8/site-packages/optax/_src/update.py" source_line=43}
  ROOT %tuple.46 = (f32[3,16,128,128]{3,2,1,0}, f32[3,16,128,128]{3,2,1,0}, f32[3,16,128,128]{3,2,1,0}) tuple(f32[3,16,128,128]{3,2,1,0} %add.333, f32[3,16,128,128]{3,2,1,0} %add.335.clone.1, f32[3,16,128,128]{3,2,1,0} %add.336.clone.1)
}

%region_24.1622 (Arg_0.1623: f32[], Arg_1.1624: f32[]) -> f32[] {
  %Arg_0.1623 = f32[] parameter(0)
  %Arg_1.1624 = f32[] parameter(1)
  ROOT %add.1625 = f32[] add(f32[] %Arg_0.1623, f32[] %Arg_1.1624), metadata={op_name="add" source_file="/home/brent/tensorf-jax/tensorf/render.py" source_line=452}
}

%input_fused_computation_scatter (param_0.553: f32[3,4096,16,221], param_1.751: f32[3,4096,221], param_2.713: f32[3,4096,221]) -> f32[3,16,128,128] {
  %constant_480 = f32[] constant(0)
  %broadcast.962 = f32[3,16,128,128]{3,2,1,0} broadcast(f32[] %constant_480), dimensions={}, metadata={op_name="jit(training_step)/jit(main)/jit(transpose(jvp(render_rays)))/jit(jit_transpose(jvp(render_rays)))/jit(transpose(jvp(interpolate)))/jit(jit_transpose(jvp(interpolate)))/jit(transpose(jvp(vmap(vmap(vmap(_map_coordinates))))))/jit(jit_transpose(jvp(vmap(vmap(vmap(_map_coordinates))))))/broadcast_in_dim[shape=(3, 16, 128, 128) broadcast_dimensions=()]" source_file="/home/brent/tensorf-jax/tensorf/tensor_vm.py" source_line=222}
  %iota.135 = s32[3,4096,221,1]{2,1,0,3} iota(), iota_dimension=0, metadata={op_name="jit(training_step)/jit(main)/jit(jvp(render_rays))/jit(jit_jvp(render_rays))/jit(jvp(interpolate))/jit(jit_jvp(interpolate))/jit(jvp(vmap(vmap(vmap(_map_coordinates)))))/jit(jit_jvp(vmap(vmap(vmap(_map_coordinates)))))/iota[dtype=int32 shape=(3, 4096, 221, 1) dimension=0]" source_file="/home/brent/tensorf-jax/tensorf/tensor_vm.py" source_line=222}
  %constant_1067 = s32[] constant(0)
  %broadcast.1483 = s32[3,4096,221]{2,1,0} broadcast(s32[] %constant_1067), dimensions={}, metadata={op_name="jit(training_step)/jit(main)/jit(jvp(render_rays))/jit(jit_jvp(render_rays))/jit(jvp(interpolate))/jit(jit_jvp(interpolate))/jit(jvp(vmap(vmap(vmap(_map_coordinates)))))/jit(jit_jvp(vmap(vmap(vmap(_map_coordinates)))))/jit(vmap(vmap(clip)))/jit(jit_vmap(vmap(clip)))/max" source_file="/home/brent/tensorf-jax/tensorf/tensor_vm.py" source_line=222}
  %param_2.713 = f32[3,4096,221]{2,1,0} parameter(2)
  %floor.159 = f32[3,4096,221]{2,1,0} floor(f32[3,4096,221]{2,1,0} %param_2.713), metadata={op_name="jit(training_step)/jit(main)/jit(jvp(render_rays))/jit(jit_jvp(render_rays))/jit(jvp(interpolate))/jit(jit_jvp(interpolate))/jit(jvp(vmap(vmap(vmap(_map_coordinates)))))/jit(jit_jvp(vmap(vmap(vmap(_map_coordinates)))))/floor" source_file="/home/brent/tensorf-jax/tensorf/tensor_vm.py" source_line=222}
  %convert.98 = s32[3,4096,221]{2,1,0} convert(f32[3,4096,221]{2,1,0} %floor.159), metadata={op_name="jit(training_step)/jit(main)/jit(jvp(render_rays))/jit(jit_jvp(render_rays))/jit(jvp(interpolate))/jit(jit_jvp(interpolate))/jit(jvp(vmap(vmap(vmap(_map_coordinates)))))/jit(jit_jvp(vmap(vmap(vmap(_map_coordinates)))))/convert_element_type[new_dtype=int32 weak_type=False]" source_file="/home/brent/tensorf-jax/tensorf/tensor_vm.py" source_line=222}
  %constant_1066 = s32[] constant(127)
  %broadcast.1482 = s32[3,4096,221]{2,1,0} broadcast(s32[] %constant_1066), dimensions={}, metadata={op_name="jit(training_step)/jit(main)/jit(jvp(render_rays))/jit(jit_jvp(render_rays))/jit(jvp(interpolate))/jit(jit_jvp(interpolate))/jit(jvp(vmap(vmap(vmap(_map_coordinates)))))/jit(jit_jvp(vmap(vmap(vmap(_map_coordinates)))))/jit(vmap(vmap(clip)))/jit(jit_vmap(vmap(clip)))/min" source_file="/home/brent/tensorf-jax/tensorf/tensor_vm.py" source_line=222}
  %clamp.87 = s32[3,4096,221]{2,1,0} clamp(s32[3,4096,221]{2,1,0} %broadcast.1483, s32[3,4096,221]{2,1,0} %convert.98, s32[3,4096,221]{2,1,0} %broadcast.1482), metadata={op_name="jit(training_step)/jit(main)/jit(jvp(render_rays))/jit(jit_jvp(render_rays))/jit(jvp(interpolate))/jit(jit_jvp(interpolate))/jit(jvp(vmap(vmap(vmap(_map_coordinates)))))/jit(jit_jvp(vmap(vmap(vmap(_map_coordinates)))))/jit(vmap(vmap(clip)))/jit(jit_vmap(vmap(clip)))/min" source_file="/home/brent/tensorf-jax/tensorf/tensor_vm.py" source_line=222}
  %compare.213 = pred[3,4096,221]{2,1,0} compare(s32[3,4096,221]{2,1,0} %clamp.87, s32[3,4096,221]{2,1,0} %broadcast.1483), direction=LT, metadata={op_name="jit(training_step)/jit(main)/jit(jvp(render_rays))/jit(jit_jvp(render_rays))/jit(jvp(interpolate))/jit(jit_jvp(interpolate))/jit(jvp(vmap(vmap(vmap(_map_coordinates)))))/jit(jit_jvp(vmap(vmap(vmap(_map_coordinates)))))/lt" source_file="/home/brent/tensorf-jax/tensorf/tensor_vm.py" source_line=222}
  %constant_1065 = s32[] constant(128)
  %broadcast.1481 = s32[3,4096,221]{2,1,0} broadcast(s32[] %constant_1065), dimensions={}, metadata={op_name="jit(training_step)/jit(main)/jit(jvp(render_rays))/jit(jit_jvp(render_rays))/jit(jvp(interpolate))/jit(jit_jvp(interpolate))/jit(jvp(vmap(vmap(vmap(_map_coordinates)))))/jit(jit_jvp(vmap(vmap(vmap(_map_coordinates)))))/add" source_file="/home/brent/tensorf-jax/tensorf/tensor_vm.py" source_line=222}
  %add.637 = s32[3,4096,221]{2,1,0} add(s32[3,4096,221]{2,1,0} %clamp.87, s32[3,4096,221]{2,1,0} %broadcast.1481), metadata={op_name="jit(training_step)/jit(main)/jit(jvp(render_rays))/jit(jit_jvp(render_rays))/jit(jvp(interpolate))/jit(jit_jvp(interpolate))/jit(jvp(vmap(vmap(vmap(_map_coordinates)))))/jit(jit_jvp(vmap(vmap(vmap(_map_coordinates)))))/add" source_file="/home/brent/tensorf-jax/tensorf/tensor_vm.py" source_line=222}
  %select.225 = s32[3,4096,221]{2,1,0} select(pred[3,4096,221]{2,1,0} %compare.213, s32[3,4096,221]{2,1,0} %add.637, s32[3,4096,221]{2,1,0} %clamp.87), metadata={op_name="jit(training_step)/jit(main)/jit(jvp(render_rays))/jit(jit_jvp(render_rays))/jit(jvp(interpolate))/jit(jit_jvp(interpolate))/jit(jvp(vmap(vmap(vmap(_map_coordinates)))))/jit(jit_jvp(vmap(vmap(vmap(_map_coordinates)))))/select_n" source_file="/home/brent/tensorf-jax/tensorf/tensor_vm.py" source_line=222}
  %bitcast.212 = s32[3,4096,221,1]{2,1,0,3} bitcast(s32[3,4096,221]{2,1,0} %select.225), metadata={op_name="jit(training_step)/jit(main)/jit(jvp(render_rays))/jit(jit_jvp(render_rays))/jit(jvp(interpolate))/jit(jit_jvp(interpolate))/jit(jvp(vmap(vmap(vmap(_map_coordinates)))))/jit(jit_jvp(vmap(vmap(vmap(_map_coordinates)))))/broadcast_in_dim[shape=(3, 4096, 221, 1) broadcast_dimensions=(0, 1, 2)]" source_file="/home/brent/tensorf-jax/tensorf/tensor_vm.py" source_line=222}
  %param_1.751 = f32[3,4096,221]{2,1,0} parameter(1)
  %floor.158 = f32[3,4096,221]{2,1,0} floor(f32[3,4096,221]{2,1,0} %param_1.751), metadata={op_name="jit(training_step)/jit(main)/jit(jvp(render_rays))/jit(jit_jvp(render_rays))/jit(jvp(interpolate))/jit(jit_jvp(interpolate))/jit(jvp(vmap(vmap(vmap(_map_coordinates)))))/jit(jit_jvp(vmap(vmap(vmap(_map_coordinates)))))/floor" source_file="/home/brent/tensorf-jax/tensorf/tensor_vm.py" source_line=222}
  %convert.97 = s32[3,4096,221]{2,1,0} convert(f32[3,4096,221]{2,1,0} %floor.158), metadata={op_name="jit(training_step)/jit(main)/jit(jvp(render_rays))/jit(jit_jvp(render_rays))/jit(jvp(interpolate))/jit(jit_jvp(interpolate))/jit(jvp(vmap(vmap(vmap(_map_coordinates)))))/jit(jit_jvp(vmap(vmap(vmap(_map_coordinates)))))/convert_element_type[new_dtype=int32 weak_type=False]" source_file="/home/brent/tensorf-jax/tensorf/tensor_vm.py" source_line=222}
  %clamp.86 = s32[3,4096,221]{2,1,0} clamp(s32[3,4096,221]{2,1,0} %broadcast.1483, s32[3,4096,221]{2,1,0} %convert.97, s32[3,4096,221]{2,1,0} %broadcast.1482), metadata={op_name="jit(training_step)/jit(main)/jit(jvp(render_rays))/jit(jit_jvp(render_rays))/jit(jvp(interpolate))/jit(jit_jvp(interpolate))/jit(jvp(vmap(vmap(vmap(_map_coordinates)))))/jit(jit_jvp(vmap(vmap(vmap(_map_coordinates)))))/jit(vmap(vmap(clip)))/jit(jit_vmap(vmap(clip)))/min" source_file="/home/brent/tensorf-jax/tensorf/tensor_vm.py" source_line=222}
  %compare.212 = pred[3,4096,221]{2,1,0} compare(s32[3,4096,221]{2,1,0} %clamp.86, s32[3,4096,221]{2,1,0} %broadcast.1483), direction=LT, metadata={op_name="jit(training_step)/jit(main)/jit(jvp(render_rays))/jit(jit_jvp(render_rays))/jit(jvp(interpolate))/jit(jit_jvp(interpolate))/jit(jvp(vmap(vmap(vmap(_map_coordinates)))))/jit(jit_jvp(vmap(vmap(vmap(_map_coordinates)))))/lt" source_file="/home/brent/tensorf-jax/tensorf/tensor_vm.py" source_line=222}
  %add.636 = s32[3,4096,221]{2,1,0} add(s32[3,4096,221]{2,1,0} %clamp.86, s32[3,4096,221]{2,1,0} %broadcast.1481), metadata={op_name="jit(training_step)/jit(main)/jit(jvp(render_rays))/jit(jit_jvp(render_rays))/jit(jvp(interpolate))/jit(jit_jvp(interpolate))/jit(jvp(vmap(vmap(vmap(_map_coordinates)))))/jit(jit_jvp(vmap(vmap(vmap(_map_coordinates)))))/add" source_file="/home/brent/tensorf-jax/tensorf/tensor_vm.py" source_line=222}
  %select.224 = s32[3,4096,221]{2,1,0} select(pred[3,4096,221]{2,1,0} %compare.212, s32[3,4096,221]{2,1,0} %add.636, s32[3,4096,221]{2,1,0} %clamp.86), metadata={op_name="jit(training_step)/jit(main)/jit(jvp(render_rays))/jit(jit_jvp(render_rays))/jit(jvp(interpolate))/jit(jit_jvp(interpolate))/jit(jvp(vmap(vmap(vmap(_map_coordinates)))))/jit(jit_jvp(vmap(vmap(vmap(_map_coordinates)))))/select_n" source_file="/home/brent/tensorf-jax/tensorf/tensor_vm.py" source_line=222}
  %bitcast.211 = s32[3,4096,221,1]{2,1,0,3} bitcast(s32[3,4096,221]{2,1,0} %select.224), metadata={op_name="jit(training_step)/jit(main)/jit(jvp(render_rays))/jit(jit_jvp(render_rays))/jit(jvp(interpolate))/jit(jit_jvp(interpolate))/jit(jvp(vmap(vmap(vmap(_map_coordinates)))))/jit(jit_jvp(vmap(vmap(vmap(_map_coordinates)))))/broadcast_in_dim[shape=(3, 4096, 221, 1) broadcast_dimensions=(0, 1, 2)]" source_file="/home/brent/tensorf-jax/tensorf/tensor_vm.py" source_line=222}
  %concatenate.174 = s32[3,4096,221,3]{2,1,0,3} concatenate(s32[3,4096,221,1]{2,1,0,3} %iota.135, s32[3,4096,221,1]{2,1,0,3} %bitcast.212, s32[3,4096,221,1]{2,1,0,3} %bitcast.211), dimensions={3}, metadata={op_name="jit(training_step)/jit(main)/jit(jvp(render_rays))/jit(jit_jvp(render_rays))/jit(jvp(interpolate))/jit(jit_jvp(interpolate))/jit(jvp(vmap(vmap(vmap(_map_coordinates)))))/jit(jit_jvp(vmap(vmap(vmap(_map_coordinates)))))/concatenate[dimension=3]" source_file="/home/brent/tensorf-jax/tensorf/tensor_vm.py" source_line=222}
  %copy.19 = s32[3,4096,221,3]{3,2,1,0} copy(s32[3,4096,221,3]{2,1,0,3} %concatenate.174), metadata={op_name="jit(training_step)/jit(main)/jit(jvp(render_rays))/jit(jit_jvp(render_rays))/jit(jvp(interpolate))/jit(jit_jvp(interpolate))/jit(jvp(vmap(vmap(vmap(_map_coordinates)))))/jit(jit_jvp(vmap(vmap(vmap(_map_coordinates)))))/concatenate[dimension=3]" source_file="/home/brent/tensorf-jax/tensorf/tensor_vm.py" source_line=222}
  %constant_1033 = f32[] constant(1)
  %broadcast.1459 = f32[3,4096,221]{2,1,0} broadcast(f32[] %constant_1033), dimensions={}, metadata={op_name="jit(training_step)/jit(main)/jit(jvp(render_rays))/jit(jit_jvp(render_rays))/jit(jvp(interpolate))/jit(jit_jvp(interpolate))/jit(jvp(vmap(vmap(vmap(_map_coordinates)))))/jit(jit_jvp(vmap(vmap(vmap(_map_coordinates)))))/sub" source_file="/home/brent/tensorf-jax/tensorf/tensor_vm.py" source_line=222}
  %subtract.184 = f32[3,4096,221]{2,1,0} subtract(f32[3,4096,221]{2,1,0} %param_2.713, f32[3,4096,221]{2,1,0} %floor.159), metadata={op_name="jit(training_step)/jit(main)/jit(jvp(render_rays))/jit(jit_jvp(render_rays))/jit(jvp(interpolate))/jit(jit_jvp(interpolate))/jit(jvp(vmap(vmap(vmap(_map_coordinates)))))/jit(jit_jvp(vmap(vmap(vmap(_map_coordinates)))))/sub" source_file="/home/brent/tensorf-jax/tensorf/tensor_vm.py" source_line=222}
  %subtract.183 = f32[3,4096,221]{2,1,0} subtract(f32[3,4096,221]{2,1,0} %broadcast.1459, f32[3,4096,221]{2,1,0} %subtract.184), metadata={op_name="jit(training_step)/jit(main)/jit(jvp(render_rays))/jit(jit_jvp(render_rays))/jit(jvp(interpolate))/jit(jit_jvp(interpolate))/jit(jvp(vmap(vmap(vmap(_map_coordinates)))))/jit(jit_jvp(vmap(vmap(vmap(_map_coordinates)))))/sub" source_file="/home/brent/tensorf-jax/tensorf/tensor_vm.py" source_line=222}
  %subtract.182 = f32[3,4096,221]{2,1,0} subtract(f32[3,4096,221]{2,1,0} %param_1.751, f32[3,4096,221]{2,1,0} %floor.158), metadata={op_name="jit(training_step)/jit(main)/jit(jvp(render_rays))/jit(jit_jvp(render_rays))/jit(jvp(interpolate))/jit(jit_jvp(interpolate))/jit(jvp(vmap(vmap(vmap(_map_coordinates)))))/jit(jit_jvp(vmap(vmap(vmap(_map_coordinates)))))/sub" source_file="/home/brent/tensorf-jax/tensorf/tensor_vm.py" source_line=222}
  %subtract.181 = f32[3,4096,221]{2,1,0} subtract(f32[3,4096,221]{2,1,0} %broadcast.1459, f32[3,4096,221]{2,1,0} %subtract.182), metadata={op_name="jit(training_step)/jit(main)/jit(jvp(render_rays))/jit(jit_jvp(render_rays))/jit(jvp(interpolate))/jit(jit_jvp(interpolate))/jit(jvp(vmap(vmap(vmap(_map_coordinates)))))/jit(jit_jvp(vmap(vmap(vmap(_map_coordinates)))))/sub" source_file="/home/brent/tensorf-jax/tensorf/tensor_vm.py" source_line=222}
  %multiply.449 = f32[3,4096,221]{2,1,0} multiply(f32[3,4096,221]{2,1,0} %subtract.183, f32[3,4096,221]{2,1,0} %subtract.181), metadata={op_name="jit(training_step)/jit(main)/jit(jvp(render_rays))/jit(jit_jvp(render_rays))/jit(jvp(interpolate))/jit(jit_jvp(interpolate))/jit(jvp(vmap(vmap(vmap(_map_coordinates)))))/jit(jit_jvp(vmap(vmap(vmap(_map_coordinates)))))/mul" source_file="/home/brent/tensorf-jax/tensorf/tensor_vm.py" source_line=222}
  %broadcast.1458 = f32[3,4096,16,221]{3,2,1,0} broadcast(f32[3,4096,221]{2,1,0} %multiply.449), dimensions={0,1,3}, metadata={op_name="jit(training_step)/jit(main)/jit(jvp(render_rays))/jit(jit_jvp(render_rays))/jit(jvp(interpolate))/jit(jit_jvp(interpolate))/jit(jvp(vmap(vmap(vmap(_map_coordinates)))))/jit(jit_jvp(vmap(vmap(vmap(_map_coordinates)))))/mul" source_file="/home/brent/tensorf-jax/tensorf/tensor_vm.py" source_line=222}
  %param_0.553 = f32[3,4096,16,221]{3,2,1,0} parameter(0)
  %multiply.242 = f32[3,4096,16,221]{3,2,1,0} multiply(f32[3,4096,16,221]{3,2,1,0} %broadcast.1458, f32[3,4096,16,221]{3,2,1,0} %param_0.553), metadata={op_name="jit(training_step)/jit(main)/jit(transpose(jvp(render_rays)))/jit(jit_transpose(jvp(render_rays)))/jit(transpose(jvp(interpolate)))/jit(jit_transpose(jvp(interpolate)))/jit(transpose(jvp(vmap(vmap(vmap(_map_coordinates))))))/jit(jit_transpose(jvp(vmap(vmap(vmap(_map_coordinates))))))/mul" source_file="/home/brent/tensorf-jax/tensorf/tensor_vm.py" source_line=222}
  ROOT %scatter.42 = f32[3,16,128,128]{3,2,1,0} scatter(f32[3,16,128,128]{3,2,1,0} %broadcast.962, s32[3,4096,221,3]{3,2,1,0} %copy.19, f32[3,4096,16,221]{3,2,1,0} %multiply.242), update_window_dims={2}, inserted_window_dims={0,2,3}, scatter_dims_to_operand_dims={0,2,3}, index_vector_dim=3, to_apply=%region_24.1622, metadata={op_name="jit(training_step)/jit(main)/jit(transpose(jvp(render_rays)))/jit(jit_transpose(jvp(render_rays)))/jit(transpose(jvp(interpolate)))/jit(jit_transpose(jvp(interpolate)))/jit(transpose(jvp(vmap(vmap(vmap(_map_coordinates))))))/jit(jit_transpose(jvp(vmap(vmap(vmap(_map_coordinates))))))/scatter-add[update_consts=() dimension_numbers=ScatterDimensionNumbers(update_window_dims=(2,), inserted_window_dims=(0, 2, 3), scatter_dims_to_operand_dims=(0, 2, 3)) indices_are_sorted=False unique_indices=False mode=GatherScatterMode.PROMISE_IN_BOUNDS]" source_file="/home/brent/tensorf-jax/tensorf/tensor_vm.py" source_line=222}
}

%region_23.1618 (Arg_0.1619: f32[], Arg_1.1620: f32[]) -> f32[] {
  %Arg_0.1619 = f32[] parameter(0)
  %Arg_1.1620 = f32[] parameter(1)
  ROOT %add.1621 = f32[] add(f32[] %Arg_0.1619, f32[] %Arg_1.1620), metadata={op_name="add" source_file="/home/brent/tensorf-jax/tensorf/render.py" source_line=452}
}

%input_fused_computation_scatter.1 (param_0.550: f32[3,4096,16,221], param_1.743: f32[3,16,128,128], param_2.706: f32[3,16,128,128], param_3.569: f32[3,4096,221], param_4.322: f32[3,4096,221]) -> f32[3,16,128,128] {
  %param_1.743 = f32[3,16,128,128]{3,2,1,0} parameter(1)
  %param_2.706 = f32[3,16,128,128]{3,2,1,0} parameter(2)
  %add.337 = f32[3,16,128,128]{3,2,1,0} add(f32[3,16,128,128]{3,2,1,0} %param_1.743, f32[3,16,128,128]{3,2,1,0} %param_2.706), metadata={op_name="jit(training_step)/jit(main)/jit(transpose(jvp(render_rays)))/jit(jit_transpose(jvp(render_rays)))/jit(transpose(jvp(interpolate)))/jit(jit_transpose(jvp(interpolate)))/jit(transpose(jvp(vmap(vmap(vmap(_map_coordinates))))))/jit(jit_transpose(jvp(vmap(vmap(vmap(_map_coordinates))))))/add_any" source_file="/home/brent/tensorf-jax/tensorf/tensor_vm.py" source_line=222}
  %iota.131 = s32[3,4096,221,1]{3,2,1,0} iota(), iota_dimension=0, metadata={op_name="jit(training_step)/jit(main)/jit(jvp(render_rays))/jit(jit_jvp(render_rays))/jit(jvp(interpolate))/jit(jit_jvp(interpolate))/jit(jvp(vmap(vmap(vmap(_map_coordinates)))))/jit(jit_jvp(vmap(vmap(vmap(_map_coordinates)))))/iota[dtype=int32 shape=(3, 4096, 221, 1) dimension=0]" source_file="/home/brent/tensorf-jax/tensorf/tensor_vm.py" source_line=222}
  %constant_1014 = s32[] constant(0)
  %broadcast.1451 = s32[3,4096,221]{2,1,0} broadcast(s32[] %constant_1014), dimensions={}, metadata={op_name="jit(training_step)/jit(main)/jit(jvp(render_rays))/jit(jit_jvp(render_rays))/jit(jvp(interpolate))/jit(jit_jvp(interpolate))/jit(jvp(vmap(vmap(vmap(_map_coordinates)))))/jit(jit_jvp(vmap(vmap(vmap(_map_coordinates)))))/jit(vmap(vmap(clip)))/jit(jit_vmap(vmap(clip)))/max" source_file="/home/brent/tensorf-jax/tensorf/tensor_vm.py" source_line=222}
  %param_4.322 = f32[3,4096,221]{2,1,0} parameter(4)
  %floor.143 = f32[3,4096,221]{2,1,0} floor(f32[3,4096,221]{2,1,0} %param_4.322), metadata={op_name="jit(training_step)/jit(main)/jit(jvp(render_rays))/jit(jit_jvp(render_rays))/jit(jvp(interpolate))/jit(jit_jvp(interpolate))/jit(jvp(vmap(vmap(vmap(_map_coordinates)))))/jit(jit_jvp(vmap(vmap(vmap(_map_coordinates)))))/floor" source_file="/home/brent/tensorf-jax/tensorf/tensor_vm.py" source_line=222}
  %convert.90 = s32[3,4096,221]{2,1,0} convert(f32[3,4096,221]{2,1,0} %floor.143), metadata={op_name="jit(training_step)/jit(main)/jit(jvp(render_rays))/jit(jit_jvp(render_rays))/jit(jvp(interpolate))/jit(jit_jvp(interpolate))/jit(jvp(vmap(vmap(vmap(_map_coordinates)))))/jit(jit_jvp(vmap(vmap(vmap(_map_coordinates)))))/convert_element_type[new_dtype=int32 weak_type=False]" source_file="/home/brent/tensorf-jax/tensorf/tensor_vm.py" source_line=222}
  %constant_1010 = s32[] constant(127)
  %broadcast.1450 = s32[3,4096,221]{2,1,0} broadcast(s32[] %constant_1010), dimensions={}, metadata={op_name="jit(training_step)/jit(main)/jit(jvp(render_rays))/jit(jit_jvp(render_rays))/jit(jvp(interpolate))/jit(jit_jvp(interpolate))/jit(jvp(vmap(vmap(vmap(_map_coordinates)))))/jit(jit_jvp(vmap(vmap(vmap(_map_coordinates)))))/jit(vmap(vmap(clip)))/jit(jit_vmap(vmap(clip)))/min" source_file="/home/brent/tensorf-jax/tensorf/tensor_vm.py" source_line=222}
  %clamp.79 = s32[3,4096,221]{2,1,0} clamp(s32[3,4096,221]{2,1,0} %broadcast.1451, s32[3,4096,221]{2,1,0} %convert.90, s32[3,4096,221]{2,1,0} %broadcast.1450), metadata={op_name="jit(training_step)/jit(main)/jit(jvp(render_rays))/jit(jit_jvp(render_rays))/jit(jvp(interpolate))/jit(jit_jvp(interpolate))/jit(jvp(vmap(vmap(vmap(_map_coordinates)))))/jit(jit_jvp(vmap(vmap(vmap(_map_coordinates)))))/jit(vmap(vmap(clip)))/jit(jit_vmap(vmap(clip)))/min" source_file="/home/brent/tensorf-jax/tensorf/tensor_vm.py" source_line=222}
  %compare.205 = pred[3,4096,221]{2,1,0} compare(s32[3,4096,221]{2,1,0} %clamp.79, s32[3,4096,221]{2,1,0} %broadcast.1451), direction=LT, metadata={op_name="jit(training_step)/jit(main)/jit(jvp(render_rays))/jit(jit_jvp(render_rays))/jit(jvp(interpolate))/jit(jit_jvp(interpolate))/jit(jvp(vmap(vmap(vmap(_map_coordinates)))))/jit(jit_jvp(vmap(vmap(vmap(_map_coordinates)))))/lt" source_file="/home/brent/tensorf-jax/tensorf/tensor_vm.py" source_line=222}
  %constant_1008 = s32[] constant(128)
  %broadcast.1449 = s32[3,4096,221]{2,1,0} broadcast(s32[] %constant_1008), dimensions={}, metadata={op_name="jit(training_step)/jit(main)/jit(jvp(render_rays))/jit(jit_jvp(render_rays))/jit(jvp(interpolate))/jit(jit_jvp(interpolate))/jit(jvp(vmap(vmap(vmap(_map_coordinates)))))/jit(jit_jvp(vmap(vmap(vmap(_map_coordinates)))))/add" source_file="/home/brent/tensorf-jax/tensorf/tensor_vm.py" source_line=222}
  %add.629 = s32[3,4096,221]{2,1,0} add(s32[3,4096,221]{2,1,0} %clamp.79, s32[3,4096,221]{2,1,0} %broadcast.1449), metadata={op_name="jit(training_step)/jit(main)/jit(jvp(render_rays))/jit(jit_jvp(render_rays))/jit(jvp(interpolate))/jit(jit_jvp(interpolate))/jit(jvp(vmap(vmap(vmap(_map_coordinates)))))/jit(jit_jvp(vmap(vmap(vmap(_map_coordinates)))))/add" source_file="/home/brent/tensorf-jax/tensorf/tensor_vm.py" source_line=222}
  %select.217 = s32[3,4096,221]{2,1,0} select(pred[3,4096,221]{2,1,0} %compare.205, s32[3,4096,221]{2,1,0} %add.629, s32[3,4096,221]{2,1,0} %clamp.79), metadata={op_name="jit(training_step)/jit(main)/jit(jvp(render_rays))/jit(jit_jvp(render_rays))/jit(jvp(interpolate))/jit(jit_jvp(interpolate))/jit(jvp(vmap(vmap(vmap(_map_coordinates)))))/jit(jit_jvp(vmap(vmap(vmap(_map_coordinates)))))/select_n" source_file="/home/brent/tensorf-jax/tensorf/tensor_vm.py" source_line=222}
  %bitcast.204 = s32[3,4096,221,1]{3,2,1,0} bitcast(s32[3,4096,221]{2,1,0} %select.217), metadata={op_name="jit(training_step)/jit(main)/jit(jvp(render_rays))/jit(jit_jvp(render_rays))/jit(jvp(interpolate))/jit(jit_jvp(interpolate))/jit(jvp(vmap(vmap(vmap(_map_coordinates)))))/jit(jit_jvp(vmap(vmap(vmap(_map_coordinates)))))/broadcast_in_dim[shape=(3, 4096, 221, 1) broadcast_dimensions=(0, 1, 2)]" source_file="/home/brent/tensorf-jax/tensorf/tensor_vm.py" source_line=222}
  %param_3.569 = f32[3,4096,221]{2,1,0} parameter(3)
  %floor.142 = f32[3,4096,221]{2,1,0} floor(f32[3,4096,221]{2,1,0} %param_3.569), metadata={op_name="jit(training_step)/jit(main)/jit(jvp(render_rays))/jit(jit_jvp(render_rays))/jit(jvp(interpolate))/jit(jit_jvp(interpolate))/jit(jvp(vmap(vmap(vmap(_map_coordinates)))))/jit(jit_jvp(vmap(vmap(vmap(_map_coordinates)))))/floor" source_file="/home/brent/tensorf-jax/tensorf/tensor_vm.py" source_line=222}
  %convert.89 = s32[3,4096,221]{2,1,0} convert(f32[3,4096,221]{2,1,0} %floor.142), metadata={op_name="jit(training_step)/jit(main)/jit(jvp(render_rays))/jit(jit_jvp(render_rays))/jit(jvp(interpolate))/jit(jit_jvp(interpolate))/jit(jvp(vmap(vmap(vmap(_map_coordinates)))))/jit(jit_jvp(vmap(vmap(vmap(_map_coordinates)))))/convert_element_type[new_dtype=int32 weak_type=False]" source_file="/home/brent/tensorf-jax/tensorf/tensor_vm.py" source_line=222}
  %constant_1012 = s32[] constant(1)
  %broadcast.1447 = s32[3,4096,221]{2,1,0} broadcast(s32[] %constant_1012), dimensions={}, metadata={op_name="jit(training_step)/jit(main)/jit(jvp(render_rays))/jit(jit_jvp(render_rays))/jit(jvp(interpolate))/jit(jit_jvp(interpolate))/jit(jvp(vmap(vmap(vmap(_map_coordinates)))))/jit(jit_jvp(vmap(vmap(vmap(_map_coordinates)))))/add" source_file="/home/brent/tensorf-jax/tensorf/tensor_vm.py" source_line=222}
  %add.628 = s32[3,4096,221]{2,1,0} add(s32[3,4096,221]{2,1,0} %convert.89, s32[3,4096,221]{2,1,0} %broadcast.1447), metadata={op_name="jit(training_step)/jit(main)/jit(jvp(render_rays))/jit(jit_jvp(render_rays))/jit(jvp(interpolate))/jit(jit_jvp(interpolate))/jit(jvp(vmap(vmap(vmap(_map_coordinates)))))/jit(jit_jvp(vmap(vmap(vmap(_map_coordinates)))))/add" source_file="/home/brent/tensorf-jax/tensorf/tensor_vm.py" source_line=222}
  %clamp.78 = s32[3,4096,221]{2,1,0} clamp(s32[3,4096,221]{2,1,0} %broadcast.1451, s32[3,4096,221]{2,1,0} %add.628, s32[3,4096,221]{2,1,0} %broadcast.1450), metadata={op_name="jit(training_step)/jit(main)/jit(jvp(render_rays))/jit(jit_jvp(render_rays))/jit(jvp(interpolate))/jit(jit_jvp(interpolate))/jit(jvp(vmap(vmap(vmap(_map_coordinates)))))/jit(jit_jvp(vmap(vmap(vmap(_map_coordinates)))))/jit(vmap(vmap(clip)))/jit(jit_vmap(vmap(clip)))/min" source_file="/home/brent/tensorf-jax/tensorf/tensor_vm.py" source_line=222}
  %compare.204 = pred[3,4096,221]{2,1,0} compare(s32[3,4096,221]{2,1,0} %clamp.78, s32[3,4096,221]{2,1,0} %broadcast.1451), direction=LT, metadata={op_name="jit(training_step)/jit(main)/jit(jvp(render_rays))/jit(jit_jvp(render_rays))/jit(jvp(interpolate))/jit(jit_jvp(interpolate))/jit(jvp(vmap(vmap(vmap(_map_coordinates)))))/jit(jit_jvp(vmap(vmap(vmap(_map_coordinates)))))/lt" source_file="/home/brent/tensorf-jax/tensorf/tensor_vm.py" source_line=222}
  %add.627 = s32[3,4096,221]{2,1,0} add(s32[3,4096,221]{2,1,0} %clamp.78, s32[3,4096,221]{2,1,0} %broadcast.1449), metadata={op_name="jit(training_step)/jit(main)/jit(jvp(render_rays))/jit(jit_jvp(render_rays))/jit(jvp(interpolate))/jit(jit_jvp(interpolate))/jit(jvp(vmap(vmap(vmap(_map_coordinates)))))/jit(jit_jvp(vmap(vmap(vmap(_map_coordinates)))))/add" source_file="/home/brent/tensorf-jax/tensorf/tensor_vm.py" source_line=222}
  %select.216 = s32[3,4096,221]{2,1,0} select(pred[3,4096,221]{2,1,0} %compare.204, s32[3,4096,221]{2,1,0} %add.627, s32[3,4096,221]{2,1,0} %clamp.78), metadata={op_name="jit(training_step)/jit(main)/jit(jvp(render_rays))/jit(jit_jvp(render_rays))/jit(jvp(interpolate))/jit(jit_jvp(interpolate))/jit(jvp(vmap(vmap(vmap(_map_coordinates)))))/jit(jit_jvp(vmap(vmap(vmap(_map_coordinates)))))/select_n" source_file="/home/brent/tensorf-jax/tensorf/tensor_vm.py" source_line=222}
  %bitcast.203 = s32[3,4096,221,1]{3,2,1,0} bitcast(s32[3,4096,221]{2,1,0} %select.216), metadata={op_name="jit(training_step)/jit(main)/jit(jvp(render_rays))/jit(jit_jvp(render_rays))/jit(jvp(interpolate))/jit(jit_jvp(interpolate))/jit(jvp(vmap(vmap(vmap(_map_coordinates)))))/jit(jit_jvp(vmap(vmap(vmap(_map_coordinates)))))/broadcast_in_dim[shape=(3, 4096, 221, 1) broadcast_dimensions=(0, 1, 2)]" source_file="/home/brent/tensorf-jax/tensorf/tensor_vm.py" source_line=222}
  %concatenate.170 = s32[3,4096,221,3]{3,2,1,0} concatenate(s32[3,4096,221,1]{3,2,1,0} %iota.131, s32[3,4096,221,1]{3,2,1,0} %bitcast.204, s32[3,4096,221,1]{3,2,1,0} %bitcast.203), dimensions={3}, metadata={op_name="jit(training_step)/jit(main)/jit(jvp(render_rays))/jit(jit_jvp(render_rays))/jit(jvp(interpolate))/jit(jit_jvp(interpolate))/jit(jvp(vmap(vmap(vmap(_map_coordinates)))))/jit(jit_jvp(vmap(vmap(vmap(_map_coordinates)))))/concatenate[dimension=3]" source_file="/home/brent/tensorf-jax/tensorf/tensor_vm.py" source_line=222}
  %constant_956 = f32[] constant(1)
  %broadcast.1411 = f32[3,4096,221]{2,1,0} broadcast(f32[] %constant_956), dimensions={}, metadata={op_name="jit(training_step)/jit(main)/jit(jvp(render_rays))/jit(jit_jvp(render_rays))/jit(jvp(interpolate))/jit(jit_jvp(interpolate))/jit(jvp(vmap(vmap(vmap(_map_coordinates)))))/jit(jit_jvp(vmap(vmap(vmap(_map_coordinates)))))/sub" source_file="/home/brent/tensorf-jax/tensorf/tensor_vm.py" source_line=222}
  %subtract.168 = f32[3,4096,221]{2,1,0} subtract(f32[3,4096,221]{2,1,0} %param_4.322, f32[3,4096,221]{2,1,0} %floor.143), metadata={op_name="jit(training_step)/jit(main)/jit(jvp(render_rays))/jit(jit_jvp(render_rays))/jit(jvp(interpolate))/jit(jit_jvp(interpolate))/jit(jvp(vmap(vmap(vmap(_map_coordinates)))))/jit(jit_jvp(vmap(vmap(vmap(_map_coordinates)))))/sub" source_file="/home/brent/tensorf-jax/tensorf/tensor_vm.py" source_line=222}
  %subtract.167 = f32[3,4096,221]{2,1,0} subtract(f32[3,4096,221]{2,1,0} %broadcast.1411, f32[3,4096,221]{2,1,0} %subtract.168), metadata={op_name="jit(training_step)/jit(main)/jit(jvp(render_rays))/jit(jit_jvp(render_rays))/jit(jvp(interpolate))/jit(jit_jvp(interpolate))/jit(jvp(vmap(vmap(vmap(_map_coordinates)))))/jit(jit_jvp(vmap(vmap(vmap(_map_coordinates)))))/sub" source_file="/home/brent/tensorf-jax/tensorf/tensor_vm.py" source_line=222}
  %subtract.166 = f32[3,4096,221]{2,1,0} subtract(f32[3,4096,221]{2,1,0} %param_3.569, f32[3,4096,221]{2,1,0} %floor.142), metadata={op_name="jit(training_step)/jit(main)/jit(jvp(render_rays))/jit(jit_jvp(render_rays))/jit(jvp(interpolate))/jit(jit_jvp(interpolate))/jit(jvp(vmap(vmap(vmap(_map_coordinates)))))/jit(jit_jvp(vmap(vmap(vmap(_map_coordinates)))))/sub" source_file="/home/brent/tensorf-jax/tensorf/tensor_vm.py" source_line=222}
  %multiply.444 = f32[3,4096,221]{2,1,0} multiply(f32[3,4096,221]{2,1,0} %subtract.167, f32[3,4096,221]{2,1,0} %subtract.166), metadata={op_name="jit(training_step)/jit(main)/jit(jvp(render_rays))/jit(jit_jvp(render_rays))/jit(jvp(interpolate))/jit(jit_jvp(interpolate))/jit(jvp(vmap(vmap(vmap(_map_coordinates)))))/jit(jit_jvp(vmap(vmap(vmap(_map_coordinates)))))/mul" source_file="/home/brent/tensorf-jax/tensorf/tensor_vm.py" source_line=222}
  %broadcast.1410 = f32[3,4096,16,221]{3,2,1,0} broadcast(f32[3,4096,221]{2,1,0} %multiply.444), dimensions={0,1,3}, metadata={op_name="jit(training_step)/jit(main)/jit(jvp(render_rays))/jit(jit_jvp(render_rays))/jit(jvp(interpolate))/jit(jit_jvp(interpolate))/jit(jvp(vmap(vmap(vmap(_map_coordinates)))))/jit(jit_jvp(vmap(vmap(vmap(_map_coordinates)))))/mul" source_file="/home/brent/tensorf-jax/tensorf/tensor_vm.py" source_line=222}
  %param_0.550 = f32[3,4096,16,221]{3,2,1,0} parameter(0)
  %multiply.243 = f32[3,4096,16,221]{3,2,1,0} multiply(f32[3,4096,16,221]{3,2,1,0} %broadcast.1410, f32[3,4096,16,221]{3,2,1,0} %param_0.550), metadata={op_name="jit(training_step)/jit(main)/jit(transpose(jvp(render_rays)))/jit(jit_transpose(jvp(render_rays)))/jit(transpose(jvp(interpolate)))/jit(jit_transpose(jvp(interpolate)))/jit(transpose(jvp(vmap(vmap(vmap(_map_coordinates))))))/jit(jit_transpose(jvp(vmap(vmap(vmap(_map_coordinates))))))/mul" source_file="/home/brent/tensorf-jax/tensorf/tensor_vm.py" source_line=222}
  ROOT %scatter.43 = f32[3,16,128,128]{3,2,1,0} scatter(f32[3,16,128,128]{3,2,1,0} %add.337, s32[3,4096,221,3]{3,2,1,0} %concatenate.170, f32[3,4096,16,221]{3,2,1,0} %multiply.243), update_window_dims={2}, inserted_window_dims={0,2,3}, scatter_dims_to_operand_dims={0,2,3}, index_vector_dim=3, to_apply=%region_23.1618, metadata={op_name="jit(training_step)/jit(main)/jit(transpose(jvp(render_rays)))/jit(jit_transpose(jvp(render_rays)))/jit(transpose(jvp(interpolate)))/jit(jit_transpose(jvp(interpolate)))/jit(transpose(jvp(vmap(vmap(vmap(_map_coordinates))))))/jit(jit_transpose(jvp(vmap(vmap(vmap(_map_coordinates))))))/scatter-add[update_consts=() dimension_numbers=ScatterDimensionNumbers(update_window_dims=(2,), inserted_window_dims=(0, 2, 3), scatter_dims_to_operand_dims=(0, 2, 3)) indices_are_sorted=False unique_indices=False mode=GatherScatterMode.PROMISE_IN_BOUNDS]" source_file="/home/brent/tensorf-jax/tensorf/tensor_vm.py" source_line=222}
}

%region_22.1614 (Arg_0.1615: f32[], Arg_1.1616: f32[]) -> f32[] {
  %Arg_0.1615 = f32[] parameter(0)
  %Arg_1.1616 = f32[] parameter(1)
  ROOT %add.1617 = f32[] add(f32[] %Arg_0.1615, f32[] %Arg_1.1616), metadata={op_name="add" source_file="/home/brent/tensorf-jax/tensorf/render.py" source_line=452}
}

%input_fused_computation_scatter.2 (param_0.535: f32[3,4096,16,221], param_1.727: f32[3,4096,221], param_2.688: f32[3,4096,221]) -> f32[3,16,128,128] {
  %constant_481 = f32[] constant(0)
  %broadcast.963 = f32[3,16,128,128]{3,2,1,0} broadcast(f32[] %constant_481), dimensions={}, metadata={op_name="jit(training_step)/jit(main)/jit(transpose(jvp(render_rays)))/jit(jit_transpose(jvp(render_rays)))/jit(transpose(jvp(interpolate)))/jit(jit_transpose(jvp(interpolate)))/jit(transpose(jvp(vmap(vmap(vmap(_map_coordinates))))))/jit(jit_transpose(jvp(vmap(vmap(vmap(_map_coordinates))))))/broadcast_in_dim[shape=(3, 16, 128, 128) broadcast_dimensions=()]" source_file="/home/brent/tensorf-jax/tensorf/tensor_vm.py" source_line=222}
  %iota.127 = s32[3,4096,221,1]{2,1,0,3} iota(), iota_dimension=0, metadata={op_name="jit(training_step)/jit(main)/jit(jvp(render_rays))/jit(jit_jvp(render_rays))/jit(jvp(interpolate))/jit(jit_jvp(interpolate))/jit(jvp(vmap(vmap(vmap(_map_coordinates)))))/jit(jit_jvp(vmap(vmap(vmap(_map_coordinates)))))/iota[dtype=int32 shape=(3, 4096, 221, 1) dimension=0]" source_file="/home/brent/tensorf-jax/tensorf/tensor_vm.py" source_line=222}
  %constant_946 = s32[] constant(0)
  %broadcast.1403 = s32[3,4096,221]{2,1,0} broadcast(s32[] %constant_946), dimensions={}, metadata={op_name="jit(training_step)/jit(main)/jit(jvp(render_rays))/jit(jit_jvp(render_rays))/jit(jvp(interpolate))/jit(jit_jvp(interpolate))/jit(jvp(vmap(vmap(vmap(_map_coordinates)))))/jit(jit_jvp(vmap(vmap(vmap(_map_coordinates)))))/jit(vmap(vmap(clip)))/jit(jit_vmap(vmap(clip)))/max" source_file="/home/brent/tensorf-jax/tensorf/tensor_vm.py" source_line=222}
  %param_2.688 = f32[3,4096,221]{2,1,0} parameter(2)
  %floor.123 = f32[3,4096,221]{2,1,0} floor(f32[3,4096,221]{2,1,0} %param_2.688), metadata={op_name="jit(training_step)/jit(main)/jit(jvp(render_rays))/jit(jit_jvp(render_rays))/jit(jvp(interpolate))/jit(jit_jvp(interpolate))/jit(jvp(vmap(vmap(vmap(_map_coordinates)))))/jit(jit_jvp(vmap(vmap(vmap(_map_coordinates)))))/floor" source_file="/home/brent/tensorf-jax/tensorf/tensor_vm.py" source_line=222}
  %convert.78 = s32[3,4096,221]{2,1,0} convert(f32[3,4096,221]{2,1,0} %floor.123), metadata={op_name="jit(training_step)/jit(main)/jit(jvp(render_rays))/jit(jit_jvp(render_rays))/jit(jvp(interpolate))/jit(jit_jvp(interpolate))/jit(jvp(vmap(vmap(vmap(_map_coordinates)))))/jit(jit_jvp(vmap(vmap(vmap(_map_coordinates)))))/convert_element_type[new_dtype=int32 weak_type=False]" source_file="/home/brent/tensorf-jax/tensorf/tensor_vm.py" source_line=222}
  %constant_949 = s32[] constant(1)
  %broadcast.1402 = s32[3,4096,221]{2,1,0} broadcast(s32[] %constant_949), dimensions={}, metadata={op_name="jit(training_step)/jit(main)/jit(jvp(render_rays))/jit(jit_jvp(render_rays))/jit(jvp(interpolate))/jit(jit_jvp(interpolate))/jit(jvp(vmap(vmap(vmap(_map_coordinates)))))/jit(jit_jvp(vmap(vmap(vmap(_map_coordinates)))))/add" source_file="/home/brent/tensorf-jax/tensorf/tensor_vm.py" source_line=222}
  %add.608 = s32[3,4096,221]{2,1,0} add(s32[3,4096,221]{2,1,0} %convert.78, s32[3,4096,221]{2,1,0} %broadcast.1402), metadata={op_name="jit(training_step)/jit(main)/jit(jvp(render_rays))/jit(jit_jvp(render_rays))/jit(jvp(interpolate))/jit(jit_jvp(interpolate))/jit(jvp(vmap(vmap(vmap(_map_coordinates)))))/jit(jit_jvp(vmap(vmap(vmap(_map_coordinates)))))/add" source_file="/home/brent/tensorf-jax/tensorf/tensor_vm.py" source_line=222}
  %constant_945 = s32[] constant(127)
  %broadcast.1401 = s32[3,4096,221]{2,1,0} broadcast(s32[] %constant_945), dimensions={}, metadata={op_name="jit(training_step)/jit(main)/jit(jvp(render_rays))/jit(jit_jvp(render_rays))/jit(jvp(interpolate))/jit(jit_jvp(interpolate))/jit(jvp(vmap(vmap(vmap(_map_coordinates)))))/jit(jit_jvp(vmap(vmap(vmap(_map_coordinates)))))/jit(vmap(vmap(clip)))/jit(jit_vmap(vmap(clip)))/min" source_file="/home/brent/tensorf-jax/tensorf/tensor_vm.py" source_line=222}
  %clamp.67 = s32[3,4096,221]{2,1,0} clamp(s32[3,4096,221]{2,1,0} %broadcast.1403, s32[3,4096,221]{2,1,0} %add.608, s32[3,4096,221]{2,1,0} %broadcast.1401), metadata={op_name="jit(training_step)/jit(main)/jit(jvp(render_rays))/jit(jit_jvp(render_rays))/jit(jvp(interpolate))/jit(jit_jvp(interpolate))/jit(jvp(vmap(vmap(vmap(_map_coordinates)))))/jit(jit_jvp(vmap(vmap(vmap(_map_coordinates)))))/jit(vmap(vmap(clip)))/jit(jit_vmap(vmap(clip)))/min" source_file="/home/brent/tensorf-jax/tensorf/tensor_vm.py" source_line=222}
  %compare.193 = pred[3,4096,221]{2,1,0} compare(s32[3,4096,221]{2,1,0} %clamp.67, s32[3,4096,221]{2,1,0} %broadcast.1403), direction=LT, metadata={op_name="jit(training_step)/jit(main)/jit(jvp(render_rays))/jit(jit_jvp(render_rays))/jit(jvp(interpolate))/jit(jit_jvp(interpolate))/jit(jvp(vmap(vmap(vmap(_map_coordinates)))))/jit(jit_jvp(vmap(vmap(vmap(_map_coordinates)))))/lt" source_file="/home/brent/tensorf-jax/tensorf/tensor_vm.py" source_line=222}
  %constant_944 = s32[] constant(128)
  %broadcast.1400 = s32[3,4096,221]{2,1,0} broadcast(s32[] %constant_944), dimensions={}, metadata={op_name="jit(training_step)/jit(main)/jit(jvp(render_rays))/jit(jit_jvp(render_rays))/jit(jvp(interpolate))/jit(jit_jvp(interpolate))/jit(jvp(vmap(vmap(vmap(_map_coordinates)))))/jit(jit_jvp(vmap(vmap(vmap(_map_coordinates)))))/add" source_file="/home/brent/tensorf-jax/tensorf/tensor_vm.py" source_line=222}
  %add.607 = s32[3,4096,221]{2,1,0} add(s32[3,4096,221]{2,1,0} %clamp.67, s32[3,4096,221]{2,1,0} %broadcast.1400), metadata={op_name="jit(training_step)/jit(main)/jit(jvp(render_rays))/jit(jit_jvp(render_rays))/jit(jvp(interpolate))/jit(jit_jvp(interpolate))/jit(jvp(vmap(vmap(vmap(_map_coordinates)))))/jit(jit_jvp(vmap(vmap(vmap(_map_coordinates)))))/add" source_file="/home/brent/tensorf-jax/tensorf/tensor_vm.py" source_line=222}
  %select.205 = s32[3,4096,221]{2,1,0} select(pred[3,4096,221]{2,1,0} %compare.193, s32[3,4096,221]{2,1,0} %add.607, s32[3,4096,221]{2,1,0} %clamp.67), metadata={op_name="jit(training_step)/jit(main)/jit(jvp(render_rays))/jit(jit_jvp(render_rays))/jit(jvp(interpolate))/jit(jit_jvp(interpolate))/jit(jvp(vmap(vmap(vmap(_map_coordinates)))))/jit(jit_jvp(vmap(vmap(vmap(_map_coordinates)))))/select_n" source_file="/home/brent/tensorf-jax/tensorf/tensor_vm.py" source_line=222}
  %bitcast.196 = s32[3,4096,221,1]{2,1,0,3} bitcast(s32[3,4096,221]{2,1,0} %select.205), metadata={op_name="jit(training_step)/jit(main)/jit(jvp(render_rays))/jit(jit_jvp(render_rays))/jit(jvp(interpolate))/jit(jit_jvp(interpolate))/jit(jvp(vmap(vmap(vmap(_map_coordinates)))))/jit(jit_jvp(vmap(vmap(vmap(_map_coordinates)))))/broadcast_in_dim[shape=(3, 4096, 221, 1) broadcast_dimensions=(0, 1, 2)]" source_file="/home/brent/tensorf-jax/tensorf/tensor_vm.py" source_line=222}
  %param_1.727 = f32[3,4096,221]{2,1,0} parameter(1)
  %floor.122 = f32[3,4096,221]{2,1,0} floor(f32[3,4096,221]{2,1,0} %param_1.727), metadata={op_name="jit(training_step)/jit(main)/jit(jvp(render_rays))/jit(jit_jvp(render_rays))/jit(jvp(interpolate))/jit(jit_jvp(interpolate))/jit(jvp(vmap(vmap(vmap(_map_coordinates)))))/jit(jit_jvp(vmap(vmap(vmap(_map_coordinates)))))/floor" source_file="/home/brent/tensorf-jax/tensorf/tensor_vm.py" source_line=222}
  %convert.77 = s32[3,4096,221]{2,1,0} convert(f32[3,4096,221]{2,1,0} %floor.122), metadata={op_name="jit(training_step)/jit(main)/jit(jvp(render_rays))/jit(jit_jvp(render_rays))/jit(jvp(interpolate))/jit(jit_jvp(interpolate))/jit(jvp(vmap(vmap(vmap(_map_coordinates)))))/jit(jit_jvp(vmap(vmap(vmap(_map_coordinates)))))/convert_element_type[new_dtype=int32 weak_type=False]" source_file="/home/brent/tensorf-jax/tensorf/tensor_vm.py" source_line=222}
  %clamp.66 = s32[3,4096,221]{2,1,0} clamp(s32[3,4096,221]{2,1,0} %broadcast.1403, s32[3,4096,221]{2,1,0} %convert.77, s32[3,4096,221]{2,1,0} %broadcast.1401), metadata={op_name="jit(training_step)/jit(main)/jit(jvp(render_rays))/jit(jit_jvp(render_rays))/jit(jvp(interpolate))/jit(jit_jvp(interpolate))/jit(jvp(vmap(vmap(vmap(_map_coordinates)))))/jit(jit_jvp(vmap(vmap(vmap(_map_coordinates)))))/jit(vmap(vmap(clip)))/jit(jit_vmap(vmap(clip)))/min" source_file="/home/brent/tensorf-jax/tensorf/tensor_vm.py" source_line=222}
  %compare.192 = pred[3,4096,221]{2,1,0} compare(s32[3,4096,221]{2,1,0} %clamp.66, s32[3,4096,221]{2,1,0} %broadcast.1403), direction=LT, metadata={op_name="jit(training_step)/jit(main)/jit(jvp(render_rays))/jit(jit_jvp(render_rays))/jit(jvp(interpolate))/jit(jit_jvp(interpolate))/jit(jvp(vmap(vmap(vmap(_map_coordinates)))))/jit(jit_jvp(vmap(vmap(vmap(_map_coordinates)))))/lt" source_file="/home/brent/tensorf-jax/tensorf/tensor_vm.py" source_line=222}
  %add.606 = s32[3,4096,221]{2,1,0} add(s32[3,4096,221]{2,1,0} %clamp.66, s32[3,4096,221]{2,1,0} %broadcast.1400), metadata={op_name="jit(training_step)/jit(main)/jit(jvp(render_rays))/jit(jit_jvp(render_rays))/jit(jvp(interpolate))/jit(jit_jvp(interpolate))/jit(jvp(vmap(vmap(vmap(_map_coordinates)))))/jit(jit_jvp(vmap(vmap(vmap(_map_coordinates)))))/add" source_file="/home/brent/tensorf-jax/tensorf/tensor_vm.py" source_line=222}
  %select.204 = s32[3,4096,221]{2,1,0} select(pred[3,4096,221]{2,1,0} %compare.192, s32[3,4096,221]{2,1,0} %add.606, s32[3,4096,221]{2,1,0} %clamp.66), metadata={op_name="jit(training_step)/jit(main)/jit(jvp(render_rays))/jit(jit_jvp(render_rays))/jit(jvp(interpolate))/jit(jit_jvp(interpolate))/jit(jvp(vmap(vmap(vmap(_map_coordinates)))))/jit(jit_jvp(vmap(vmap(vmap(_map_coordinates)))))/select_n" source_file="/home/brent/tensorf-jax/tensorf/tensor_vm.py" source_line=222}
  %bitcast.195 = s32[3,4096,221,1]{2,1,0,3} bitcast(s32[3,4096,221]{2,1,0} %select.204), metadata={op_name="jit(training_step)/jit(main)/jit(jvp(render_rays))/jit(jit_jvp(render_rays))/jit(jvp(interpolate))/jit(jit_jvp(interpolate))/jit(jvp(vmap(vmap(vmap(_map_coordinates)))))/jit(jit_jvp(vmap(vmap(vmap(_map_coordinates)))))/broadcast_in_dim[shape=(3, 4096, 221, 1) broadcast_dimensions=(0, 1, 2)]" source_file="/home/brent/tensorf-jax/tensorf/tensor_vm.py" source_line=222}
  %concatenate.166 = s32[3,4096,221,3]{2,1,0,3} concatenate(s32[3,4096,221,1]{2,1,0,3} %iota.127, s32[3,4096,221,1]{2,1,0,3} %bitcast.196, s32[3,4096,221,1]{2,1,0,3} %bitcast.195), dimensions={3}, metadata={op_name="jit(training_step)/jit(main)/jit(jvp(render_rays))/jit(jit_jvp(render_rays))/jit(jvp(interpolate))/jit(jit_jvp(interpolate))/jit(jvp(vmap(vmap(vmap(_map_coordinates)))))/jit(jit_jvp(vmap(vmap(vmap(_map_coordinates)))))/concatenate[dimension=3]" source_file="/home/brent/tensorf-jax/tensorf/tensor_vm.py" source_line=222}
  %copy.20 = s32[3,4096,221,3]{3,2,1,0} copy(s32[3,4096,221,3]{2,1,0,3} %concatenate.166), metadata={op_name="jit(training_step)/jit(main)/jit(jvp(render_rays))/jit(jit_jvp(render_rays))/jit(jvp(interpolate))/jit(jit_jvp(interpolate))/jit(jvp(vmap(vmap(vmap(_map_coordinates)))))/jit(jit_jvp(vmap(vmap(vmap(_map_coordinates)))))/concatenate[dimension=3]" source_file="/home/brent/tensorf-jax/tensorf/tensor_vm.py" source_line=222}
  %subtract.156 = f32[3,4096,221]{2,1,0} subtract(f32[3,4096,221]{2,1,0} %param_2.688, f32[3,4096,221]{2,1,0} %floor.123), metadata={op_name="jit(training_step)/jit(main)/jit(jvp(render_rays))/jit(jit_jvp(render_rays))/jit(jvp(interpolate))/jit(jit_jvp(interpolate))/jit(jvp(vmap(vmap(vmap(_map_coordinates)))))/jit(jit_jvp(vmap(vmap(vmap(_map_coordinates)))))/sub" source_file="/home/brent/tensorf-jax/tensorf/tensor_vm.py" source_line=222}
  %constant_903 = f32[] constant(1)
  %broadcast.1356 = f32[3,4096,221]{2,1,0} broadcast(f32[] %constant_903), dimensions={}, metadata={op_name="jit(training_step)/jit(main)/jit(jvp(render_rays))/jit(jit_jvp(render_rays))/jit(jvp(interpolate))/jit(jit_jvp(interpolate))/jit(jvp(vmap(vmap(vmap(_map_coordinates)))))/jit(jit_jvp(vmap(vmap(vmap(_map_coordinates)))))/sub" source_file="/home/brent/tensorf-jax/tensorf/tensor_vm.py" source_line=222}
  %subtract.155 = f32[3,4096,221]{2,1,0} subtract(f32[3,4096,221]{2,1,0} %param_1.727, f32[3,4096,221]{2,1,0} %floor.122), metadata={op_name="jit(training_step)/jit(main)/jit(jvp(render_rays))/jit(jit_jvp(render_rays))/jit(jvp(interpolate))/jit(jit_jvp(interpolate))/jit(jvp(vmap(vmap(vmap(_map_coordinates)))))/jit(jit_jvp(vmap(vmap(vmap(_map_coordinates)))))/sub" source_file="/home/brent/tensorf-jax/tensorf/tensor_vm.py" source_line=222}
  %subtract.154 = f32[3,4096,221]{2,1,0} subtract(f32[3,4096,221]{2,1,0} %broadcast.1356, f32[3,4096,221]{2,1,0} %subtract.155), metadata={op_name="jit(training_step)/jit(main)/jit(jvp(render_rays))/jit(jit_jvp(render_rays))/jit(jvp(interpolate))/jit(jit_jvp(interpolate))/jit(jvp(vmap(vmap(vmap(_map_coordinates)))))/jit(jit_jvp(vmap(vmap(vmap(_map_coordinates)))))/sub" source_file="/home/brent/tensorf-jax/tensorf/tensor_vm.py" source_line=222}
  %multiply.439 = f32[3,4096,221]{2,1,0} multiply(f32[3,4096,221]{2,1,0} %subtract.156, f32[3,4096,221]{2,1,0} %subtract.154), metadata={op_name="jit(training_step)/jit(main)/jit(jvp(render_rays))/jit(jit_jvp(render_rays))/jit(jvp(interpolate))/jit(jit_jvp(interpolate))/jit(jvp(vmap(vmap(vmap(_map_coordinates)))))/jit(jit_jvp(vmap(vmap(vmap(_map_coordinates)))))/mul" source_file="/home/brent/tensorf-jax/tensorf/tensor_vm.py" source_line=222}
  %broadcast.1355 = f32[3,4096,16,221]{3,2,1,0} broadcast(f32[3,4096,221]{2,1,0} %multiply.439), dimensions={0,1,3}, metadata={op_name="jit(training_step)/jit(main)/jit(jvp(render_rays))/jit(jit_jvp(render_rays))/jit(jvp(interpolate))/jit(jit_jvp(interpolate))/jit(jvp(vmap(vmap(vmap(_map_coordinates)))))/jit(jit_jvp(vmap(vmap(vmap(_map_coordinates)))))/mul" source_file="/home/brent/tensorf-jax/tensorf/tensor_vm.py" source_line=222}
  %param_0.535 = f32[3,4096,16,221]{3,2,1,0} parameter(0)
  %multiply.244 = f32[3,4096,16,221]{3,2,1,0} multiply(f32[3,4096,16,221]{3,2,1,0} %broadcast.1355, f32[3,4096,16,221]{3,2,1,0} %param_0.535), metadata={op_name="jit(training_step)/jit(main)/jit(transpose(jvp(render_rays)))/jit(jit_transpose(jvp(render_rays)))/jit(transpose(jvp(interpolate)))/jit(jit_transpose(jvp(interpolate)))/jit(transpose(jvp(vmap(vmap(vmap(_map_coordinates))))))/jit(jit_transpose(jvp(vmap(vmap(vmap(_map_coordinates))))))/mul" source_file="/home/brent/tensorf-jax/tensorf/tensor_vm.py" source_line=222}
  ROOT %scatter.44 = f32[3,16,128,128]{3,2,1,0} scatter(f32[3,16,128,128]{3,2,1,0} %broadcast.963, s32[3,4096,221,3]{3,2,1,0} %copy.20, f32[3,4096,16,221]{3,2,1,0} %multiply.244), update_window_dims={2}, inserted_window_dims={0,2,3}, scatter_dims_to_operand_dims={0,2,3}, index_vector_dim=3, to_apply=%region_22.1614, metadata={op_name="jit(training_step)/jit(main)/jit(transpose(jvp(render_rays)))/jit(jit_transpose(jvp(render_rays)))/jit(transpose(jvp(interpolate)))/jit(jit_transpose(jvp(interpolate)))/jit(transpose(jvp(vmap(vmap(vmap(_map_coordinates))))))/jit(jit_transpose(jvp(vmap(vmap(vmap(_map_coordinates))))))/scatter-add[update_consts=() dimension_numbers=ScatterDimensionNumbers(update_window_dims=(2,), inserted_window_dims=(0, 2, 3), scatter_dims_to_operand_dims=(0, 2, 3)) indices_are_sorted=False unique_indices=False mode=GatherScatterMode.PROMISE_IN_BOUNDS]" source_file="/home/brent/tensorf-jax/tensorf/tensor_vm.py" source_line=222}
}

%region_21.1610 (Arg_0.1611: f32[], Arg_1.1612: f32[]) -> f32[] {
  %Arg_0.1611 = f32[] parameter(0)
  %Arg_1.1612 = f32[] parameter(1)
  ROOT %add.1613 = f32[] add(f32[] %Arg_0.1611, f32[] %Arg_1.1612), metadata={op_name="add" source_file="/home/brent/tensorf-jax/tensorf/render.py" source_line=452}
}

%input_fused_computation_scatter.3 (param_0.532: f32[3,4096,16,221], param_1.709: f32[3,4096,221], param_2.668: f32[3,4096,221]) -> f32[3,16,128,128] {
  %constant_482 = f32[] constant(0)
  %broadcast.964 = f32[3,16,128,128]{3,2,1,0} broadcast(f32[] %constant_482), dimensions={}, metadata={op_name="jit(training_step)/jit(main)/jit(transpose(jvp(render_rays)))/jit(jit_transpose(jvp(render_rays)))/jit(transpose(jvp(interpolate)))/jit(jit_transpose(jvp(interpolate)))/jit(transpose(jvp(vmap(vmap(vmap(_map_coordinates))))))/jit(jit_transpose(jvp(vmap(vmap(vmap(_map_coordinates))))))/broadcast_in_dim[shape=(3, 16, 128, 128) broadcast_dimensions=()]" source_file="/home/brent/tensorf-jax/tensorf/tensor_vm.py" source_line=222}
  %iota.123 = s32[3,4096,221,1]{3,2,1,0} iota(), iota_dimension=0, metadata={op_name="jit(training_step)/jit(main)/jit(jvp(render_rays))/jit(jit_jvp(render_rays))/jit(jvp(interpolate))/jit(jit_jvp(interpolate))/jit(jvp(vmap(vmap(vmap(_map_coordinates)))))/jit(jit_jvp(vmap(vmap(vmap(_map_coordinates)))))/iota[dtype=int32 shape=(3, 4096, 221, 1) dimension=0]" source_file="/home/brent/tensorf-jax/tensorf/tensor_vm.py" source_line=222}
  %constant_893 = s32[] constant(0)
  %broadcast.1346 = s32[3,4096,221]{2,1,0} broadcast(s32[] %constant_893), dimensions={}, metadata={op_name="jit(training_step)/jit(main)/jit(jvp(render_rays))/jit(jit_jvp(render_rays))/jit(jvp(interpolate))/jit(jit_jvp(interpolate))/jit(jvp(vmap(vmap(vmap(_map_coordinates)))))/jit(jit_jvp(vmap(vmap(vmap(_map_coordinates)))))/jit(vmap(vmap(clip)))/jit(jit_vmap(vmap(clip)))/max" source_file="/home/brent/tensorf-jax/tensorf/tensor_vm.py" source_line=222}
  %param_2.668 = f32[3,4096,221]{2,1,0} parameter(2)
  %floor.103 = f32[3,4096,221]{2,1,0} floor(f32[3,4096,221]{2,1,0} %param_2.668), metadata={op_name="jit(training_step)/jit(main)/jit(jvp(render_rays))/jit(jit_jvp(render_rays))/jit(jvp(interpolate))/jit(jit_jvp(interpolate))/jit(jvp(vmap(vmap(vmap(_map_coordinates)))))/jit(jit_jvp(vmap(vmap(vmap(_map_coordinates)))))/floor" source_file="/home/brent/tensorf-jax/tensorf/tensor_vm.py" source_line=222}
  %convert.66 = s32[3,4096,221]{2,1,0} convert(f32[3,4096,221]{2,1,0} %floor.103), metadata={op_name="jit(training_step)/jit(main)/jit(jvp(render_rays))/jit(jit_jvp(render_rays))/jit(jvp(interpolate))/jit(jit_jvp(interpolate))/jit(jvp(vmap(vmap(vmap(_map_coordinates)))))/jit(jit_jvp(vmap(vmap(vmap(_map_coordinates)))))/convert_element_type[new_dtype=int32 weak_type=False]" source_file="/home/brent/tensorf-jax/tensorf/tensor_vm.py" source_line=222}
  %constant_892 = s32[] constant(1)
  %broadcast.1345 = s32[3,4096,221]{2,1,0} broadcast(s32[] %constant_892), dimensions={}, metadata={op_name="jit(training_step)/jit(main)/jit(jvp(render_rays))/jit(jit_jvp(render_rays))/jit(jvp(interpolate))/jit(jit_jvp(interpolate))/jit(jvp(vmap(vmap(vmap(_map_coordinates)))))/jit(jit_jvp(vmap(vmap(vmap(_map_coordinates)))))/add" source_file="/home/brent/tensorf-jax/tensorf/tensor_vm.py" source_line=222}
  %add.586 = s32[3,4096,221]{2,1,0} add(s32[3,4096,221]{2,1,0} %convert.66, s32[3,4096,221]{2,1,0} %broadcast.1345), metadata={op_name="jit(training_step)/jit(main)/jit(jvp(render_rays))/jit(jit_jvp(render_rays))/jit(jvp(interpolate))/jit(jit_jvp(interpolate))/jit(jvp(vmap(vmap(vmap(_map_coordinates)))))/jit(jit_jvp(vmap(vmap(vmap(_map_coordinates)))))/add" source_file="/home/brent/tensorf-jax/tensorf/tensor_vm.py" source_line=222}
  %constant_891 = s32[] constant(127)
  %broadcast.1344 = s32[3,4096,221]{2,1,0} broadcast(s32[] %constant_891), dimensions={}, metadata={op_name="jit(training_step)/jit(main)/jit(jvp(render_rays))/jit(jit_jvp(render_rays))/jit(jvp(interpolate))/jit(jit_jvp(interpolate))/jit(jvp(vmap(vmap(vmap(_map_coordinates)))))/jit(jit_jvp(vmap(vmap(vmap(_map_coordinates)))))/jit(vmap(vmap(clip)))/jit(jit_vmap(vmap(clip)))/min" source_file="/home/brent/tensorf-jax/tensorf/tensor_vm.py" source_line=222}
  %clamp.55 = s32[3,4096,221]{2,1,0} clamp(s32[3,4096,221]{2,1,0} %broadcast.1346, s32[3,4096,221]{2,1,0} %add.586, s32[3,4096,221]{2,1,0} %broadcast.1344), metadata={op_name="jit(training_step)/jit(main)/jit(jvp(render_rays))/jit(jit_jvp(render_rays))/jit(jvp(interpolate))/jit(jit_jvp(interpolate))/jit(jvp(vmap(vmap(vmap(_map_coordinates)))))/jit(jit_jvp(vmap(vmap(vmap(_map_coordinates)))))/jit(vmap(vmap(clip)))/jit(jit_vmap(vmap(clip)))/min" source_file="/home/brent/tensorf-jax/tensorf/tensor_vm.py" source_line=222}
  %compare.181 = pred[3,4096,221]{2,1,0} compare(s32[3,4096,221]{2,1,0} %clamp.55, s32[3,4096,221]{2,1,0} %broadcast.1346), direction=LT, metadata={op_name="jit(training_step)/jit(main)/jit(jvp(render_rays))/jit(jit_jvp(render_rays))/jit(jvp(interpolate))/jit(jit_jvp(interpolate))/jit(jvp(vmap(vmap(vmap(_map_coordinates)))))/jit(jit_jvp(vmap(vmap(vmap(_map_coordinates)))))/lt" source_file="/home/brent/tensorf-jax/tensorf/tensor_vm.py" source_line=222}
  %constant_890 = s32[] constant(128)
  %broadcast.1343 = s32[3,4096,221]{2,1,0} broadcast(s32[] %constant_890), dimensions={}, metadata={op_name="jit(training_step)/jit(main)/jit(jvp(render_rays))/jit(jit_jvp(render_rays))/jit(jvp(interpolate))/jit(jit_jvp(interpolate))/jit(jvp(vmap(vmap(vmap(_map_coordinates)))))/jit(jit_jvp(vmap(vmap(vmap(_map_coordinates)))))/add" source_file="/home/brent/tensorf-jax/tensorf/tensor_vm.py" source_line=222}
  %add.585 = s32[3,4096,221]{2,1,0} add(s32[3,4096,221]{2,1,0} %clamp.55, s32[3,4096,221]{2,1,0} %broadcast.1343), metadata={op_name="jit(training_step)/jit(main)/jit(jvp(render_rays))/jit(jit_jvp(render_rays))/jit(jvp(interpolate))/jit(jit_jvp(interpolate))/jit(jvp(vmap(vmap(vmap(_map_coordinates)))))/jit(jit_jvp(vmap(vmap(vmap(_map_coordinates)))))/add" source_file="/home/brent/tensorf-jax/tensorf/tensor_vm.py" source_line=222}
  %select.193 = s32[3,4096,221]{2,1,0} select(pred[3,4096,221]{2,1,0} %compare.181, s32[3,4096,221]{2,1,0} %add.585, s32[3,4096,221]{2,1,0} %clamp.55), metadata={op_name="jit(training_step)/jit(main)/jit(jvp(render_rays))/jit(jit_jvp(render_rays))/jit(jvp(interpolate))/jit(jit_jvp(interpolate))/jit(jvp(vmap(vmap(vmap(_map_coordinates)))))/jit(jit_jvp(vmap(vmap(vmap(_map_coordinates)))))/select_n" source_file="/home/brent/tensorf-jax/tensorf/tensor_vm.py" source_line=222}
  %bitcast.184 = s32[3,4096,221,1]{3,2,1,0} bitcast(s32[3,4096,221]{2,1,0} %select.193), metadata={op_name="jit(training_step)/jit(main)/jit(jvp(render_rays))/jit(jit_jvp(render_rays))/jit(jvp(interpolate))/jit(jit_jvp(interpolate))/jit(jvp(vmap(vmap(vmap(_map_coordinates)))))/jit(jit_jvp(vmap(vmap(vmap(_map_coordinates)))))/broadcast_in_dim[shape=(3, 4096, 221, 1) broadcast_dimensions=(0, 1, 2)]" source_file="/home/brent/tensorf-jax/tensorf/tensor_vm.py" source_line=222}
  %param_1.709 = f32[3,4096,221]{2,1,0} parameter(1)
  %floor.102 = f32[3,4096,221]{2,1,0} floor(f32[3,4096,221]{2,1,0} %param_1.709), metadata={op_name="jit(training_step)/jit(main)/jit(jvp(render_rays))/jit(jit_jvp(render_rays))/jit(jvp(interpolate))/jit(jit_jvp(interpolate))/jit(jvp(vmap(vmap(vmap(_map_coordinates)))))/jit(jit_jvp(vmap(vmap(vmap(_map_coordinates)))))/floor" source_file="/home/brent/tensorf-jax/tensorf/tensor_vm.py" source_line=222}
  %convert.65 = s32[3,4096,221]{2,1,0} convert(f32[3,4096,221]{2,1,0} %floor.102), metadata={op_name="jit(training_step)/jit(main)/jit(jvp(render_rays))/jit(jit_jvp(render_rays))/jit(jvp(interpolate))/jit(jit_jvp(interpolate))/jit(jvp(vmap(vmap(vmap(_map_coordinates)))))/jit(jit_jvp(vmap(vmap(vmap(_map_coordinates)))))/convert_element_type[new_dtype=int32 weak_type=False]" source_file="/home/brent/tensorf-jax/tensorf/tensor_vm.py" source_line=222}
  %add.584 = s32[3,4096,221]{2,1,0} add(s32[3,4096,221]{2,1,0} %convert.65, s32[3,4096,221]{2,1,0} %broadcast.1345), metadata={op_name="jit(training_step)/jit(main)/jit(jvp(render_rays))/jit(jit_jvp(render_rays))/jit(jvp(interpolate))/jit(jit_jvp(interpolate))/jit(jvp(vmap(vmap(vmap(_map_coordinates)))))/jit(jit_jvp(vmap(vmap(vmap(_map_coordinates)))))/add" source_file="/home/brent/tensorf-jax/tensorf/tensor_vm.py" source_line=222}
  %clamp.54 = s32[3,4096,221]{2,1,0} clamp(s32[3,4096,221]{2,1,0} %broadcast.1346, s32[3,4096,221]{2,1,0} %add.584, s32[3,4096,221]{2,1,0} %broadcast.1344), metadata={op_name="jit(training_step)/jit(main)/jit(jvp(render_rays))/jit(jit_jvp(render_rays))/jit(jvp(interpolate))/jit(jit_jvp(interpolate))/jit(jvp(vmap(vmap(vmap(_map_coordinates)))))/jit(jit_jvp(vmap(vmap(vmap(_map_coordinates)))))/jit(vmap(vmap(clip)))/jit(jit_vmap(vmap(clip)))/min" source_file="/home/brent/tensorf-jax/tensorf/tensor_vm.py" source_line=222}
  %compare.180 = pred[3,4096,221]{2,1,0} compare(s32[3,4096,221]{2,1,0} %clamp.54, s32[3,4096,221]{2,1,0} %broadcast.1346), direction=LT, metadata={op_name="jit(training_step)/jit(main)/jit(jvp(render_rays))/jit(jit_jvp(render_rays))/jit(jvp(interpolate))/jit(jit_jvp(interpolate))/jit(jvp(vmap(vmap(vmap(_map_coordinates)))))/jit(jit_jvp(vmap(vmap(vmap(_map_coordinates)))))/lt" source_file="/home/brent/tensorf-jax/tensorf/tensor_vm.py" source_line=222}
  %add.582 = s32[3,4096,221]{2,1,0} add(s32[3,4096,221]{2,1,0} %clamp.54, s32[3,4096,221]{2,1,0} %broadcast.1343), metadata={op_name="jit(training_step)/jit(main)/jit(jvp(render_rays))/jit(jit_jvp(render_rays))/jit(jvp(interpolate))/jit(jit_jvp(interpolate))/jit(jvp(vmap(vmap(vmap(_map_coordinates)))))/jit(jit_jvp(vmap(vmap(vmap(_map_coordinates)))))/add" source_file="/home/brent/tensorf-jax/tensorf/tensor_vm.py" source_line=222}
  %select.192 = s32[3,4096,221]{2,1,0} select(pred[3,4096,221]{2,1,0} %compare.180, s32[3,4096,221]{2,1,0} %add.582, s32[3,4096,221]{2,1,0} %clamp.54), metadata={op_name="jit(training_step)/jit(main)/jit(jvp(render_rays))/jit(jit_jvp(render_rays))/jit(jvp(interpolate))/jit(jit_jvp(interpolate))/jit(jvp(vmap(vmap(vmap(_map_coordinates)))))/jit(jit_jvp(vmap(vmap(vmap(_map_coordinates)))))/select_n" source_file="/home/brent/tensorf-jax/tensorf/tensor_vm.py" source_line=222}
  %bitcast.183 = s32[3,4096,221,1]{3,2,1,0} bitcast(s32[3,4096,221]{2,1,0} %select.192), metadata={op_name="jit(training_step)/jit(main)/jit(jvp(render_rays))/jit(jit_jvp(render_rays))/jit(jvp(interpolate))/jit(jit_jvp(interpolate))/jit(jvp(vmap(vmap(vmap(_map_coordinates)))))/jit(jit_jvp(vmap(vmap(vmap(_map_coordinates)))))/broadcast_in_dim[shape=(3, 4096, 221, 1) broadcast_dimensions=(0, 1, 2)]" source_file="/home/brent/tensorf-jax/tensorf/tensor_vm.py" source_line=222}
  %concatenate.162 = s32[3,4096,221,3]{3,2,1,0} concatenate(s32[3,4096,221,1]{3,2,1,0} %iota.123, s32[3,4096,221,1]{3,2,1,0} %bitcast.184, s32[3,4096,221,1]{3,2,1,0} %bitcast.183), dimensions={3}, metadata={op_name="jit(training_step)/jit(main)/jit(jvp(render_rays))/jit(jit_jvp(render_rays))/jit(jvp(interpolate))/jit(jit_jvp(interpolate))/jit(jvp(vmap(vmap(vmap(_map_coordinates)))))/jit(jit_jvp(vmap(vmap(vmap(_map_coordinates)))))/concatenate[dimension=3]" source_file="/home/brent/tensorf-jax/tensorf/tensor_vm.py" source_line=222}
  %subtract.144 = f32[3,4096,221]{2,1,0} subtract(f32[3,4096,221]{2,1,0} %param_2.668, f32[3,4096,221]{2,1,0} %floor.103), metadata={op_name="jit(training_step)/jit(main)/jit(jvp(render_rays))/jit(jit_jvp(render_rays))/jit(jvp(interpolate))/jit(jit_jvp(interpolate))/jit(jvp(vmap(vmap(vmap(_map_coordinates)))))/jit(jit_jvp(vmap(vmap(vmap(_map_coordinates)))))/sub" source_file="/home/brent/tensorf-jax/tensorf/tensor_vm.py" source_line=222}
  %subtract.143 = f32[3,4096,221]{2,1,0} subtract(f32[3,4096,221]{2,1,0} %param_1.709, f32[3,4096,221]{2,1,0} %floor.102), metadata={op_name="jit(training_step)/jit(main)/jit(jvp(render_rays))/jit(jit_jvp(render_rays))/jit(jvp(interpolate))/jit(jit_jvp(interpolate))/jit(jvp(vmap(vmap(vmap(_map_coordinates)))))/jit(jit_jvp(vmap(vmap(vmap(_map_coordinates)))))/sub" source_file="/home/brent/tensorf-jax/tensorf/tensor_vm.py" source_line=222}
  %multiply.435 = f32[3,4096,221]{2,1,0} multiply(f32[3,4096,221]{2,1,0} %subtract.144, f32[3,4096,221]{2,1,0} %subtract.143), metadata={op_name="jit(training_step)/jit(main)/jit(jvp(render_rays))/jit(jit_jvp(render_rays))/jit(jvp(interpolate))/jit(jit_jvp(interpolate))/jit(jvp(vmap(vmap(vmap(_map_coordinates)))))/jit(jit_jvp(vmap(vmap(vmap(_map_coordinates)))))/mul" source_file="/home/brent/tensorf-jax/tensorf/tensor_vm.py" source_line=222}
  %broadcast.1266 = f32[3,4096,16,221]{3,2,1,0} broadcast(f32[3,4096,221]{2,1,0} %multiply.435), dimensions={0,1,3}, metadata={op_name="jit(training_step)/jit(main)/jit(jvp(render_rays))/jit(jit_jvp(render_rays))/jit(jvp(interpolate))/jit(jit_jvp(interpolate))/jit(jvp(vmap(vmap(vmap(_map_coordinates)))))/jit(jit_jvp(vmap(vmap(vmap(_map_coordinates)))))/mul" source_file="/home/brent/tensorf-jax/tensorf/tensor_vm.py" source_line=222}
  %param_0.532 = f32[3,4096,16,221]{3,2,1,0} parameter(0)
  %multiply.245 = f32[3,4096,16,221]{3,2,1,0} multiply(f32[3,4096,16,221]{3,2,1,0} %broadcast.1266, f32[3,4096,16,221]{3,2,1,0} %param_0.532), metadata={op_name="jit(training_step)/jit(main)/jit(transpose(jvp(render_rays)))/jit(jit_transpose(jvp(render_rays)))/jit(transpose(jvp(interpolate)))/jit(jit_transpose(jvp(interpolate)))/jit(transpose(jvp(vmap(vmap(vmap(_map_coordinates))))))/jit(jit_transpose(jvp(vmap(vmap(vmap(_map_coordinates))))))/mul" source_file="/home/brent/tensorf-jax/tensorf/tensor_vm.py" source_line=222}
  ROOT %scatter.45 = f32[3,16,128,128]{3,2,1,0} scatter(f32[3,16,128,128]{3,2,1,0} %broadcast.964, s32[3,4096,221,3]{3,2,1,0} %concatenate.162, f32[3,4096,16,221]{3,2,1,0} %multiply.245), update_window_dims={2}, inserted_window_dims={0,2,3}, scatter_dims_to_operand_dims={0,2,3}, index_vector_dim=3, to_apply=%region_21.1610, metadata={op_name="jit(training_step)/jit(main)/jit(transpose(jvp(render_rays)))/jit(jit_transpose(jvp(render_rays)))/jit(transpose(jvp(interpolate)))/jit(jit_transpose(jvp(interpolate)))/jit(transpose(jvp(vmap(vmap(vmap(_map_coordinates))))))/jit(jit_transpose(jvp(vmap(vmap(vmap(_map_coordinates))))))/scatter-add[update_consts=() dimension_numbers=ScatterDimensionNumbers(update_window_dims=(2,), inserted_window_dims=(0, 2, 3), scatter_dims_to_operand_dims=(0, 2, 3)) indices_are_sorted=False unique_indices=False mode=GatherScatterMode.PROMISE_IN_BOUNDS]" source_file="/home/brent/tensorf-jax/tensorf/tensor_vm.py" source_line=222}
}

%fused_computation.6 (param_0.745: f32[3,16,128], param_1.965: f32[3,4096,221], param_2.989: f32[4096,221], param_3.872: f32[4096,221], param_4.625: pred[4096], param_5.564: f32[4096], param_6.494: f32[4096], param_7.424: f32[4096,221], param_8.326: f32[4096,221], param_9.233: f32[4096,221], param_10.137: f32[4096,110], param_11.102: f32[4096,110]) -> f32[3,4096,16,221] {
  %constant_803 = f32[] constant(1)
  %broadcast.1241 = f32[3,4096,221]{2,1,0} broadcast(f32[] %constant_803), dimensions={}, metadata={op_name="jit(training_step)/jit(main)/jit(jvp(render_rays))/jit(jit_jvp(render_rays))/jit(jvp(interpolate))/jit(jit_jvp(interpolate))/jit(jvp(vmap(vmap(vmap(_map_coordinates)))))/jit(jit_jvp(vmap(vmap(vmap(_map_coordinates)))))/sub" source_file="/home/brent/tensorf-jax/tensorf/tensor_vm.py" source_line=222}
  %param_1.965 = f32[3,4096,221]{2,1,0} parameter(1)
  %floor.71 = f32[3,4096,221]{2,1,0} floor(f32[3,4096,221]{2,1,0} %param_1.965), metadata={op_name="jit(training_step)/jit(main)/jit(jvp(render_rays))/jit(jit_jvp(render_rays))/jit(jvp(interpolate))/jit(jit_jvp(interpolate))/jit(jvp(vmap(vmap(vmap(_map_coordinates)))))/jit(jit_jvp(vmap(vmap(vmap(_map_coordinates)))))/floor" source_file="/home/brent/tensorf-jax/tensorf/tensor_vm.py" source_line=222}
  %subtract.130 = f32[3,4096,221]{2,1,0} subtract(f32[3,4096,221]{2,1,0} %param_1.965, f32[3,4096,221]{2,1,0} %floor.71), metadata={op_name="jit(training_step)/jit(main)/jit(jvp(render_rays))/jit(jit_jvp(render_rays))/jit(jvp(interpolate))/jit(jit_jvp(interpolate))/jit(jvp(vmap(vmap(vmap(_map_coordinates)))))/jit(jit_jvp(vmap(vmap(vmap(_map_coordinates)))))/sub" source_file="/home/brent/tensorf-jax/tensorf/tensor_vm.py" source_line=222}
  %subtract.129 = f32[3,4096,221]{2,1,0} subtract(f32[3,4096,221]{2,1,0} %broadcast.1241, f32[3,4096,221]{2,1,0} %subtract.130), metadata={op_name="jit(training_step)/jit(main)/jit(jvp(render_rays))/jit(jit_jvp(render_rays))/jit(jvp(interpolate))/jit(jit_jvp(interpolate))/jit(jvp(vmap(vmap(vmap(_map_coordinates)))))/jit(jit_jvp(vmap(vmap(vmap(_map_coordinates)))))/sub" source_file="/home/brent/tensorf-jax/tensorf/tensor_vm.py" source_line=222}
  %broadcast.1240 = f32[3,4096,16,221]{2,1,0,3} broadcast(f32[3,4096,221]{2,1,0} %subtract.129), dimensions={0,1,3}, metadata={op_name="jit(training_step)/jit(main)/jit(jvp(render_rays))/jit(jit_jvp(render_rays))/jit(jvp(interpolate))/jit(jit_jvp(interpolate))/jit(jvp(vmap(vmap(vmap(_map_coordinates)))))/jit(jit_jvp(vmap(vmap(vmap(_map_coordinates)))))/mul" source_file="/home/brent/tensorf-jax/tensorf/tensor_vm.py" source_line=222}
  %param_0.745 = f32[3,16,128]{2,1,0} parameter(0)
  %iota.115 = s32[3,4096,221,1]{2,1,0,3} iota(), iota_dimension=0, metadata={op_name="jit(training_step)/jit(main)/jit(jvp(render_rays))/jit(jit_jvp(render_rays))/jit(jvp(interpolate))/jit(jit_jvp(interpolate))/jit(jvp(vmap(vmap(vmap(_map_coordinates)))))/jit(jit_jvp(vmap(vmap(vmap(_map_coordinates)))))/iota[dtype=int32 shape=(3, 4096, 221, 1) dimension=0]" source_file="/home/brent/tensorf-jax/tensorf/tensor_vm.py" source_line=222}
  %constant_799 = s32[] constant(0)
  %broadcast.1239 = s32[3,4096,221]{2,1,0} broadcast(s32[] %constant_799), dimensions={}, metadata={op_name="jit(training_step)/jit(main)/jit(jvp(render_rays))/jit(jit_jvp(render_rays))/jit(jvp(interpolate))/jit(jit_jvp(interpolate))/jit(jvp(vmap(vmap(vmap(_map_coordinates)))))/jit(jit_jvp(vmap(vmap(vmap(_map_coordinates)))))/jit(vmap(vmap(clip)))/jit(jit_vmap(vmap(clip)))/max" source_file="/home/brent/tensorf-jax/tensorf/tensor_vm.py" source_line=222}
  %convert.46 = s32[3,4096,221]{2,1,0} convert(f32[3,4096,221]{2,1,0} %floor.71), metadata={op_name="jit(training_step)/jit(main)/jit(jvp(render_rays))/jit(jit_jvp(render_rays))/jit(jvp(interpolate))/jit(jit_jvp(interpolate))/jit(jvp(vmap(vmap(vmap(_map_coordinates)))))/jit(jit_jvp(vmap(vmap(vmap(_map_coordinates)))))/convert_element_type[new_dtype=int32 weak_type=False]" source_file="/home/brent/tensorf-jax/tensorf/tensor_vm.py" source_line=222}
  %constant_797 = s32[] constant(127)
  %broadcast.1238 = s32[3,4096,221]{2,1,0} broadcast(s32[] %constant_797), dimensions={}, metadata={op_name="jit(training_step)/jit(main)/jit(jvp(render_rays))/jit(jit_jvp(render_rays))/jit(jvp(interpolate))/jit(jit_jvp(interpolate))/jit(jvp(vmap(vmap(vmap(_map_coordinates)))))/jit(jit_jvp(vmap(vmap(vmap(_map_coordinates)))))/jit(vmap(vmap(clip)))/jit(jit_vmap(vmap(clip)))/min" source_file="/home/brent/tensorf-jax/tensorf/tensor_vm.py" source_line=222}
  %clamp.35 = s32[3,4096,221]{2,1,0} clamp(s32[3,4096,221]{2,1,0} %broadcast.1239, s32[3,4096,221]{2,1,0} %convert.46, s32[3,4096,221]{2,1,0} %broadcast.1238), metadata={op_name="jit(training_step)/jit(main)/jit(jvp(render_rays))/jit(jit_jvp(render_rays))/jit(jvp(interpolate))/jit(jit_jvp(interpolate))/jit(jvp(vmap(vmap(vmap(_map_coordinates)))))/jit(jit_jvp(vmap(vmap(vmap(_map_coordinates)))))/jit(vmap(vmap(clip)))/jit(jit_vmap(vmap(clip)))/min" source_file="/home/brent/tensorf-jax/tensorf/tensor_vm.py" source_line=222}
  %compare.161 = pred[3,4096,221]{2,1,0} compare(s32[3,4096,221]{2,1,0} %clamp.35, s32[3,4096,221]{2,1,0} %broadcast.1239), direction=LT, metadata={op_name="jit(training_step)/jit(main)/jit(jvp(render_rays))/jit(jit_jvp(render_rays))/jit(jvp(interpolate))/jit(jit_jvp(interpolate))/jit(jvp(vmap(vmap(vmap(_map_coordinates)))))/jit(jit_jvp(vmap(vmap(vmap(_map_coordinates)))))/lt" source_file="/home/brent/tensorf-jax/tensorf/tensor_vm.py" source_line=222}
  %constant_796 = s32[] constant(128)
  %broadcast.1237 = s32[3,4096,221]{2,1,0} broadcast(s32[] %constant_796), dimensions={}, metadata={op_name="jit(training_step)/jit(main)/jit(jvp(render_rays))/jit(jit_jvp(render_rays))/jit(jvp(interpolate))/jit(jit_jvp(interpolate))/jit(jvp(vmap(vmap(vmap(_map_coordinates)))))/jit(jit_jvp(vmap(vmap(vmap(_map_coordinates)))))/add" source_file="/home/brent/tensorf-jax/tensorf/tensor_vm.py" source_line=222}
  %add.536 = s32[3,4096,221]{2,1,0} add(s32[3,4096,221]{2,1,0} %clamp.35, s32[3,4096,221]{2,1,0} %broadcast.1237), metadata={op_name="jit(training_step)/jit(main)/jit(jvp(render_rays))/jit(jit_jvp(render_rays))/jit(jvp(interpolate))/jit(jit_jvp(interpolate))/jit(jvp(vmap(vmap(vmap(_map_coordinates)))))/jit(jit_jvp(vmap(vmap(vmap(_map_coordinates)))))/add" source_file="/home/brent/tensorf-jax/tensorf/tensor_vm.py" source_line=222}
  %select.173 = s32[3,4096,221]{2,1,0} select(pred[3,4096,221]{2,1,0} %compare.161, s32[3,4096,221]{2,1,0} %add.536, s32[3,4096,221]{2,1,0} %clamp.35), metadata={op_name="jit(training_step)/jit(main)/jit(jvp(render_rays))/jit(jit_jvp(render_rays))/jit(jvp(interpolate))/jit(jit_jvp(interpolate))/jit(jvp(vmap(vmap(vmap(_map_coordinates)))))/jit(jit_jvp(vmap(vmap(vmap(_map_coordinates)))))/select_n" source_file="/home/brent/tensorf-jax/tensorf/tensor_vm.py" source_line=222}
  %bitcast.168 = s32[3,4096,221,1]{2,1,0,3} bitcast(s32[3,4096,221]{2,1,0} %select.173), metadata={op_name="jit(training_step)/jit(main)/jit(jvp(render_rays))/jit(jit_jvp(render_rays))/jit(jvp(interpolate))/jit(jit_jvp(interpolate))/jit(jvp(vmap(vmap(vmap(_map_coordinates)))))/jit(jit_jvp(vmap(vmap(vmap(_map_coordinates)))))/broadcast_in_dim[shape=(3, 4096, 221, 1) broadcast_dimensions=(0, 1, 2)]" source_file="/home/brent/tensorf-jax/tensorf/tensor_vm.py" source_line=222}
  %concatenate.154 = s32[3,4096,221,2]{2,1,0,3} concatenate(s32[3,4096,221,1]{2,1,0,3} %iota.115, s32[3,4096,221,1]{2,1,0,3} %bitcast.168), dimensions={3}, metadata={op_name="jit(training_step)/jit(main)/jit(jvp(render_rays))/jit(jit_jvp(render_rays))/jit(jvp(interpolate))/jit(jit_jvp(interpolate))/jit(jvp(vmap(vmap(vmap(_map_coordinates)))))/jit(jit_jvp(vmap(vmap(vmap(_map_coordinates)))))/concatenate[dimension=3]" source_file="/home/brent/tensorf-jax/tensorf/tensor_vm.py" source_line=222}
  %gather.83 = f32[3,4096,16,221]{2,1,0,3} gather(f32[3,16,128]{2,1,0} %param_0.745, s32[3,4096,221,2]{2,1,0,3} %concatenate.154), offset_dims={2}, collapsed_slice_dims={0,2}, start_index_map={0,2}, index_vector_dim=3, slice_sizes={1,16,1}, metadata={op_name="jit(training_step)/jit(main)/jit(jvp(render_rays))/jit(jit_jvp(render_rays))/jit(jvp(interpolate))/jit(jit_jvp(interpolate))/jit(jvp(vmap(vmap(vmap(_map_coordinates)))))/jit(jit_jvp(vmap(vmap(vmap(_map_coordinates)))))/gather[dimension_numbers=GatherDimensionNumbers(offset_dims=(2,), collapsed_slice_dims=(0, 2), start_index_map=(0, 2)) slice_sizes=(1, 16, 1) unique_indices=False indices_are_sorted=False mode=GatherScatterMode.PROMISE_IN_BOUNDS fill_value=None]" source_file="/home/brent/tensorf-jax/tensorf/tensor_vm.py" source_line=222}
  %multiply.426 = f32[3,4096,16,221]{2,1,0,3} multiply(f32[3,4096,16,221]{2,1,0,3} %broadcast.1240, f32[3,4096,16,221]{2,1,0,3} %gather.83), metadata={op_name="jit(training_step)/jit(main)/jit(jvp(render_rays))/jit(jit_jvp(render_rays))/jit(jvp(interpolate))/jit(jit_jvp(interpolate))/jit(jvp(vmap(vmap(vmap(_map_coordinates)))))/jit(jit_jvp(vmap(vmap(vmap(_map_coordinates)))))/mul" source_file="/home/brent/tensorf-jax/tensorf/tensor_vm.py" source_line=222}
  %copy.33 = f32[3,4096,16,221]{3,2,1,0} copy(f32[3,4096,16,221]{2,1,0,3} %multiply.426), metadata={op_name="jit(training_step)/jit(main)/jit(jvp(render_rays))/jit(jit_jvp(render_rays))/jit(jvp(interpolate))/jit(jit_jvp(interpolate))/jit(jvp(vmap(vmap(vmap(_map_coordinates)))))/jit(jit_jvp(vmap(vmap(vmap(_map_coordinates)))))/mul" source_file="/home/brent/tensorf-jax/tensorf/tensor_vm.py" source_line=222}
  %broadcast.1236 = f32[3,4096,16,221]{3,2,1,0} broadcast(f32[3,4096,221]{2,1,0} %subtract.130), dimensions={0,1,3}, metadata={op_name="jit(training_step)/jit(main)/jit(jvp(render_rays))/jit(jit_jvp(render_rays))/jit(jvp(interpolate))/jit(jit_jvp(interpolate))/jit(jvp(vmap(vmap(vmap(_map_coordinates)))))/jit(jit_jvp(vmap(vmap(vmap(_map_coordinates)))))/mul" source_file="/home/brent/tensorf-jax/tensorf/tensor_vm.py" source_line=222}
  %iota.114 = s32[3,4096,221,1]{3,2,1,0} iota(), iota_dimension=0, metadata={op_name="jit(training_step)/jit(main)/jit(jvp(render_rays))/jit(jit_jvp(render_rays))/jit(jvp(interpolate))/jit(jit_jvp(interpolate))/jit(jvp(vmap(vmap(vmap(_map_coordinates)))))/jit(jit_jvp(vmap(vmap(vmap(_map_coordinates)))))/iota[dtype=int32 shape=(3, 4096, 221, 1) dimension=0]" source_file="/home/brent/tensorf-jax/tensorf/tensor_vm.py" source_line=222}
  %constant_798 = s32[] constant(1)
  %broadcast.1234 = s32[3,4096,221]{2,1,0} broadcast(s32[] %constant_798), dimensions={}, metadata={op_name="jit(training_step)/jit(main)/jit(jvp(render_rays))/jit(jit_jvp(render_rays))/jit(jvp(interpolate))/jit(jit_jvp(interpolate))/jit(jvp(vmap(vmap(vmap(_map_coordinates)))))/jit(jit_jvp(vmap(vmap(vmap(_map_coordinates)))))/add" source_file="/home/brent/tensorf-jax/tensorf/tensor_vm.py" source_line=222}
  %add.535 = s32[3,4096,221]{2,1,0} add(s32[3,4096,221]{2,1,0} %convert.46, s32[3,4096,221]{2,1,0} %broadcast.1234), metadata={op_name="jit(training_step)/jit(main)/jit(jvp(render_rays))/jit(jit_jvp(render_rays))/jit(jvp(interpolate))/jit(jit_jvp(interpolate))/jit(jvp(vmap(vmap(vmap(_map_coordinates)))))/jit(jit_jvp(vmap(vmap(vmap(_map_coordinates)))))/add" source_file="/home/brent/tensorf-jax/tensorf/tensor_vm.py" source_line=222}
  %clamp.34 = s32[3,4096,221]{2,1,0} clamp(s32[3,4096,221]{2,1,0} %broadcast.1239, s32[3,4096,221]{2,1,0} %add.535, s32[3,4096,221]{2,1,0} %broadcast.1238), metadata={op_name="jit(training_step)/jit(main)/jit(jvp(render_rays))/jit(jit_jvp(render_rays))/jit(jvp(interpolate))/jit(jit_jvp(interpolate))/jit(jvp(vmap(vmap(vmap(_map_coordinates)))))/jit(jit_jvp(vmap(vmap(vmap(_map_coordinates)))))/jit(vmap(vmap(clip)))/jit(jit_vmap(vmap(clip)))/min" source_file="/home/brent/tensorf-jax/tensorf/tensor_vm.py" source_line=222}
  %compare.160 = pred[3,4096,221]{2,1,0} compare(s32[3,4096,221]{2,1,0} %clamp.34, s32[3,4096,221]{2,1,0} %broadcast.1239), direction=LT, metadata={op_name="jit(training_step)/jit(main)/jit(jvp(render_rays))/jit(jit_jvp(render_rays))/jit(jvp(interpolate))/jit(jit_jvp(interpolate))/jit(jvp(vmap(vmap(vmap(_map_coordinates)))))/jit(jit_jvp(vmap(vmap(vmap(_map_coordinates)))))/lt" source_file="/home/brent/tensorf-jax/tensorf/tensor_vm.py" source_line=222}
  %add.534 = s32[3,4096,221]{2,1,0} add(s32[3,4096,221]{2,1,0} %clamp.34, s32[3,4096,221]{2,1,0} %broadcast.1237), metadata={op_name="jit(training_step)/jit(main)/jit(jvp(render_rays))/jit(jit_jvp(render_rays))/jit(jvp(interpolate))/jit(jit_jvp(interpolate))/jit(jvp(vmap(vmap(vmap(_map_coordinates)))))/jit(jit_jvp(vmap(vmap(vmap(_map_coordinates)))))/add" source_file="/home/brent/tensorf-jax/tensorf/tensor_vm.py" source_line=222}
  %select.172 = s32[3,4096,221]{2,1,0} select(pred[3,4096,221]{2,1,0} %compare.160, s32[3,4096,221]{2,1,0} %add.534, s32[3,4096,221]{2,1,0} %clamp.34), metadata={op_name="jit(training_step)/jit(main)/jit(jvp(render_rays))/jit(jit_jvp(render_rays))/jit(jvp(interpolate))/jit(jit_jvp(interpolate))/jit(jvp(vmap(vmap(vmap(_map_coordinates)))))/jit(jit_jvp(vmap(vmap(vmap(_map_coordinates)))))/select_n" source_file="/home/brent/tensorf-jax/tensorf/tensor_vm.py" source_line=222}
  %bitcast.167 = s32[3,4096,221,1]{3,2,1,0} bitcast(s32[3,4096,221]{2,1,0} %select.172), metadata={op_name="jit(training_step)/jit(main)/jit(jvp(render_rays))/jit(jit_jvp(render_rays))/jit(jvp(interpolate))/jit(jit_jvp(interpolate))/jit(jvp(vmap(vmap(vmap(_map_coordinates)))))/jit(jit_jvp(vmap(vmap(vmap(_map_coordinates)))))/broadcast_in_dim[shape=(3, 4096, 221, 1) broadcast_dimensions=(0, 1, 2)]" source_file="/home/brent/tensorf-jax/tensorf/tensor_vm.py" source_line=222}
  %concatenate.153 = s32[3,4096,221,2]{3,2,1,0} concatenate(s32[3,4096,221,1]{3,2,1,0} %iota.114, s32[3,4096,221,1]{3,2,1,0} %bitcast.167), dimensions={3}, metadata={op_name="jit(training_step)/jit(main)/jit(jvp(render_rays))/jit(jit_jvp(render_rays))/jit(jvp(interpolate))/jit(jit_jvp(interpolate))/jit(jvp(vmap(vmap(vmap(_map_coordinates)))))/jit(jit_jvp(vmap(vmap(vmap(_map_coordinates)))))/concatenate[dimension=3]" source_file="/home/brent/tensorf-jax/tensorf/tensor_vm.py" source_line=222}
  %gather.82 = f32[3,4096,16,221]{3,2,1,0} gather(f32[3,16,128]{2,1,0} %param_0.745, s32[3,4096,221,2]{3,2,1,0} %concatenate.153), offset_dims={2}, collapsed_slice_dims={0,2}, start_index_map={0,2}, index_vector_dim=3, slice_sizes={1,16,1}, metadata={op_name="jit(training_step)/jit(main)/jit(jvp(render_rays))/jit(jit_jvp(render_rays))/jit(jvp(interpolate))/jit(jit_jvp(interpolate))/jit(jvp(vmap(vmap(vmap(_map_coordinates)))))/jit(jit_jvp(vmap(vmap(vmap(_map_coordinates)))))/gather[dimension_numbers=GatherDimensionNumbers(offset_dims=(2,), collapsed_slice_dims=(0, 2), start_index_map=(0, 2)) slice_sizes=(1, 16, 1) unique_indices=False indices_are_sorted=False mode=GatherScatterMode.PROMISE_IN_BOUNDS fill_value=None]" source_file="/home/brent/tensorf-jax/tensorf/tensor_vm.py" source_line=222}
  %multiply.424 = f32[3,4096,16,221]{3,2,1,0} multiply(f32[3,4096,16,221]{3,2,1,0} %broadcast.1236, f32[3,4096,16,221]{3,2,1,0} %gather.82), metadata={op_name="jit(training_step)/jit(main)/jit(jvp(render_rays))/jit(jit_jvp(render_rays))/jit(jvp(interpolate))/jit(jit_jvp(interpolate))/jit(jvp(vmap(vmap(vmap(_map_coordinates)))))/jit(jit_jvp(vmap(vmap(vmap(_map_coordinates)))))/mul" source_file="/home/brent/tensorf-jax/tensorf/tensor_vm.py" source_line=222}
  %add.533 = f32[3,4096,16,221]{3,2,1,0} add(f32[3,4096,16,221]{3,2,1,0} %copy.33, f32[3,4096,16,221]{3,2,1,0} %multiply.424), metadata={op_name="jit(training_step)/jit(main)/jit(jvp(render_rays))/jit(jit_jvp(render_rays))/jit(jvp(interpolate))/jit(jit_jvp(interpolate))/jit(jvp(vmap(vmap(vmap(_map_coordinates)))))/jit(jit_jvp(vmap(vmap(vmap(_map_coordinates)))))/add" source_file="/home/brent/tensorf-jax/tensorf/tensor_vm.py" source_line=222}
  %param_9.233 = f32[4096,221]{1,0} parameter(9)
  %slice.706 = f32[4096,1]{1,0} slice(f32[4096,221]{1,0} %param_9.233), slice={[0:4096], [220:221]}, metadata={op_name="jit(training_step)/jit(main)/jit(transpose(jvp(render_rays)))/jit(jit_transpose(jvp(render_rays)))/jit(transpose(jvp(_cumulative_reduction)))/jit(jit_transpose(jvp(_cumulative_reduction)))/slice[start_indices=(0, 0) limit_indices=(4096, 1) strides=(1, 1)]" source_file="/home/brent/tensorf-jax/tensorf/render.py" source_line=272}
  %param_10.137 = f32[4096,110]{1,0} parameter(10)
  %param_11.102 = f32[4096,110]{1,0} parameter(11)
  %add.1015 = f32[4096,110]{1,0} add(f32[4096,110]{1,0} %param_10.137, f32[4096,110]{1,0} %param_11.102), metadata={op_name="jit(training_step)/jit(main)/jit(transpose(jvp(render_rays)))/jit(jit_transpose(jvp(render_rays)))/jit(transpose(jvp(_cumulative_reduction)))/jit(jit_transpose(jvp(_cumulative_reduction)))/add" source_file="/home/brent/tensorf-jax/tensorf/render.py" source_line=272}
  %slice.705 = f32[4096,110]{1,0} slice(f32[4096,221]{1,0} %param_9.233), slice={[0:4096:1], [0:219:2]}, metadata={op_name="jit(training_step)/jit(main)/jit(transpose(jvp(render_rays)))/jit(jit_transpose(jvp(render_rays)))/jit(transpose(jvp(_cumulative_reduction)))/jit(jit_transpose(jvp(_cumulative_reduction)))/slice[start_indices=(0, 2) limit_indices=(4096, 221) strides=(1, 2)]" source_file="/home/brent/tensorf-jax/tensorf/render.py" source_line=272}
  %reverse.29 = f32[4096,110]{1,0} reverse(f32[4096,110]{1,0} %slice.705), dimensions={1}, metadata={op_name="jit(training_step)/jit(main)/jit(transpose(jvp(render_rays)))/jit(jit_transpose(jvp(render_rays)))/jit(transpose(jvp(_cumulative_reduction)))/jit(jit_transpose(jvp(_cumulative_reduction)))/slice[start_indices=(0, 2) limit_indices=(4096, 221) strides=(1, 2)]" source_file="/home/brent/tensorf-jax/tensorf/render.py" source_line=272}
  %add.1014 = f32[4096,110]{1,0} add(f32[4096,110]{1,0} %add.1015, f32[4096,110]{1,0} %reverse.29), metadata={op_name="jit(training_step)/jit(main)/jit(transpose(jvp(render_rays)))/jit(jit_transpose(jvp(render_rays)))/jit(transpose(jvp(_cumulative_reduction)))/jit(jit_transpose(jvp(_cumulative_reduction)))/add" source_file="/home/brent/tensorf-jax/tensorf/render.py" source_line=272}
  %concatenate.263 = f32[4096,111]{1,0} concatenate(f32[4096,1]{1,0} %slice.706, f32[4096,110]{1,0} %add.1014), dimensions={1}, metadata={op_name="jit(training_step)/jit(main)/jit(transpose(jvp(render_rays)))/jit(jit_transpose(jvp(render_rays)))/jit(transpose(jvp(_cumulative_reduction)))/jit(jit_transpose(jvp(_cumulative_reduction)))/concatenate[dimension=1]" source_file="/home/brent/tensorf-jax/tensorf/render.py" source_line=272}
  %constant_1803 = f32[] constant(0)
  %pad.176 = f32[4096,221]{1,0} pad(f32[4096,111]{1,0} %concatenate.263, f32[] %constant_1803), padding=0_0_0x0_0_1, metadata={op_name="jit(training_step)/jit(main)/jit(transpose(jvp(render_rays)))/jit(jit_transpose(jvp(render_rays)))/jit(transpose(jvp(_cumulative_reduction)))/jit(jit_transpose(jvp(_cumulative_reduction)))/pad[padding_config=((0, 0, 0), (0, 0, 1))]" source_file="/home/brent/tensorf-jax/tensorf/render.py" source_line=272}
  %pad.175 = f32[4096,221]{1,0} pad(f32[4096,110]{1,0} %add.1015, f32[] %constant_1803), padding=0_0_0x1_1_1, metadata={op_name="jit(training_step)/jit(main)/jit(transpose(jvp(render_rays)))/jit(jit_transpose(jvp(render_rays)))/jit(transpose(jvp(_cumulative_reduction)))/jit(jit_transpose(jvp(_cumulative_reduction)))/pad[padding_config=((0, 0, 0), (1, 1, 1))]" source_file="/home/brent/tensorf-jax/tensorf/render.py" source_line=272}
  %add.1013 = f32[4096,221]{1,0} add(f32[4096,221]{1,0} %pad.176, f32[4096,221]{1,0} %pad.175), metadata={op_name="jit(training_step)/jit(main)/jit(transpose(jvp(render_rays)))/jit(jit_transpose(jvp(render_rays)))/jit(transpose(jvp(_cumulative_reduction)))/jit(jit_transpose(jvp(_cumulative_reduction)))/add" source_file="/home/brent/tensorf-jax/tensorf/render.py" source_line=272}
  %reverse.28 = f32[4096,221]{1,0} reverse(f32[4096,221]{1,0} %add.1013), dimensions={1}, metadata={op_name="jit(training_step)/jit(main)/jit(transpose(jvp(render_rays)))/jit(jit_transpose(jvp(render_rays)))/jit(transpose(jvp(_cumulative_reduction)))/jit(jit_transpose(jvp(_cumulative_reduction)))/rev[dimensions=(1,)]" source_file="/home/brent/tensorf-jax/tensorf/render.py" source_line=272}
  %param_7.424 = f32[4096,221]{1,0} parameter(7)
  %param_8.326 = f32[4096,221]{1,0} parameter(8)
  %slice.704 = f32[4096,220]{1,0} slice(f32[4096,221]{1,0} %param_8.326), slice={[0:4096], [0:220]}, metadata={op_name="jit(training_step)/jit(main)/jit(jvp(render_rays))/jit(jit_jvp(render_rays))/gather[dimension_numbers=GatherDimensionNumbers(offset_dims=(0, 1), collapsed_slice_dims=(), start_index_map=(1,)) slice_sizes=(4096, 220) unique_indices=True indices_are_sorted=True mode=GatherScatterMode.PROMISE_IN_BOUNDS fill_value=None]" source_file="/home/brent/tensorf-jax/tensorf/render.py" source_line=286}
  %pad.174 = f32[4096,221]{1,0} pad(f32[4096,220]{1,0} %slice.704, f32[] %constant_803), padding=0_0x1_0, metadata={op_name="jit(training_step)/jit(main)/jit(jvp(render_rays))/jit(jit_jvp(render_rays))/concatenate[dimension=1]" source_file="/home/brent/tensorf-jax/tensorf/render.py" source_line=283}
  %multiply.617 = f32[4096,221]{1,0} multiply(f32[4096,221]{1,0} %param_7.424, f32[4096,221]{1,0} %pad.174), metadata={op_name="jit(training_step)/jit(main)/jit(transpose(jvp(render_rays)))/jit(jit_transpose(jvp(render_rays)))/mul" source_file="/home/brent/tensorf-jax/tensorf/render.py" source_line=280}
  %negate.55 = f32[4096,221]{1,0} negate(f32[4096,221]{1,0} %multiply.617), metadata={op_name="jit(training_step)/jit(main)/jit(transpose(jvp(render_rays)))/jit(jit_transpose(jvp(render_rays)))/neg" source_file="/home/brent/tensorf-jax/tensorf/render.py" source_line=276}
  %param_2.989 = f32[4096,221]{1,0} parameter(2)
  %negate.54 = f32[4096,221]{1,0} negate(f32[4096,221]{1,0} %param_2.989), metadata={op_name="jit(training_step)/jit(main)/jit(jvp(render_rays))/jit(jit_jvp(render_rays))/neg" source_file="/home/brent/tensorf-jax/tensorf/render.py" source_line=271}
  %param_4.625 = pred[4096]{0} parameter(4)
  %param_6.494 = f32[4096]{0} parameter(6)
  %param_5.564 = f32[4096]{0} parameter(5)
  %constant_1804 = f32[] constant(0.001)
  %broadcast.2270 = f32[4096]{0} broadcast(f32[] %constant_1804), dimensions={}, metadata={op_name="jit(training_step)/jit(main)/jit(jvp(render_rays))/jit(jit_jvp(render_rays))/add" source_file="/home/brent/tensorf-jax/tensorf/render.py" source_line=374}
  %add.1012 = f32[4096]{0} add(f32[4096]{0} %param_5.564, f32[4096]{0} %broadcast.2270), metadata={op_name="jit(training_step)/jit(main)/jit(jvp(render_rays))/jit(jit_jvp(render_rays))/add" source_file="/home/brent/tensorf-jax/tensorf/render.py" source_line=374}
  %maximum.97 = f32[4096]{0} maximum(f32[4096]{0} %param_6.494, f32[4096]{0} %add.1012), metadata={op_name="jit(training_step)/jit(main)/jit(jvp(render_rays))/jit(jit_jvp(render_rays))/max" source_file="/home/brent/tensorf-jax/tensorf/render.py" source_line=374}
  %select.419 = f32[4096]{0} select(pred[4096]{0} %param_4.625, f32[4096]{0} %maximum.97, f32[4096]{0} %broadcast.2270), metadata={op_name="jit(training_step)/jit(main)/jit(jvp(render_rays))/jit(jit_jvp(render_rays))/jit(vmap(_where))/jit(jit_vmap(_where))/select_n" source_file="/home/brent/tensorf-jax/tensorf/render.py" source_line=379}
  %broadcast.2269 = f32[4096]{0} broadcast(f32[] %constant_1803), dimensions={}, metadata={op_name="jit(training_step)/jit(main)/jit(jvp(render_rays))/jit(jit_jvp(render_rays))/max" source_file="/home/brent/tensorf-jax/tensorf/render.py" source_line=372}
  %select.417 = f32[4096]{0} select(pred[4096]{0} %param_4.625, f32[4096]{0} %param_5.564, f32[4096]{0} %broadcast.2269), metadata={op_name="jit(training_step)/jit(main)/jit(jvp(render_rays))/jit(jit_jvp(render_rays))/jit(vmap(_where))/jit(jit_vmap(_where))/select_n" source_file="/home/brent/tensorf-jax/tensorf/render.py" source_line=378}
  %subtract.390 = f32[4096]{0} subtract(f32[4096]{0} %select.419, f32[4096]{0} %select.417), metadata={op_name="jit(training_step)/jit(main)/jit(jvp(render_rays))/jit(jit_jvp(render_rays))/sub" source_file="/home/brent/tensorf-jax/tensorf/render.py" source_line=319}
  %constant_1801 = f32[] constant(0.00452488707)
  %broadcast.2268 = f32[4096]{0} broadcast(f32[] %constant_1801), dimensions={}, metadata={op_name="jit(training_step)/jit(main)/jit(jvp(render_rays))/jit(jit_jvp(render_rays))/div" source_file="/home/brent/tensorf-jax/tensorf/render.py" source_line=319}
  %multiply.616 = f32[4096]{0} multiply(f32[4096]{0} %subtract.390, f32[4096]{0} %broadcast.2268), metadata={op_name="jit(training_step)/jit(main)/jit(jvp(render_rays))/jit(jit_jvp(render_rays))/div" source_file="/home/brent/tensorf-jax/tensorf/render.py" source_line=319}
  %broadcast.2267 = f32[4096,221]{1,0} broadcast(f32[4096]{0} %multiply.616), dimensions={0}, metadata={op_name="jit(training_step)/jit(main)/jit(jvp(render_rays))/jit(jit_jvp(render_rays))/mul" source_file="/home/brent/tensorf-jax/tensorf/render.py" source_line=330}
  %multiply.615 = f32[4096,221]{1,0} multiply(f32[4096,221]{1,0} %negate.54, f32[4096,221]{1,0} %broadcast.2267), metadata={op_name="jit(training_step)/jit(main)/jit(jvp(render_rays))/jit(jit_jvp(render_rays))/mul" source_file="/home/brent/tensorf-jax/tensorf/render.py" source_line=271}
  %exponential.32 = f32[4096,221]{1,0} exponential(f32[4096,221]{1,0} %multiply.615), metadata={op_name="jit(training_step)/jit(main)/jit(jvp(render_rays))/jit(jit_jvp(render_rays))/exp" source_file="/home/brent/tensorf-jax/tensorf/render.py" source_line=276}
  %multiply.614 = f32[4096,221]{1,0} multiply(f32[4096,221]{1,0} %negate.55, f32[4096,221]{1,0} %exponential.32), metadata={op_name="jit(training_step)/jit(main)/jit(transpose(jvp(render_rays)))/jit(jit_transpose(jvp(render_rays)))/mul" source_file="/home/brent/tensorf-jax/tensorf/render.py" source_line=276}
  %add.1011 = f32[4096,221]{1,0} add(f32[4096,221]{1,0} %reverse.28, f32[4096,221]{1,0} %multiply.614), metadata={op_name="jit(training_step)/jit(main)/jit(transpose(jvp(render_rays)))/jit(jit_transpose(jvp(render_rays)))/add_any" source_file="/home/brent/tensorf-jax/tensorf/render.py" source_line=276}
  %multiply.612 = f32[4096,221]{1,0} multiply(f32[4096,221]{1,0} %add.1011, f32[4096,221]{1,0} %broadcast.2267), metadata={op_name="jit(training_step)/jit(main)/jit(transpose(jvp(render_rays)))/jit(jit_transpose(jvp(render_rays)))/mul" source_file="/home/brent/tensorf-jax/tensorf/render.py" source_line=271}
  %negate.53 = f32[4096,221]{1,0} negate(f32[4096,221]{1,0} %multiply.612), metadata={op_name="jit(training_step)/jit(main)/jit(transpose(jvp(render_rays)))/jit(jit_transpose(jvp(render_rays)))/neg" source_file="/home/brent/tensorf-jax/tensorf/render.py" source_line=271}
  %param_3.872 = f32[4096,221]{1,0} parameter(3)
  %constant_1800 = f32[] constant(inf)
  %broadcast.2262 = f32[4096,221]{1,0} broadcast(f32[] %constant_1800), dimensions={}, metadata={op_name="jit(training_step)/jit(main)/jit(jvp(render_rays))/jit(jit_jvp(render_rays))/jit(jvp(softplus))/jit(jit_jvp(softplus))/eq" source_file="/home/brent/tensorf-jax/tensorf/render.py" source_line=156}
  %compare.351 = pred[4096,221]{1,0} compare(f32[4096,221]{1,0} %param_3.872, f32[4096,221]{1,0} %broadcast.2262), direction=EQ, metadata={op_name="jit(training_step)/jit(main)/jit(jvp(render_rays))/jit(jit_jvp(render_rays))/jit(jvp(softplus))/jit(jit_jvp(softplus))/eq" source_file="/home/brent/tensorf-jax/tensorf/render.py" source_line=156}
  %broadcast.2261 = f32[4096,221]{1,0} broadcast(f32[] %constant_1803), dimensions={}, metadata={op_name="jit(training_step)/jit(main)/jit(jvp(render_rays))/jit(jit_jvp(render_rays))/jit(jvp(softplus))/jit(jit_jvp(softplus))/jit(logaddexp)/jit(jit_logaddexp)/max" source_file="/home/brent/tensorf-jax/tensorf/render.py" source_line=156}
  %select.413 = f32[4096,221]{1,0} select(pred[4096,221]{1,0} %compare.351, f32[4096,221]{1,0} %broadcast.2261, f32[4096,221]{1,0} %param_3.872), metadata={op_name="jit(training_step)/jit(main)/jit(jvp(render_rays))/jit(jit_jvp(render_rays))/jit(jvp(softplus))/jit(jit_jvp(softplus))/select_n" source_file="/home/brent/tensorf-jax/tensorf/render.py" source_line=156}
  %compare.350 = pred[4096,221]{1,0} compare(f32[4096,221]{1,0} %param_2.989, f32[4096,221]{1,0} %broadcast.2262), direction=EQ, metadata={op_name="jit(training_step)/jit(main)/jit(jvp(render_rays))/jit(jit_jvp(render_rays))/jit(jvp(softplus))/jit(jit_jvp(softplus))/eq" source_file="/home/brent/tensorf-jax/tensorf/render.py" source_line=156}
  %select.412 = f32[4096,221]{1,0} select(pred[4096,221]{1,0} %compare.350, f32[4096,221]{1,0} %broadcast.2261, f32[4096,221]{1,0} %param_2.989), metadata={op_name="jit(training_step)/jit(main)/jit(jvp(render_rays))/jit(jit_jvp(render_rays))/jit(jvp(softplus))/jit(jit_jvp(softplus))/select_n" source_file="/home/brent/tensorf-jax/tensorf/render.py" source_line=156}
  %subtract.388 = f32[4096,221]{1,0} subtract(f32[4096,221]{1,0} %select.413, f32[4096,221]{1,0} %select.412), metadata={op_name="jit(training_step)/jit(main)/jit(jvp(render_rays))/jit(jit_jvp(render_rays))/jit(jvp(softplus))/jit(jit_jvp(softplus))/sub" source_file="/home/brent/tensorf-jax/tensorf/render.py" source_line=156}
  %exponential.31 = f32[4096,221]{1,0} exponential(f32[4096,221]{1,0} %subtract.388), metadata={op_name="jit(training_step)/jit(main)/jit(jvp(render_rays))/jit(jit_jvp(render_rays))/jit(jvp(softplus))/jit(jit_jvp(softplus))/exp" source_file="/home/brent/tensorf-jax/tensorf/render.py" source_line=156}
  %multiply.611 = f32[4096,221]{1,0} multiply(f32[4096,221]{1,0} %negate.53, f32[4096,221]{1,0} %exponential.31), metadata={op_name="jit(training_step)/jit(main)/jit(transpose(jvp(render_rays)))/jit(jit_transpose(jvp(render_rays)))/jit(transpose(jvp(softplus)))/jit(jit_transpose(jvp(softplus)))/mul" source_file="/home/brent/tensorf-jax/tensorf/render.py" source_line=156}
  %broadcast.2260 = f32[3,16,4096,221]{1,2,0,3} broadcast(f32[4096,221]{1,0} %multiply.611), dimensions={2,3}, metadata={op_name="jit(training_step)/jit(main)/jit(transpose(jvp(render_rays)))/jit(jit_transpose(jvp(render_rays)))/jit(transpose(jvp(interpolate)))/jit(jit_transpose(jvp(interpolate)))/reshape[new_sizes=(3, 16, 4096, 221) dimensions=None]" source_file="/home/brent/tensorf-jax/tensorf/tensor_vm.py" source_line=95}
  %transpose.51 = f32[3,4096,16,221]{2,1,0,3} transpose(f32[3,16,4096,221]{1,2,0,3} %broadcast.2260), dimensions={0,2,1,3}, metadata={op_name="jit(training_step)/jit(main)/jit(transpose(jvp(render_rays)))/jit(jit_transpose(jvp(render_rays)))/jit(transpose(jvp(interpolate)))/jit(jit_transpose(jvp(interpolate)))/transpose[permutation=(0, 2, 1, 3)]" source_file="/home/brent/tensorf-jax/tensorf/tensor_vm.py" source_line=90}
  %copy.21 = f32[3,4096,16,221]{3,2,1,0} copy(f32[3,4096,16,221]{2,1,0,3} %transpose.51), metadata={op_name="jit(training_step)/jit(main)/jit(transpose(jvp(render_rays)))/jit(jit_transpose(jvp(render_rays)))/jit(transpose(jvp(interpolate)))/jit(jit_transpose(jvp(interpolate)))/transpose[permutation=(0, 2, 1, 3)]" source_file="/home/brent/tensorf-jax/tensorf/tensor_vm.py" source_line=90}
  ROOT %multiply.246 = f32[3,4096,16,221]{3,2,1,0} multiply(f32[3,4096,16,221]{3,2,1,0} %add.533, f32[3,4096,16,221]{3,2,1,0} %copy.21), metadata={op_name="jit(training_step)/jit(main)/jit(transpose(jvp(render_rays)))/jit(jit_transpose(jvp(render_rays)))/jit(transpose(jvp(interpolate)))/jit(jit_transpose(jvp(interpolate)))/mul" source_file="/home/brent/tensorf-jax/tensorf/tensor_vm.py" source_line=176}
}

%fused_computation.7 (param_0.24: f32[3,16,128], param_1.968: f32[], param_2.993: f32[], param_3.876: f32[], param_4.629: f32[3,16,128], param_5.570: f32[3,16,128], param_6.508: f32[3,16,128], param_7.442: f32[3,16,128]) -> (f32[3,16,128], f32[3,16,128], f32[3,16,128]) {
  %param_0.24 = f32[3,16,128]{2,1,0} parameter(0)
  %param_5.570 = f32[3,16,128]{2,1,0} parameter(5)
  %param_6.508 = f32[3,16,128]{2,1,0} parameter(6)
  %add.493.clone.1 = f32[3,16,128]{2,1,0} add(f32[3,16,128]{2,1,0} %param_5.570, f32[3,16,128]{2,1,0} %param_6.508), metadata={op_name="jit(training_step)/jit(main)/jit(transpose(jvp(render_rays)))/jit(jit_transpose(jvp(render_rays)))/jit(transpose(jvp(interpolate)))/jit(jit_transpose(jvp(interpolate)))/jit(transpose(jvp(vmap(vmap(vmap(_map_coordinates))))))/jit(jit_transpose(jvp(vmap(vmap(vmap(_map_coordinates))))))/add_any" source_file="/home/brent/tensorf-jax/tensorf/tensor_vm.py" source_line=222}
  %constant_488_clone_1 = f32[] constant(0.0100000007)
  %broadcast.811.clone.1 = f32[3,16,128]{2,1,0} broadcast(f32[] %constant_488_clone_1), dimensions={}, metadata={op_name="jit(training_step)/jit(main)/mul" source_file="/home/brent/miniconda/envs/py38/lib/python3.8/site-packages/optax/_src/transform.py" source_line=81}
  %multiply.254.clone.1 = f32[3,16,128]{2,1,0} multiply(f32[3,16,128]{2,1,0} %add.493.clone.1, f32[3,16,128]{2,1,0} %broadcast.811.clone.1), metadata={op_name="jit(training_step)/jit(main)/mul" source_file="/home/brent/miniconda/envs/py38/lib/python3.8/site-packages/optax/_src/transform.py" source_line=81}
  %param_7.442 = f32[3,16,128]{2,1,0} parameter(7)
  %constant_489_clone_1 = f32[] constant(0.9)
  %broadcast.810.clone.1 = f32[3,16,128]{2,1,0} broadcast(f32[] %constant_489_clone_1), dimensions={}, metadata={op_name="jit(training_step)/jit(main)/mul" source_file="/home/brent/miniconda/envs/py38/lib/python3.8/site-packages/optax/_src/transform.py" source_line=81}
  %multiply.253.clone.1 = f32[3,16,128]{2,1,0} multiply(f32[3,16,128]{2,1,0} %param_7.442, f32[3,16,128]{2,1,0} %broadcast.810.clone.1), metadata={op_name="jit(training_step)/jit(main)/mul" source_file="/home/brent/miniconda/envs/py38/lib/python3.8/site-packages/optax/_src/transform.py" source_line=81}
  %add.341.clone.1 = f32[3,16,128]{2,1,0} add(f32[3,16,128]{2,1,0} %multiply.254.clone.1, f32[3,16,128]{2,1,0} %multiply.253.clone.1), metadata={op_name="jit(training_step)/jit(main)/add" source_file="/home/brent/miniconda/envs/py38/lib/python3.8/site-packages/optax/_src/transform.py" source_line=81}
  %param_2.993 = f32[] parameter(2)
  %broadcast.804 = f32[3,16,128]{2,1,0} broadcast(f32[] %param_2.993), dimensions={}, metadata={op_name="jit(training_step)/jit(main)/div" source_file="/home/brent/miniconda/envs/py38/lib/python3.8/site-packages/optax/_src/transform.py" source_line=87}
  %constant_487_clone_1 = f32[] constant(0.1)
  %broadcast.808.clone.1 = f32[3,16,128]{2,1,0} broadcast(f32[] %constant_487_clone_1), dimensions={}, metadata={op_name="jit(training_step)/jit(main)/div" source_file="/home/brent/tensorf-jax/tensorf/training.py" source_line=325}
  %multiply.252.clone.1 = f32[3,16,128]{2,1,0} multiply(f32[3,16,128]{2,1,0} %add.493.clone.1, f32[3,16,128]{2,1,0} %broadcast.808.clone.1), metadata={op_name="jit(training_step)/jit(main)/div" source_file="/home/brent/tensorf-jax/tensorf/training.py" source_line=325}
  %multiply.251.clone.1 = f32[3,16,128]{2,1,0} multiply(f32[3,16,128]{2,1,0} %multiply.252.clone.1, f32[3,16,128]{2,1,0} %multiply.252.clone.1), metadata={op_name="jit(training_step)/jit(main)/mul" source_file="/home/brent/miniconda/envs/py38/lib/python3.8/site-packages/optax/_src/transform.py" source_line=81}
  %constant_485_clone_1 = f32[] constant(0.01)
  %broadcast.806.clone.1 = f32[3,16,128]{2,1,0} broadcast(f32[] %constant_485_clone_1), dimensions={}, metadata={op_name="jit(training_step)/jit(main)/mul" source_file="/home/brent/miniconda/envs/py38/lib/python3.8/site-packages/optax/_src/transform.py" source_line=81}
  %multiply.250.clone.1 = f32[3,16,128]{2,1,0} multiply(f32[3,16,128]{2,1,0} %multiply.251.clone.1, f32[3,16,128]{2,1,0} %broadcast.806.clone.1), metadata={op_name="jit(training_step)/jit(main)/mul" source_file="/home/brent/miniconda/envs/py38/lib/python3.8/site-packages/optax/_src/transform.py" source_line=81}
  %param_4.629 = f32[3,16,128]{2,1,0} parameter(4)
  %constant_486_clone_1 = f32[] constant(0.99)
  %broadcast.805.clone.1 = f32[3,16,128]{2,1,0} broadcast(f32[] %constant_486_clone_1), dimensions={}, metadata={op_name="jit(training_step)/jit(main)/mul" source_file="/home/brent/miniconda/envs/py38/lib/python3.8/site-packages/optax/_src/transform.py" source_line=81}
  %multiply.249.clone.1 = f32[3,16,128]{2,1,0} multiply(f32[3,16,128]{2,1,0} %param_4.629, f32[3,16,128]{2,1,0} %broadcast.805.clone.1), metadata={op_name="jit(training_step)/jit(main)/mul" source_file="/home/brent/miniconda/envs/py38/lib/python3.8/site-packages/optax/_src/transform.py" source_line=81}
  %add.340.clone.1 = f32[3,16,128]{2,1,0} add(f32[3,16,128]{2,1,0} %multiply.250.clone.1, f32[3,16,128]{2,1,0} %multiply.249.clone.1), metadata={op_name="jit(training_step)/jit(main)/add" source_file="/home/brent/miniconda/envs/py38/lib/python3.8/site-packages/optax/_src/transform.py" source_line=81}
  %param_1.968 = f32[] parameter(1)
  %broadcast.803 = f32[3,16,128]{2,1,0} broadcast(f32[] %param_1.968), dimensions={}, metadata={op_name="jit(training_step)/jit(main)/div" source_file="/home/brent/miniconda/envs/py38/lib/python3.8/site-packages/optax/_src/transform.py" source_line=87}
  %divide.26 = f32[3,16,128]{2,1,0} divide(f32[3,16,128]{2,1,0} %add.340.clone.1, f32[3,16,128]{2,1,0} %broadcast.803), metadata={op_name="jit(training_step)/jit(main)/div" source_file="/home/brent/miniconda/envs/py38/lib/python3.8/site-packages/optax/_src/transform.py" source_line=87}
  %sqrt.1 = f32[3,16,128]{2,1,0} sqrt(f32[3,16,128]{2,1,0} %divide.26), metadata={op_name="jit(training_step)/jit(main)/sqrt" source_file="/home/brent/miniconda/envs/py38/lib/python3.8/site-packages/optax/_src/transform.py" source_line=302}
  %constant_484 = f32[] constant(1e-08)
  %broadcast.801 = f32[3,16,128]{2,1,0} broadcast(f32[] %constant_484), dimensions={}, metadata={op_name="jit(training_step)/jit(main)/add" source_file="/home/brent/miniconda/envs/py38/lib/python3.8/site-packages/optax/_src/transform.py" source_line=302}
  %add.339 = f32[3,16,128]{2,1,0} add(f32[3,16,128]{2,1,0} %sqrt.1, f32[3,16,128]{2,1,0} %broadcast.801), metadata={op_name="jit(training_step)/jit(main)/add" source_file="/home/brent/miniconda/envs/py38/lib/python3.8/site-packages/optax/_src/transform.py" source_line=302}
  %multiply.248 = f32[3,16,128]{2,1,0} multiply(f32[3,16,128]{2,1,0} %broadcast.804, f32[3,16,128]{2,1,0} %add.339)
  %divide.25 = f32[3,16,128]{2,1,0} divide(f32[3,16,128]{2,1,0} %add.341.clone.1, f32[3,16,128]{2,1,0} %multiply.248), metadata={op_name="jit(training_step)/jit(main)/div" source_file="/home/brent/miniconda/envs/py38/lib/python3.8/site-packages/optax/_src/transform.py" source_line=302}
  %param_3.876 = f32[] parameter(3)
  %constant_483 = f32[] constant(-0.02)
  %multiply.398 = f32[] multiply(f32[] %param_3.876, f32[] %constant_483), metadata={op_name="jit(training_step)/jit(main)/mul" source_file="/home/brent/tensorf-jax/tensorf/training.py" source_line=347}
  %broadcast.800 = f32[3,16,128]{2,1,0} broadcast(f32[] %multiply.398), dimensions={}, metadata={op_name="jit(training_step)/jit(main)/mul" source_file="/home/brent/tensorf-jax/tensorf/training.py" source_line=347}
  %multiply.247 = f32[3,16,128]{2,1,0} multiply(f32[3,16,128]{2,1,0} %divide.25, f32[3,16,128]{2,1,0} %broadcast.800), metadata={op_name="jit(training_step)/jit(main)/mul" source_file="/home/brent/tensorf-jax/tensorf/training.py" source_line=347}
  %add.338 = f32[3,16,128]{2,1,0} add(f32[3,16,128]{2,1,0} %param_0.24, f32[3,16,128]{2,1,0} %multiply.247), metadata={op_name="jit(training_step)/jit(main)/add" source_file="/home/brent/miniconda/envs/py38/lib/python3.8/site-packages/optax/_src/update.py" source_line=43}
  ROOT %tuple.48 = (f32[3,16,128]{2,1,0}, f32[3,16,128]{2,1,0}, f32[3,16,128]{2,1,0}) tuple(f32[3,16,128]{2,1,0} %add.338, f32[3,16,128]{2,1,0} %add.340.clone.1, f32[3,16,128]{2,1,0} %add.341.clone.1)
}

%region_26.1665 (Arg_0.1666: f32[], Arg_1.1667: f32[]) -> f32[] {
  %Arg_0.1666 = f32[] parameter(0)
  %Arg_1.1667 = f32[] parameter(1)
  ROOT %add.1668 = f32[] add(f32[] %Arg_0.1666, f32[] %Arg_1.1667), metadata={op_name="add" source_file="/home/brent/tensorf-jax/tensorf/render.py" source_line=452}
}

%input_fused_computation_scatter.4 (param_0.515: f32[3,4096,16,221], param_1.677: f32[3,4096,221]) -> f32[3,16,128] {
  %constant_490 = f32[] constant(0)
  %broadcast.965 = f32[3,16,128]{2,1,0} broadcast(f32[] %constant_490), dimensions={}, metadata={op_name="jit(training_step)/jit(main)/jit(transpose(jvp(render_rays)))/jit(jit_transpose(jvp(render_rays)))/jit(transpose(jvp(interpolate)))/jit(jit_transpose(jvp(interpolate)))/jit(transpose(jvp(vmap(vmap(vmap(_map_coordinates))))))/jit(jit_transpose(jvp(vmap(vmap(vmap(_map_coordinates))))))/broadcast_in_dim[shape=(3, 16, 128) broadcast_dimensions=()]" source_file="/home/brent/tensorf-jax/tensorf/tensor_vm.py" source_line=222}
  %iota.111 = s32[3,4096,221,1]{2,1,0,3} iota(), iota_dimension=0, metadata={op_name="jit(training_step)/jit(main)/jit(jvp(render_rays))/jit(jit_jvp(render_rays))/jit(jvp(interpolate))/jit(jit_jvp(interpolate))/jit(jvp(vmap(vmap(vmap(_map_coordinates)))))/jit(jit_jvp(vmap(vmap(vmap(_map_coordinates)))))/iota[dtype=int32 shape=(3, 4096, 221, 1) dimension=0]" source_file="/home/brent/tensorf-jax/tensorf/tensor_vm.py" source_line=222}
  %constant_786 = s32[] constant(0)
  %broadcast.1219 = s32[3,4096,221]{2,1,0} broadcast(s32[] %constant_786), dimensions={}, metadata={op_name="jit(training_step)/jit(main)/jit(jvp(render_rays))/jit(jit_jvp(render_rays))/jit(jvp(interpolate))/jit(jit_jvp(interpolate))/jit(jvp(vmap(vmap(vmap(_map_coordinates)))))/jit(jit_jvp(vmap(vmap(vmap(_map_coordinates)))))/jit(vmap(vmap(clip)))/jit(jit_vmap(vmap(clip)))/max" source_file="/home/brent/tensorf-jax/tensorf/tensor_vm.py" source_line=222}
  %param_1.677 = f32[3,4096,221]{2,1,0} parameter(1)
  %floor.63 = f32[3,4096,221]{2,1,0} floor(f32[3,4096,221]{2,1,0} %param_1.677), metadata={op_name="jit(training_step)/jit(main)/jit(jvp(render_rays))/jit(jit_jvp(render_rays))/jit(jvp(interpolate))/jit(jit_jvp(interpolate))/jit(jvp(vmap(vmap(vmap(_map_coordinates)))))/jit(jit_jvp(vmap(vmap(vmap(_map_coordinates)))))/floor" source_file="/home/brent/tensorf-jax/tensorf/tensor_vm.py" source_line=222}
  %convert.42 = s32[3,4096,221]{2,1,0} convert(f32[3,4096,221]{2,1,0} %floor.63), metadata={op_name="jit(training_step)/jit(main)/jit(jvp(render_rays))/jit(jit_jvp(render_rays))/jit(jvp(interpolate))/jit(jit_jvp(interpolate))/jit(jvp(vmap(vmap(vmap(_map_coordinates)))))/jit(jit_jvp(vmap(vmap(vmap(_map_coordinates)))))/convert_element_type[new_dtype=int32 weak_type=False]" source_file="/home/brent/tensorf-jax/tensorf/tensor_vm.py" source_line=222}
  %constant_785 = s32[] constant(127)
  %broadcast.1218 = s32[3,4096,221]{2,1,0} broadcast(s32[] %constant_785), dimensions={}, metadata={op_name="jit(training_step)/jit(main)/jit(jvp(render_rays))/jit(jit_jvp(render_rays))/jit(jvp(interpolate))/jit(jit_jvp(interpolate))/jit(jvp(vmap(vmap(vmap(_map_coordinates)))))/jit(jit_jvp(vmap(vmap(vmap(_map_coordinates)))))/jit(vmap(vmap(clip)))/jit(jit_vmap(vmap(clip)))/min" source_file="/home/brent/tensorf-jax/tensorf/tensor_vm.py" source_line=222}
  %clamp.31 = s32[3,4096,221]{2,1,0} clamp(s32[3,4096,221]{2,1,0} %broadcast.1219, s32[3,4096,221]{2,1,0} %convert.42, s32[3,4096,221]{2,1,0} %broadcast.1218), metadata={op_name="jit(training_step)/jit(main)/jit(jvp(render_rays))/jit(jit_jvp(render_rays))/jit(jvp(interpolate))/jit(jit_jvp(interpolate))/jit(jvp(vmap(vmap(vmap(_map_coordinates)))))/jit(jit_jvp(vmap(vmap(vmap(_map_coordinates)))))/jit(vmap(vmap(clip)))/jit(jit_vmap(vmap(clip)))/min" source_file="/home/brent/tensorf-jax/tensorf/tensor_vm.py" source_line=222}
  %compare.157 = pred[3,4096,221]{2,1,0} compare(s32[3,4096,221]{2,1,0} %clamp.31, s32[3,4096,221]{2,1,0} %broadcast.1219), direction=LT, metadata={op_name="jit(training_step)/jit(main)/jit(jvp(render_rays))/jit(jit_jvp(render_rays))/jit(jvp(interpolate))/jit(jit_jvp(interpolate))/jit(jvp(vmap(vmap(vmap(_map_coordinates)))))/jit(jit_jvp(vmap(vmap(vmap(_map_coordinates)))))/lt" source_file="/home/brent/tensorf-jax/tensorf/tensor_vm.py" source_line=222}
  %constant_784 = s32[] constant(128)
  %broadcast.1217 = s32[3,4096,221]{2,1,0} broadcast(s32[] %constant_784), dimensions={}, metadata={op_name="jit(training_step)/jit(main)/jit(jvp(render_rays))/jit(jit_jvp(render_rays))/jit(jvp(interpolate))/jit(jit_jvp(interpolate))/jit(jvp(vmap(vmap(vmap(_map_coordinates)))))/jit(jit_jvp(vmap(vmap(vmap(_map_coordinates)))))/add" source_file="/home/brent/tensorf-jax/tensorf/tensor_vm.py" source_line=222}
  %add.527 = s32[3,4096,221]{2,1,0} add(s32[3,4096,221]{2,1,0} %clamp.31, s32[3,4096,221]{2,1,0} %broadcast.1217), metadata={op_name="jit(training_step)/jit(main)/jit(jvp(render_rays))/jit(jit_jvp(render_rays))/jit(jvp(interpolate))/jit(jit_jvp(interpolate))/jit(jvp(vmap(vmap(vmap(_map_coordinates)))))/jit(jit_jvp(vmap(vmap(vmap(_map_coordinates)))))/add" source_file="/home/brent/tensorf-jax/tensorf/tensor_vm.py" source_line=222}
  %select.169 = s32[3,4096,221]{2,1,0} select(pred[3,4096,221]{2,1,0} %compare.157, s32[3,4096,221]{2,1,0} %add.527, s32[3,4096,221]{2,1,0} %clamp.31), metadata={op_name="jit(training_step)/jit(main)/jit(jvp(render_rays))/jit(jit_jvp(render_rays))/jit(jvp(interpolate))/jit(jit_jvp(interpolate))/jit(jvp(vmap(vmap(vmap(_map_coordinates)))))/jit(jit_jvp(vmap(vmap(vmap(_map_coordinates)))))/select_n" source_file="/home/brent/tensorf-jax/tensorf/tensor_vm.py" source_line=222}
  %bitcast.164 = s32[3,4096,221,1]{2,1,0,3} bitcast(s32[3,4096,221]{2,1,0} %select.169), metadata={op_name="jit(training_step)/jit(main)/jit(jvp(render_rays))/jit(jit_jvp(render_rays))/jit(jvp(interpolate))/jit(jit_jvp(interpolate))/jit(jvp(vmap(vmap(vmap(_map_coordinates)))))/jit(jit_jvp(vmap(vmap(vmap(_map_coordinates)))))/broadcast_in_dim[shape=(3, 4096, 221, 1) broadcast_dimensions=(0, 1, 2)]" source_file="/home/brent/tensorf-jax/tensorf/tensor_vm.py" source_line=222}
  %concatenate.150 = s32[3,4096,221,2]{2,1,0,3} concatenate(s32[3,4096,221,1]{2,1,0,3} %iota.111, s32[3,4096,221,1]{2,1,0,3} %bitcast.164), dimensions={3}, metadata={op_name="jit(training_step)/jit(main)/jit(jvp(render_rays))/jit(jit_jvp(render_rays))/jit(jvp(interpolate))/jit(jit_jvp(interpolate))/jit(jvp(vmap(vmap(vmap(_map_coordinates)))))/jit(jit_jvp(vmap(vmap(vmap(_map_coordinates)))))/concatenate[dimension=3]" source_file="/home/brent/tensorf-jax/tensorf/tensor_vm.py" source_line=222}
  %constant_768 = f32[] constant(1)
  %broadcast.1205 = f32[3,4096,221]{2,1,0} broadcast(f32[] %constant_768), dimensions={}, metadata={op_name="jit(training_step)/jit(main)/jit(jvp(render_rays))/jit(jit_jvp(render_rays))/jit(jvp(interpolate))/jit(jit_jvp(interpolate))/jit(jvp(vmap(vmap(vmap(_map_coordinates)))))/jit(jit_jvp(vmap(vmap(vmap(_map_coordinates)))))/sub" source_file="/home/brent/tensorf-jax/tensorf/tensor_vm.py" source_line=222}
  %subtract.124 = f32[3,4096,221]{2,1,0} subtract(f32[3,4096,221]{2,1,0} %param_1.677, f32[3,4096,221]{2,1,0} %floor.63), metadata={op_name="jit(training_step)/jit(main)/jit(jvp(render_rays))/jit(jit_jvp(render_rays))/jit(jvp(interpolate))/jit(jit_jvp(interpolate))/jit(jvp(vmap(vmap(vmap(_map_coordinates)))))/jit(jit_jvp(vmap(vmap(vmap(_map_coordinates)))))/sub" source_file="/home/brent/tensorf-jax/tensorf/tensor_vm.py" source_line=222}
  %subtract.123 = f32[3,4096,221]{2,1,0} subtract(f32[3,4096,221]{2,1,0} %broadcast.1205, f32[3,4096,221]{2,1,0} %subtract.124), metadata={op_name="jit(training_step)/jit(main)/jit(jvp(render_rays))/jit(jit_jvp(render_rays))/jit(jvp(interpolate))/jit(jit_jvp(interpolate))/jit(jvp(vmap(vmap(vmap(_map_coordinates)))))/jit(jit_jvp(vmap(vmap(vmap(_map_coordinates)))))/sub" source_file="/home/brent/tensorf-jax/tensorf/tensor_vm.py" source_line=222}
  %broadcast.1204 = f32[3,4096,16,221]{2,1,0,3} broadcast(f32[3,4096,221]{2,1,0} %subtract.123), dimensions={0,1,3}, metadata={op_name="jit(training_step)/jit(main)/jit(jvp(render_rays))/jit(jit_jvp(render_rays))/jit(jvp(interpolate))/jit(jit_jvp(interpolate))/jit(jvp(vmap(vmap(vmap(_map_coordinates)))))/jit(jit_jvp(vmap(vmap(vmap(_map_coordinates)))))/mul" source_file="/home/brent/tensorf-jax/tensorf/tensor_vm.py" source_line=222}
  %param_0.515 = f32[3,4096,16,221]{2,1,0,3} parameter(0)
  %multiply.255 = f32[3,4096,16,221]{2,1,0,3} multiply(f32[3,4096,16,221]{2,1,0,3} %broadcast.1204, f32[3,4096,16,221]{2,1,0,3} %param_0.515), metadata={op_name="jit(training_step)/jit(main)/jit(transpose(jvp(render_rays)))/jit(jit_transpose(jvp(render_rays)))/jit(transpose(jvp(interpolate)))/jit(jit_transpose(jvp(interpolate)))/jit(transpose(jvp(vmap(vmap(vmap(_map_coordinates))))))/jit(jit_transpose(jvp(vmap(vmap(vmap(_map_coordinates))))))/mul" source_file="/home/brent/tensorf-jax/tensorf/tensor_vm.py" source_line=222}
  ROOT %scatter.46 = f32[3,16,128]{2,1,0} scatter(f32[3,16,128]{2,1,0} %broadcast.965, s32[3,4096,221,2]{2,1,0,3} %concatenate.150, f32[3,4096,16,221]{2,1,0,3} %multiply.255), update_window_dims={2}, inserted_window_dims={0,2}, scatter_dims_to_operand_dims={0,2}, index_vector_dim=3, to_apply=%region_26.1665, metadata={op_name="jit(training_step)/jit(main)/jit(transpose(jvp(render_rays)))/jit(jit_transpose(jvp(render_rays)))/jit(transpose(jvp(interpolate)))/jit(jit_transpose(jvp(interpolate)))/jit(transpose(jvp(vmap(vmap(vmap(_map_coordinates))))))/jit(jit_transpose(jvp(vmap(vmap(vmap(_map_coordinates))))))/scatter-add[update_consts=() dimension_numbers=ScatterDimensionNumbers(update_window_dims=(2,), inserted_window_dims=(0, 2), scatter_dims_to_operand_dims=(0, 2)) indices_are_sorted=False unique_indices=False mode=GatherScatterMode.PROMISE_IN_BOUNDS]" source_file="/home/brent/tensorf-jax/tensorf/tensor_vm.py" source_line=222}
}

%region_25.1661 (Arg_0.1662: f32[], Arg_1.1663: f32[]) -> f32[] {
  %Arg_0.1662 = f32[] parameter(0)
  %Arg_1.1663 = f32[] parameter(1)
  ROOT %add.1664 = f32[] add(f32[] %Arg_0.1662, f32[] %Arg_1.1663), metadata={op_name="add" source_file="/home/brent/tensorf-jax/tensorf/render.py" source_line=452}
}

%input_fused_computation_scatter.5 (param_0.510: f32[3,4096,16,221], param_1.673: f32[3,4096,221]) -> f32[3,16,128] {
  %constant_491 = f32[] constant(0)
  %broadcast.966 = f32[3,16,128]{2,1,0} broadcast(f32[] %constant_491), dimensions={}, metadata={op_name="jit(training_step)/jit(main)/jit(transpose(jvp(render_rays)))/jit(jit_transpose(jvp(render_rays)))/jit(transpose(jvp(interpolate)))/jit(jit_transpose(jvp(interpolate)))/jit(transpose(jvp(vmap(vmap(vmap(_map_coordinates))))))/jit(jit_transpose(jvp(vmap(vmap(vmap(_map_coordinates))))))/broadcast_in_dim[shape=(3, 16, 128) broadcast_dimensions=()]" source_file="/home/brent/tensorf-jax/tensorf/tensor_vm.py" source_line=222}
  %iota.107 = s32[3,4096,221,1]{3,2,1,0} iota(), iota_dimension=0, metadata={op_name="jit(training_step)/jit(main)/jit(jvp(render_rays))/jit(jit_jvp(render_rays))/jit(jvp(interpolate))/jit(jit_jvp(interpolate))/jit(jvp(vmap(vmap(vmap(_map_coordinates)))))/jit(jit_jvp(vmap(vmap(vmap(_map_coordinates)))))/iota[dtype=int32 shape=(3, 4096, 221, 1) dimension=0]" source_file="/home/brent/tensorf-jax/tensorf/tensor_vm.py" source_line=222}
  %constant_760 = s32[] constant(0)
  %broadcast.1197 = s32[3,4096,221]{2,1,0} broadcast(s32[] %constant_760), dimensions={}, metadata={op_name="jit(training_step)/jit(main)/jit(jvp(render_rays))/jit(jit_jvp(render_rays))/jit(jvp(interpolate))/jit(jit_jvp(interpolate))/jit(jvp(vmap(vmap(vmap(_map_coordinates)))))/jit(jit_jvp(vmap(vmap(vmap(_map_coordinates)))))/jit(vmap(vmap(clip)))/jit(jit_vmap(vmap(clip)))/max" source_file="/home/brent/tensorf-jax/tensorf/tensor_vm.py" source_line=222}
  %param_1.673 = f32[3,4096,221]{2,1,0} parameter(1)
  %floor.55 = f32[3,4096,221]{2,1,0} floor(f32[3,4096,221]{2,1,0} %param_1.673), metadata={op_name="jit(training_step)/jit(main)/jit(jvp(render_rays))/jit(jit_jvp(render_rays))/jit(jvp(interpolate))/jit(jit_jvp(interpolate))/jit(jvp(vmap(vmap(vmap(_map_coordinates)))))/jit(jit_jvp(vmap(vmap(vmap(_map_coordinates)))))/floor" source_file="/home/brent/tensorf-jax/tensorf/tensor_vm.py" source_line=222}
  %convert.38 = s32[3,4096,221]{2,1,0} convert(f32[3,4096,221]{2,1,0} %floor.55), metadata={op_name="jit(training_step)/jit(main)/jit(jvp(render_rays))/jit(jit_jvp(render_rays))/jit(jvp(interpolate))/jit(jit_jvp(interpolate))/jit(jvp(vmap(vmap(vmap(_map_coordinates)))))/jit(jit_jvp(vmap(vmap(vmap(_map_coordinates)))))/convert_element_type[new_dtype=int32 weak_type=False]" source_file="/home/brent/tensorf-jax/tensorf/tensor_vm.py" source_line=222}
  %constant_759 = s32[] constant(1)
  %broadcast.1196 = s32[3,4096,221]{2,1,0} broadcast(s32[] %constant_759), dimensions={}, metadata={op_name="jit(training_step)/jit(main)/jit(jvp(render_rays))/jit(jit_jvp(render_rays))/jit(jvp(interpolate))/jit(jit_jvp(interpolate))/jit(jvp(vmap(vmap(vmap(_map_coordinates)))))/jit(jit_jvp(vmap(vmap(vmap(_map_coordinates)))))/add" source_file="/home/brent/tensorf-jax/tensorf/tensor_vm.py" source_line=222}
  %add.522 = s32[3,4096,221]{2,1,0} add(s32[3,4096,221]{2,1,0} %convert.38, s32[3,4096,221]{2,1,0} %broadcast.1196), metadata={op_name="jit(training_step)/jit(main)/jit(jvp(render_rays))/jit(jit_jvp(render_rays))/jit(jvp(interpolate))/jit(jit_jvp(interpolate))/jit(jvp(vmap(vmap(vmap(_map_coordinates)))))/jit(jit_jvp(vmap(vmap(vmap(_map_coordinates)))))/add" source_file="/home/brent/tensorf-jax/tensorf/tensor_vm.py" source_line=222}
  %constant_758 = s32[] constant(127)
  %broadcast.1195 = s32[3,4096,221]{2,1,0} broadcast(s32[] %constant_758), dimensions={}, metadata={op_name="jit(training_step)/jit(main)/jit(jvp(render_rays))/jit(jit_jvp(render_rays))/jit(jvp(interpolate))/jit(jit_jvp(interpolate))/jit(jvp(vmap(vmap(vmap(_map_coordinates)))))/jit(jit_jvp(vmap(vmap(vmap(_map_coordinates)))))/jit(vmap(vmap(clip)))/jit(jit_vmap(vmap(clip)))/min" source_file="/home/brent/tensorf-jax/tensorf/tensor_vm.py" source_line=222}
  %clamp.27 = s32[3,4096,221]{2,1,0} clamp(s32[3,4096,221]{2,1,0} %broadcast.1197, s32[3,4096,221]{2,1,0} %add.522, s32[3,4096,221]{2,1,0} %broadcast.1195), metadata={op_name="jit(training_step)/jit(main)/jit(jvp(render_rays))/jit(jit_jvp(render_rays))/jit(jvp(interpolate))/jit(jit_jvp(interpolate))/jit(jvp(vmap(vmap(vmap(_map_coordinates)))))/jit(jit_jvp(vmap(vmap(vmap(_map_coordinates)))))/jit(vmap(vmap(clip)))/jit(jit_vmap(vmap(clip)))/min" source_file="/home/brent/tensorf-jax/tensorf/tensor_vm.py" source_line=222}
  %compare.153 = pred[3,4096,221]{2,1,0} compare(s32[3,4096,221]{2,1,0} %clamp.27, s32[3,4096,221]{2,1,0} %broadcast.1197), direction=LT, metadata={op_name="jit(training_step)/jit(main)/jit(jvp(render_rays))/jit(jit_jvp(render_rays))/jit(jvp(interpolate))/jit(jit_jvp(interpolate))/jit(jvp(vmap(vmap(vmap(_map_coordinates)))))/jit(jit_jvp(vmap(vmap(vmap(_map_coordinates)))))/lt" source_file="/home/brent/tensorf-jax/tensorf/tensor_vm.py" source_line=222}
  %constant_757 = s32[] constant(128)
  %broadcast.1193 = s32[3,4096,221]{2,1,0} broadcast(s32[] %constant_757), dimensions={}, metadata={op_name="jit(training_step)/jit(main)/jit(jvp(render_rays))/jit(jit_jvp(render_rays))/jit(jvp(interpolate))/jit(jit_jvp(interpolate))/jit(jvp(vmap(vmap(vmap(_map_coordinates)))))/jit(jit_jvp(vmap(vmap(vmap(_map_coordinates)))))/add" source_file="/home/brent/tensorf-jax/tensorf/tensor_vm.py" source_line=222}
  %add.521 = s32[3,4096,221]{2,1,0} add(s32[3,4096,221]{2,1,0} %clamp.27, s32[3,4096,221]{2,1,0} %broadcast.1193), metadata={op_name="jit(training_step)/jit(main)/jit(jvp(render_rays))/jit(jit_jvp(render_rays))/jit(jvp(interpolate))/jit(jit_jvp(interpolate))/jit(jvp(vmap(vmap(vmap(_map_coordinates)))))/jit(jit_jvp(vmap(vmap(vmap(_map_coordinates)))))/add" source_file="/home/brent/tensorf-jax/tensorf/tensor_vm.py" source_line=222}
  %select.165 = s32[3,4096,221]{2,1,0} select(pred[3,4096,221]{2,1,0} %compare.153, s32[3,4096,221]{2,1,0} %add.521, s32[3,4096,221]{2,1,0} %clamp.27), metadata={op_name="jit(training_step)/jit(main)/jit(jvp(render_rays))/jit(jit_jvp(render_rays))/jit(jvp(interpolate))/jit(jit_jvp(interpolate))/jit(jvp(vmap(vmap(vmap(_map_coordinates)))))/jit(jit_jvp(vmap(vmap(vmap(_map_coordinates)))))/select_n" source_file="/home/brent/tensorf-jax/tensorf/tensor_vm.py" source_line=222}
  %bitcast.160 = s32[3,4096,221,1]{3,2,1,0} bitcast(s32[3,4096,221]{2,1,0} %select.165), metadata={op_name="jit(training_step)/jit(main)/jit(jvp(render_rays))/jit(jit_jvp(render_rays))/jit(jvp(interpolate))/jit(jit_jvp(interpolate))/jit(jvp(vmap(vmap(vmap(_map_coordinates)))))/jit(jit_jvp(vmap(vmap(vmap(_map_coordinates)))))/broadcast_in_dim[shape=(3, 4096, 221, 1) broadcast_dimensions=(0, 1, 2)]" source_file="/home/brent/tensorf-jax/tensorf/tensor_vm.py" source_line=222}
  %concatenate.146 = s32[3,4096,221,2]{3,2,1,0} concatenate(s32[3,4096,221,1]{3,2,1,0} %iota.107, s32[3,4096,221,1]{3,2,1,0} %bitcast.160), dimensions={3}, metadata={op_name="jit(training_step)/jit(main)/jit(jvp(render_rays))/jit(jit_jvp(render_rays))/jit(jvp(interpolate))/jit(jit_jvp(interpolate))/jit(jvp(vmap(vmap(vmap(_map_coordinates)))))/jit(jit_jvp(vmap(vmap(vmap(_map_coordinates)))))/concatenate[dimension=3]" source_file="/home/brent/tensorf-jax/tensorf/tensor_vm.py" source_line=222}
  %subtract.77 = f32[3,4096,221]{2,1,0} subtract(f32[3,4096,221]{2,1,0} %param_1.673, f32[3,4096,221]{2,1,0} %floor.55), metadata={op_name="jit(training_step)/jit(main)/jit(jvp(render_rays))/jit(jit_jvp(render_rays))/jit(jvp(interpolate))/jit(jit_jvp(interpolate))/jit(jvp(vmap(vmap(vmap(_map_coordinates)))))/jit(jit_jvp(vmap(vmap(vmap(_map_coordinates)))))/sub" source_file="/home/brent/tensorf-jax/tensorf/tensor_vm.py" source_line=222}
  %broadcast.967 = f32[3,4096,16,221]{3,2,1,0} broadcast(f32[3,4096,221]{2,1,0} %subtract.77), dimensions={0,1,3}, metadata={op_name="jit(training_step)/jit(main)/jit(jvp(render_rays))/jit(jit_jvp(render_rays))/jit(jvp(interpolate))/jit(jit_jvp(interpolate))/jit(jvp(vmap(vmap(vmap(_map_coordinates)))))/jit(jit_jvp(vmap(vmap(vmap(_map_coordinates)))))/mul" source_file="/home/brent/tensorf-jax/tensorf/tensor_vm.py" source_line=222}
  %param_0.510 = f32[3,4096,16,221]{2,1,0,3} parameter(0)
  %copy.22 = f32[3,4096,16,221]{3,2,1,0} copy(f32[3,4096,16,221]{2,1,0,3} %param_0.510), metadata={op_name="jit(training_step)/jit(main)/jit(transpose(jvp(render_rays)))/jit(jit_transpose(jvp(render_rays)))/jit(transpose(jvp(interpolate)))/jit(jit_transpose(jvp(interpolate)))/mul" source_file="/home/brent/tensorf-jax/tensorf/tensor_vm.py" source_line=176}
  %multiply.256 = f32[3,4096,16,221]{3,2,1,0} multiply(f32[3,4096,16,221]{3,2,1,0} %broadcast.967, f32[3,4096,16,221]{3,2,1,0} %copy.22), metadata={op_name="jit(training_step)/jit(main)/jit(transpose(jvp(render_rays)))/jit(jit_transpose(jvp(render_rays)))/jit(transpose(jvp(interpolate)))/jit(jit_transpose(jvp(interpolate)))/jit(transpose(jvp(vmap(vmap(vmap(_map_coordinates))))))/jit(jit_transpose(jvp(vmap(vmap(vmap(_map_coordinates))))))/mul" source_file="/home/brent/tensorf-jax/tensorf/tensor_vm.py" source_line=222}
  ROOT %scatter.47 = f32[3,16,128]{2,1,0} scatter(f32[3,16,128]{2,1,0} %broadcast.966, s32[3,4096,221,2]{3,2,1,0} %concatenate.146, f32[3,4096,16,221]{3,2,1,0} %multiply.256), update_window_dims={2}, inserted_window_dims={0,2}, scatter_dims_to_operand_dims={0,2}, index_vector_dim=3, to_apply=%region_25.1661, metadata={op_name="jit(training_step)/jit(main)/jit(transpose(jvp(render_rays)))/jit(jit_transpose(jvp(render_rays)))/jit(transpose(jvp(interpolate)))/jit(jit_transpose(jvp(interpolate)))/jit(transpose(jvp(vmap(vmap(vmap(_map_coordinates))))))/jit(jit_transpose(jvp(vmap(vmap(vmap(_map_coordinates))))))/scatter-add[update_consts=() dimension_numbers=ScatterDimensionNumbers(update_window_dims=(2,), inserted_window_dims=(0, 2), scatter_dims_to_operand_dims=(0, 2)) indices_are_sorted=False unique_indices=False mode=GatherScatterMode.PROMISE_IN_BOUNDS]" source_file="/home/brent/tensorf-jax/tensorf/tensor_vm.py" source_line=222}
}

%fused_computation.10 (param_0.743: f32[3,16,128,128], param_1.963: f32[3,4096,221], param_2.984: f32[3,4096,221], param_3.865: f32[4096,221], param_4.616: f32[4096,221], param_5.553: pred[4096], param_6.480: f32[4096], param_7.414: f32[4096], param_8.318: f32[4096,221], param_9.219: f32[4096,221], param_10.123: f32[4096,221], param_11.85: f32[4096,110], param_12.47: f32[4096,110]) -> f32[3,4096,16,221] {
  %param_10.123 = f32[4096,221]{1,0} parameter(10)
  %slice.700 = f32[4096,1]{1,0} slice(f32[4096,221]{1,0} %param_10.123), slice={[0:4096], [220:221]}, metadata={op_name="jit(training_step)/jit(main)/jit(transpose(jvp(render_rays)))/jit(jit_transpose(jvp(render_rays)))/jit(transpose(jvp(_cumulative_reduction)))/jit(jit_transpose(jvp(_cumulative_reduction)))/slice[start_indices=(0, 0) limit_indices=(4096, 1) strides=(1, 1)]" source_file="/home/brent/tensorf-jax/tensorf/render.py" source_line=272}
  %param_11.85 = f32[4096,110]{1,0} parameter(11)
  %param_12.47 = f32[4096,110]{1,0} parameter(12)
  %add.1003 = f32[4096,110]{1,0} add(f32[4096,110]{1,0} %param_11.85, f32[4096,110]{1,0} %param_12.47), metadata={op_name="jit(training_step)/jit(main)/jit(transpose(jvp(render_rays)))/jit(jit_transpose(jvp(render_rays)))/jit(transpose(jvp(_cumulative_reduction)))/jit(jit_transpose(jvp(_cumulative_reduction)))/add" source_file="/home/brent/tensorf-jax/tensorf/render.py" source_line=272}
  %slice.699 = f32[4096,110]{1,0} slice(f32[4096,221]{1,0} %param_10.123), slice={[0:4096:1], [0:219:2]}, metadata={op_name="jit(training_step)/jit(main)/jit(transpose(jvp(render_rays)))/jit(jit_transpose(jvp(render_rays)))/jit(transpose(jvp(_cumulative_reduction)))/jit(jit_transpose(jvp(_cumulative_reduction)))/slice[start_indices=(0, 2) limit_indices=(4096, 221) strides=(1, 2)]" source_file="/home/brent/tensorf-jax/tensorf/render.py" source_line=272}
  %reverse.25 = f32[4096,110]{1,0} reverse(f32[4096,110]{1,0} %slice.699), dimensions={1}, metadata={op_name="jit(training_step)/jit(main)/jit(transpose(jvp(render_rays)))/jit(jit_transpose(jvp(render_rays)))/jit(transpose(jvp(_cumulative_reduction)))/jit(jit_transpose(jvp(_cumulative_reduction)))/slice[start_indices=(0, 2) limit_indices=(4096, 221) strides=(1, 2)]" source_file="/home/brent/tensorf-jax/tensorf/render.py" source_line=272}
  %add.1002 = f32[4096,110]{1,0} add(f32[4096,110]{1,0} %add.1003, f32[4096,110]{1,0} %reverse.25), metadata={op_name="jit(training_step)/jit(main)/jit(transpose(jvp(render_rays)))/jit(jit_transpose(jvp(render_rays)))/jit(transpose(jvp(_cumulative_reduction)))/jit(jit_transpose(jvp(_cumulative_reduction)))/add" source_file="/home/brent/tensorf-jax/tensorf/render.py" source_line=272}
  %concatenate.261 = f32[4096,111]{1,0} concatenate(f32[4096,1]{1,0} %slice.700, f32[4096,110]{1,0} %add.1002), dimensions={1}, metadata={op_name="jit(training_step)/jit(main)/jit(transpose(jvp(render_rays)))/jit(jit_transpose(jvp(render_rays)))/jit(transpose(jvp(_cumulative_reduction)))/jit(jit_transpose(jvp(_cumulative_reduction)))/concatenate[dimension=1]" source_file="/home/brent/tensorf-jax/tensorf/render.py" source_line=272}
  %constant_1783 = f32[] constant(0)
  %pad.170 = f32[4096,221]{1,0} pad(f32[4096,111]{1,0} %concatenate.261, f32[] %constant_1783), padding=0_0_0x0_0_1, metadata={op_name="jit(training_step)/jit(main)/jit(transpose(jvp(render_rays)))/jit(jit_transpose(jvp(render_rays)))/jit(transpose(jvp(_cumulative_reduction)))/jit(jit_transpose(jvp(_cumulative_reduction)))/pad[padding_config=((0, 0, 0), (0, 0, 1))]" source_file="/home/brent/tensorf-jax/tensorf/render.py" source_line=272}
  %pad.169 = f32[4096,221]{1,0} pad(f32[4096,110]{1,0} %add.1003, f32[] %constant_1783), padding=0_0_0x1_1_1, metadata={op_name="jit(training_step)/jit(main)/jit(transpose(jvp(render_rays)))/jit(jit_transpose(jvp(render_rays)))/jit(transpose(jvp(_cumulative_reduction)))/jit(jit_transpose(jvp(_cumulative_reduction)))/pad[padding_config=((0, 0, 0), (1, 1, 1))]" source_file="/home/brent/tensorf-jax/tensorf/render.py" source_line=272}
  %add.1001 = f32[4096,221]{1,0} add(f32[4096,221]{1,0} %pad.170, f32[4096,221]{1,0} %pad.169), metadata={op_name="jit(training_step)/jit(main)/jit(transpose(jvp(render_rays)))/jit(jit_transpose(jvp(render_rays)))/jit(transpose(jvp(_cumulative_reduction)))/jit(jit_transpose(jvp(_cumulative_reduction)))/add" source_file="/home/brent/tensorf-jax/tensorf/render.py" source_line=272}
  %reverse.24 = f32[4096,221]{1,0} reverse(f32[4096,221]{1,0} %add.1001), dimensions={1}, metadata={op_name="jit(training_step)/jit(main)/jit(transpose(jvp(render_rays)))/jit(jit_transpose(jvp(render_rays)))/jit(transpose(jvp(_cumulative_reduction)))/jit(jit_transpose(jvp(_cumulative_reduction)))/rev[dimensions=(1,)]" source_file="/home/brent/tensorf-jax/tensorf/render.py" source_line=272}
  %param_8.318 = f32[4096,221]{1,0} parameter(8)
  %param_9.219 = f32[4096,221]{1,0} parameter(9)
  %slice.698 = f32[4096,220]{1,0} slice(f32[4096,221]{1,0} %param_9.219), slice={[0:4096], [0:220]}, metadata={op_name="jit(training_step)/jit(main)/jit(jvp(render_rays))/jit(jit_jvp(render_rays))/gather[dimension_numbers=GatherDimensionNumbers(offset_dims=(0, 1), collapsed_slice_dims=(), start_index_map=(1,)) slice_sizes=(4096, 220) unique_indices=True indices_are_sorted=True mode=GatherScatterMode.PROMISE_IN_BOUNDS fill_value=None]" source_file="/home/brent/tensorf-jax/tensorf/render.py" source_line=286}
  %constant_1118 = f32[] constant(1)
  %pad.168 = f32[4096,221]{1,0} pad(f32[4096,220]{1,0} %slice.698, f32[] %constant_1118), padding=0_0x1_0, metadata={op_name="jit(training_step)/jit(main)/jit(jvp(render_rays))/jit(jit_jvp(render_rays))/concatenate[dimension=1]" source_file="/home/brent/tensorf-jax/tensorf/render.py" source_line=283}
…
  %fusion.72 = f32[135168,150]{1,0} fusion(f32[135168,27]{1,0} %cublas-gemm.1, f32[2]{0} %fusion.74, f32[135168,27,4]{2,1,0} %fusion.73, f32[4096,3]{1,0} %Arg_39.40), kind=kLoop, calls=%fused_computation.72, metadata={op_name="jit(training_step)/jit(main)/jit(jvp(render_rays))/jit(jit_jvp(render_rays))/concatenate[dimension=1]" source_file="/home/brent/tensorf-jax/tensorf/networks.py" source_line=73}
  %Arg_2.3 = f32[150,128]{1,0} parameter(2)
  %copy.43 = f32[150,128]{1,0} copy(f32[150,128]{1,0} %Arg_2.3)
  %Arg_1.2 = f32[128]{0} parameter(1)
  %broadcast.545 = f32[135168,128]{1,0} broadcast(f32[128]{0} %Arg_1.2), dimensions={1}, metadata={op_name="jit(training_step)/jit(main)/jit(jvp(render_rays))/jit(jit_jvp(render_rays))/add" source_file="/home/brent/miniconda/envs/py38/lib/python3.8/site-packages/flax/linen/linear.py" source_line=195}
  %cublas-gemm.5 = f32[135168,128]{1,0} custom-call(f32[135168,150]{1,0} %fusion.72, f32[150,128]{1,0} %copy.43, f32[135168,128]{1,0} %broadcast.545), custom_call_target="__cublas$gemm", metadata={op_name="jit(training_step)/jit(main)/jit(jvp(render_rays))/jit(jit_jvp(render_rays))/add" source_file="/home/brent/miniconda/envs/py38/lib/python3.8/site-packages/flax/linen/linear.py" source_line=195}, backend_config="{\"alpha_real\":1,\"alpha_imag\":0,\"beta\":1,\"dot_dimension_numbers\":{\"lhs_contracting_dimensions\":[\"1\"],\"rhs_contracting_dimensions\":[\"0\"],\"lhs_batch_dimensions\":[],\"rhs_batch_dimensions\":[]},\"batch_size\":\"1\",\"lhs_stride\":\"20275200\",\"rhs_stride\":\"19200\",\"selected_algorithm\":\"105\"}"
  %fusion.153 = f32[135168,128]{1,0} fusion(f32[135168,128]{1,0} %cublas-gemm.5), kind=kLoop, calls=%fused_computation.153, metadata={op_name="jit(training_step)/jit(main)/jit(jvp(render_rays))/jit(jit_jvp(render_rays))/jit(relu)/jit(jit_relu)/max" source_file="/home/brent/tensorf-jax/tensorf/networks.py" source_line=96}
  %Arg_4.5 = f32[128,128]{1,0} parameter(4)
  %copy.45 = f32[128,128]{1,0} copy(f32[128,128]{1,0} %Arg_4.5)
  %Arg_3.4 = f32[128]{0} parameter(3)
  %broadcast.548 = f32[135168,128]{1,0} broadcast(f32[128]{0} %Arg_3.4), dimensions={1}, metadata={op_name="jit(training_step)/jit(main)/jit(jvp(render_rays))/jit(jit_jvp(render_rays))/add" source_file="/home/brent/miniconda/envs/py38/lib/python3.8/site-packages/flax/linen/linear.py" source_line=195}
  %cublas-gemm.9 = f32[135168,128]{1,0} custom-call(f32[135168,128]{1,0} %fusion.153, f32[128,128]{1,0} %copy.45, f32[135168,128]{1,0} %broadcast.548), custom_call_target="__cublas$gemm", metadata={op_name="jit(training_step)/jit(main)/jit(jvp(render_rays))/jit(jit_jvp(render_rays))/add" source_file="/home/brent/miniconda/envs/py38/lib/python3.8/site-packages/flax/linen/linear.py" source_line=195}, backend_config="{\"alpha_real\":1,\"alpha_imag\":0,\"beta\":1,\"dot_dimension_numbers\":{\"lhs_contracting_dimensions\":[\"1\"],\"rhs_contracting_dimensions\":[\"0\"],\"lhs_batch_dimensions\":[],\"rhs_batch_dimensions\":[]},\"batch_size\":\"1\",\"lhs_stride\":\"17301504\",\"rhs_stride\":\"16384\",\"selected_algorithm\":\"4\"}"
  %fusion.152 = f32[135168,128]{1,0} fusion(f32[135168,128]{1,0} %cublas-gemm.9), kind=kLoop, calls=%fused_computation.152, metadata={op_name="jit(training_step)/jit(main)/jit(jvp(render_rays))/jit(jit_jvp(render_rays))/jit(relu)/jit(jit_relu)/max" source_file="/home/brent/tensorf-jax/tensorf/networks.py" source_line=105}
  %Arg_6.7 = f32[128,3]{1,0} parameter(6)
  %copy.47 = f32[128,3]{1,0} copy(f32[128,3]{1,0} %Arg_6.7)
  %Arg_5.6 = f32[3]{0} parameter(5)
  %broadcast.551 = f32[135168,3]{0,1} broadcast(f32[3]{0} %Arg_5.6), dimensions={1}, metadata={op_name="jit(training_step)/jit(main)/jit(jvp(render_rays))/jit(jit_jvp(render_rays))/add" source_file="/home/brent/miniconda/envs/py38/lib/python3.8/site-packages/flax/linen/linear.py" source_line=195}
  %cublas-gemm.13 = f32[135168,3]{0,1} custom-call(f32[135168,128]{1,0} %fusion.152, f32[128,3]{1,0} %copy.47, f32[135168,3]{0,1} %broadcast.551), custom_call_target="__cublas$gemm", metadata={op_name="jit(training_step)/jit(main)/jit(jvp(render_rays))/jit(jit_jvp(render_rays))/add" source_file="/home/brent/miniconda/envs/py38/lib/python3.8/site-packages/flax/linen/linear.py" source_line=195}, backend_config="{\"alpha_real\":1,\"alpha_imag\":0,\"beta\":1,\"dot_dimension_numbers\":{\"lhs_contracting_dimensions\":[\"1\"],\"rhs_contracting_dimensions\":[\"0\"],\"lhs_batch_dimensions\":[],\"rhs_batch_dimensions\":[]},\"batch_size\":\"1\",\"lhs_stride\":\"17301504\",\"rhs_stride\":\"384\",\"selected_algorithm\":\"3\"}"
  %Arg_37.38 = f32[4096,3]{1,0} parameter(37)
  %input_fusion_scatter.13 = f32[4096,221,3]{1,0,2} fusion(s32[4096,33,2]{1,0,2} %fusion.97, pred[4096,33,3]{1,0,2} %fusion.70, f32[135168,3]{0,1} %cublas-gemm.13), kind=kInput, calls=%input_fused_computation_scatter.13, metadata={op_name="jit(training_step)/jit(main)/jit(jvp(render_rays))/jit(jit_jvp(render_rays))/scatter-add[update_consts=() dimension_numbers=ScatterDimensionNumbers(update_window_dims=(2,), inserted_window_dims=(0, 1), scatter_dims_to_operand_dims=(0, 1)) indices_are_sorted=False unique_indices=False mode=GatherScatterMode.PROMISE_IN_BOUNDS]" source_file="/home/brent/tensorf-jax/tensorf/render.py" source_line=452}
  %input_fusion_reduce.5 = f32[3,4096]{0,1} fusion(f32[4096,221,3]{1,0,2} %input_fusion_scatter.13, f32[4096,221]{1,0} %get-tuple-element.195), kind=kInput, calls=%input_fused_computation_reduce.5
  %get-tuple-element.196 = f32[4096,221]{1,0} get-tuple-element((f32[4096,221]{1,0}, f32[4096,221]{1,0}, f32[4096,221]{1,0}) %fusion.98), index=2
  %input_fusion_reduce.4 = f32[4096]{0} fusion(f32[4096,221]{1,0} %get-tuple-element.195, s32[4096,33,2]{1,0,2} %fusion.97), kind=kInput, calls=%input_fused_computation_reduce.4, metadata={op_name="jit(training_step)/jit(main)/jit(jvp(render_rays))/jit(jit_jvp(render_rays))/reduce_sum[axes=(1,)]" source_file="/home/brent/tensorf-jax/tensorf/render.py" source_line=486}
  %fusion.66 = f32[4096,3]{1,0} fusion(f32[4096,3]{1,0} %Arg_37.38, f32[3,4096]{0,1} %input_fusion_reduce.5, f32[4096,221]{1,0} %get-tuple-element.196, f32[4096]{0} %input_fusion_reduce.4), kind=kLoop, calls=%fused_computation.66, metadata={op_name="jit(training_step)/jit(main)/sub" source_file="/home/brent/tensorf-jax/tensorf/training.py" source_line=291}
  %fusion.64 = f32[135168,3]{0,1} fusion(pred[4096,33,3]{1,0,2} %fusion.70, s32[4096,33,2]{1,0,2} %fusion.97, f32[4096,221]{1,0} %get-tuple-element.195, f32[135168,3]{0,1} %cublas-gemm.13, f32[4096,3]{1,0} %fusion.66, /*index=5*/f32[4096]{0} %input_fusion_reduce.4, f32[4096,221]{1,0} %get-tuple-element.196), kind=kLoop, calls=%fused_computation.64, metadata={op_name="jit(training_step)/jit(main)/jit(transpose(jvp(render_rays)))/jit(jit_transpose(jvp(render_rays)))/jit(transpose(jvp(sigmoid)))/jit(jit_transpose(jvp(sigmoid)))/mul" source_file="/home/brent/tensorf-jax/tensorf/networks.py" source_line=116}
  %cublas-gemm.15 = f32[135168,128]{1,0} custom-call(f32[135168,3]{0,1} %fusion.64, f32[128,3]{1,0} %copy.47), custom_call_target="__cublas$gemm", metadata={op_name="jit(training_step)/jit(main)/jit(transpose(jvp(render_rays)))/jit(jit_transpose(jvp(render_rays)))/dot_general[dimension_numbers=(((1,), (1,)), ((), ())) precision=None preferred_element_type=None]" source_file="/home/brent/miniconda/envs/py38/lib/python3.8/site-packages/flax/linen/linear.py" source_line=188}, backend_config="{\"alpha_real\":1,\"alpha_imag\":0,\"beta\":0,\"dot_dimension_numbers\":{\"lhs_contracting_dimensions\":[\"1\"],\"rhs_contracting_dimensions\":[\"1\"],\"lhs_batch_dimensions\":[],\"rhs_batch_dimensions\":[]},\"batch_size\":\"1\",\"lhs_stride\":\"405504\",\"rhs_stride\":\"384\",\"selected_algorithm\":\"0\"}"
  %fusion.63 = f32[135168,128]{1,0} fusion(f32[135168,128]{1,0} %cublas-gemm.15, f32[135168,128]{1,0} %cublas-gemm.9), kind=kLoop, calls=%fused_computation.63, metadata={op_name="jit(training_step)/jit(main)/jit(transpose(jvp(render_rays)))/jit(jit_transpose(jvp(render_rays)))/select_n" source_file="/home/brent/tensorf-jax/tensorf/networks.py" source_line=105}
  %cublas-gemm.17 = f32[135168,128]{1,0} custom-call(f32[135168,128]{1,0} %fusion.63, f32[128,128]{1,0} %copy.45), custom_call_target="__cublas$gemm", metadata={op_name="jit(training_step)/jit(main)/jit(transpose(jvp(render_rays)))/jit(jit_transpose(jvp(render_rays)))/dot_general[dimension_numbers=(((1,), (1,)), ((), ())) precision=None preferred_element_type=None]" source_file="/home/brent/miniconda/envs/py38/lib/python3.8/site-packages/flax/linen/linear.py" source_line=188}, backend_config="{\"alpha_real\":1,\"alpha_imag\":0,\"beta\":0,\"dot_dimension_numbers\":{\"lhs_contracting_dimensions\":[\"1\"],\"rhs_contracting_dimensions\":[\"1\"],\"lhs_batch_dimensions\":[],\"rhs_batch_dimensions\":[]},\"batch_size\":\"1\",\"lhs_stride\":\"17301504\",\"rhs_stride\":\"16384\",\"selected_algorithm\":\"14\"}"
  %fusion.62 = f32[135168,128]{1,0} fusion(f32[135168,128]{1,0} %cublas-gemm.17, f32[135168,128]{1,0} %cublas-gemm.5), kind=kLoop, calls=%fused_computation.62, metadata={op_name="jit(training_step)/jit(main)/jit(transpose(jvp(render_rays)))/jit(jit_transpose(jvp(render_rays)))/select_n" source_file="/home/brent/tensorf-jax/tensorf/networks.py" source_line=96}
  %cublas-gemm.19 = f32[135168,150]{1,0} custom-call(f32[135168,128]{1,0} %fusion.62, f32[150,128]{1,0} %copy.43), custom_call_target="__cublas$gemm", metadata={op_name="jit(training_step)/jit(main)/jit(transpose(jvp(render_rays)))/jit(jit_transpose(jvp(render_rays)))/dot_general[dimension_numbers=(((1,), (1,)), ((), ())) precision=None preferred_element_type=None]" source_file="/home/brent/miniconda/envs/py38/lib/python3.8/site-packages/flax/linen/linear.py" source_line=188}, backend_config="{\"alpha_real\":1,\"alpha_imag\":0,\"beta\":0,\"dot_dimension_numbers\":{\"lhs_contracting_dimensions\":[\"1\"],\"rhs_contracting_dimensions\":[\"1\"],\"lhs_batch_dimensions\":[],\"rhs_batch_dimensions\":[]},\"batch_size\":\"1\",\"lhs_stride\":\"17301504\",\"rhs_stride\":\"19200\",\"selected_algorithm\":\"21\"}"
  %fusion.61 = f32[135168,27]{1,0} fusion(f32[135168,27,4]{2,1,0} %fusion.73, f32[135168,150]{1,0} %cublas-gemm.19, f32[2]{0} %fusion.74), kind=kLoop, calls=%fused_computation.61, metadata={op_name="jit(training_step)/jit(main)/jit(transpose(jvp(render_rays)))/jit(jit_transpose(jvp(render_rays)))/add_any" source_file="/home/brent/tensorf-jax/tensorf/networks.py" source_line=27}
  %cublas-gemm.21 = f32[144,27]{1,0} custom-call(f32[135168,144]{0,1} %fusion.75, f32[135168,27]{1,0} %fusion.61), custom_call_target="__cublas$gemm", metadata={op_name="jit(training_step)/jit(main)/jit(transpose(jvp(render_rays)))/jit(jit_transpose(jvp(render_rays)))/transpose[permutation=(1, 0)]" source_file="/home/brent/miniconda/envs/py38/lib/python3.8/site-packages/flax/linen/linear.py" source_line=188}, backend_config="{\"alpha_real\":1,\"alpha_imag\":0,\"beta\":0,\"dot_dimension_numbers\":{\"lhs_contracting_dimensions\":[\"0\"],\"rhs_contracting_dimensions\":[\"0\"],\"lhs_batch_dimensions\":[],\"rhs_batch_dimensions\":[]},\"batch_size\":\"1\",\"lhs_stride\":\"19464192\",\"rhs_stride\":\"3649536\",\"selected_algorithm\":\"0\"}"
  %Arg_12.13 = f32[144,27]{1,0} parameter(12)
  %fusion.54 = (f32[144,27]{1,0}, f32[144,27]{1,0}, f32[144,27]{1,0}) fusion(f32[144,27]{1,0} %copy.41, f32[] %get-tuple-element.186, f32[] %get-tuple-element.187, f32[] %get-tuple-element.184, f32[144,27]{1,0} %Arg_23.24, /*index=5*/f32[144,27]{1,0} %cublas-gemm.21, f32[144,27]{1,0} %Arg_12.13), kind=kLoop, calls=%fused_computation.54, metadata={op_name="jit(training_step)/jit(main)/add" source_file="/home/brent/miniconda/envs/py38/lib/python3.8/site-packages/optax/_src/update.py" source_line=43}
  %get-tuple-element.222 = f32[144,27]{1,0} get-tuple-element((f32[144,27]{1,0}, f32[144,27]{1,0}, f32[144,27]{1,0}) %fusion.54), index=0
  %Arg_26.27 = f32[128]{0} parameter(26)
  %input_fusion_reduce.2 = (f32[368,128]{1,0}, f32[368,128]{1,0}) fusion(f32[135168,128]{1,0} %fusion.63, f32[135168,128]{1,0} %fusion.62), kind=kInput, calls=%input_fused_computation_reduce.2
  %get-tuple-element.220 = f32[368,128]{1,0} get-tuple-element((f32[368,128]{1,0}, f32[368,128]{1,0}) %input_fusion_reduce.2), index=0
  %get-tuple-element.221 = f32[368,128]{1,0} get-tuple-element((f32[368,128]{1,0}, f32[368,128]{1,0}) %input_fusion_reduce.2), index=1
  %input_fusion_reduce.6 = (f32[128]{0}, f32[128]{0}) fusion(f32[368,128]{1,0} %get-tuple-element.220, f32[] %constant_70, f32[368,128]{1,0} %get-tuple-element.221), kind=kInput, calls=%input_fused_computation_reduce.6, metadata={op_name="jit(training_step)/jit(main)/jit(transpose(jvp(render_rays)))/jit(jit_transpose(jvp(render_rays)))/reduce_sum[axes=(0,)]" source_file="/home/brent/miniconda/envs/py38/lib/python3.8/site-packages/flax/linen/linear.py" source_line=195}
  %get-tuple-element.218 = f32[128]{0} get-tuple-element((f32[128]{0}, f32[128]{0}) %input_fusion_reduce.6), index=0
  %Arg_15.16 = f32[128]{0} parameter(15)
  %Arg_24.25 = f32[128]{0} parameter(24)
  %get-tuple-element.219 = f32[128]{0} get-tuple-element((f32[128]{0}, f32[128]{0}) %input_fusion_reduce.6), index=1
  %Arg_13.14 = f32[128]{0} parameter(13)
  %fusion.45 = (f32[128]{0}, f32[128]{0}, f32[128]{0}, f32[128]{0}, f32[128]{0}, /*index=5*/f32[128]{0}) fusion(f32[128]{0} %Arg_3.4, f32[] %get-tuple-element.186, f32[] %get-tuple-element.187, f32[] %get-tuple-element.184, f32[128]{0} %Arg_26.27, /*index=5*/f32[128]{0} %get-tuple-element.218, f32[128]{0} %Arg_15.16, f32[128]{0} %Arg_1.2, f32[128]{0} %Arg_24.25, f32[128]{0} %get-tuple-element.219, /*index=10*/f32[128]{0} %Arg_13.14), kind=kLoop, calls=%fused_computation.45, metadata={op_name="jit(training_step)/jit(main)/add" source_file="/home/brent/miniconda/envs/py38/lib/python3.8/site-packages/optax/_src/update.py" source_line=43}
  %get-tuple-element.223 = f32[128]{0} get-tuple-element((f32[128]{0}, f32[128]{0}, f32[128]{0}, f32[128]{0}, f32[128]{0}, /*index=5*/f32[128]{0}) %fusion.45), index=3
  %Arg_25.26 = f32[150,128]{1,0} parameter(25)
  %cublas-gemm.23 = f32[150,128]{1,0} custom-call(f32[135168,150]{1,0} %fusion.72, f32[135168,128]{1,0} %fusion.62), custom_call_target="__cublas$gemm", metadata={op_name="jit(training_step)/jit(main)/jit(transpose(jvp(render_rays)))/jit(jit_transpose(jvp(render_rays)))/transpose[permutation=(1, 0)]" source_file="/home/brent/miniconda/envs/py38/lib/python3.8/site-packages/flax/linen/linear.py" source_line=188}, backend_config="{\"alpha_real\":1,\"alpha_imag\":0,\"beta\":0,\"dot_dimension_numbers\":{\"lhs_contracting_dimensions\":[\"0\"],\"rhs_contracting_dimensions\":[\"0\"],\"lhs_batch_dimensions\":[],\"rhs_batch_dimensions\":[]},\"batch_size\":\"1\",\"lhs_stride\":\"20275200\",\"rhs_stride\":\"17301504\",\"selected_algorithm\":\"-1\"}"
  %Arg_14.15 = f32[150,128]{1,0} parameter(14)
  %fusion.48 = (f32[150,128]{1,0}, f32[150,128]{1,0}, f32[150,128]{1,0}) fusion(f32[150,128]{1,0} %copy.43, f32[] %get-tuple-element.186, f32[] %get-tuple-element.187, f32[] %get-tuple-element.184, f32[150,128]{1,0} %Arg_25.26, /*index=5*/f32[150,128]{1,0} %cublas-gemm.23, f32[150,128]{1,0} %Arg_14.15), kind=kLoop, calls=%fused_computation.48, metadata={op_name="jit(training_step)/jit(main)/add" source_file="/home/brent/miniconda/envs/py38/lib/python3.8/site-packages/optax/_src/update.py" source_line=43}
  %get-tuple-element.224 = f32[150,128]{1,0} get-tuple-element((f32[150,128]{1,0}, f32[150,128]{1,0}, f32[150,128]{1,0}) %fusion.48), index=0
  %get-tuple-element.225 = f32[128]{0} get-tuple-element((f32[128]{0}, f32[128]{0}, f32[128]{0}, f32[128]{0}, f32[128]{0}, /*index=5*/f32[128]{0}) %fusion.45), index=0
  %Arg_27.28 = f32[128,128]{1,0} parameter(27)
  %cublas-gemm.25 = f32[128,128]{1,0} custom-call(f32[135168,128]{1,0} %fusion.153, f32[135168,128]{1,0} %fusion.63), custom_call_target="__cublas$gemm", metadata={op_name="jit(training_step)/jit(main)/jit(transpose(jvp(render_rays)))/jit(jit_transpose(jvp(render_rays)))/transpose[permutation=(1, 0)]" source_file="/home/brent/miniconda/envs/py38/lib/python3.8/site-packages/flax/linen/linear.py" source_line=188}, backend_config="{\"alpha_real\":1,\"alpha_imag\":0,\"beta\":0,\"dot_dimension_numbers\":{\"lhs_contracting_dimensions\":[\"0\"],\"rhs_contracting_dimensions\":[\"0\"],\"lhs_batch_dimensions\":[],\"rhs_batch_dimensions\":[]},\"batch_size\":\"1\",\"lhs_stride\":\"17301504\",\"rhs_stride\":\"17301504\",\"selected_algorithm\":\"4\"}"
  %Arg_16.17 = f32[128,128]{1,0} parameter(16)
  %fusion.42 = (f32[128,128]{1,0}, f32[128,128]{1,0}, f32[128,128]{1,0}) fusion(f32[128,128]{1,0} %copy.45, f32[] %get-tuple-element.186, f32[] %get-tuple-element.187, f32[] %get-tuple-element.184, f32[128,128]{1,0} %Arg_27.28, /*index=5*/f32[128,128]{1,0} %cublas-gemm.25, f32[128,128]{1,0} %Arg_16.17), kind=kLoop, calls=%fused_computation.42, metadata={op_name="jit(training_step)/jit(main)/add" source_file="/home/brent/miniconda/envs/py38/lib/python3.8/site-packages/optax/_src/update.py" source_line=43}
  %get-tuple-element.226 = f32[128,128]{1,0} get-tuple-element((f32[128,128]{1,0}, f32[128,128]{1,0}, f32[128,128]{1,0}) %fusion.42), index=0
  %Arg_28.29 = f32[3]{0} parameter(28)
  %input_fusion_reduce.1 = f32[3,368]{1,0} fusion(f32[135168,3]{0,1} %fusion.64), kind=kInput, calls=%input_fused_computation_reduce.1
  %reduce.17 = f32[3]{0} reduce(f32[3,368]{1,0} %input_fusion_reduce.1, f32[] %constant_70), dimensions={1}, to_apply=%region_27.1717, metadata={op_name="jit(training_step)/jit(main)/jit(transpose(jvp(render_rays)))/jit(jit_transpose(jvp(render_rays)))/reduce_sum[axes=(0,)]" source_file="/home/brent/miniconda/envs/py38/lib/python3.8/site-packages/flax/linen/linear.py" source_line=195}
  %Arg_17.18 = f32[3]{0} parameter(17)
  %fusion.39 = (f32[3]{0}, f32[3]{0}, f32[3]{0}) fusion(f32[3]{0} %Arg_5.6, f32[] %get-tuple-element.186, f32[] %get-tuple-element.187, f32[] %get-tuple-element.184, f32[3]{0} %Arg_28.29, /*index=5*/f32[3]{0} %reduce.17, f32[3]{0} %Arg_17.18), kind=kLoop, calls=%fused_computation.39, metadata={op_name="jit(training_step)/jit(main)/add" source_file="/home/brent/miniconda/envs/py38/lib/python3.8/site-packages/optax/_src/update.py" source_line=43}
  %get-tuple-element.227 = f32[3]{0} get-tuple-element((f32[3]{0}, f32[3]{0}, f32[3]{0}) %fusion.39), index=0
  %Arg_29.30 = f32[128,3]{1,0} parameter(29)
  %cublas-gemm.27 = f32[128,3]{1,0} custom-call(f32[135168,128]{1,0} %fusion.152, f32[135168,3]{0,1} %fusion.64), custom_call_target="__cublas$gemm", metadata={op_name="jit(training_step)/jit(main)/jit(transpose(jvp(render_rays)))/jit(jit_transpose(jvp(render_rays)))/transpose[permutation=(1, 0)]" source_file="/home/brent/miniconda/envs/py38/lib/python3.8/site-packages/flax/linen/linear.py" source_line=188}, backend_config="{\"alpha_real\":1,\"alpha_imag\":0,\"beta\":0,\"dot_dimension_numbers\":{\"lhs_contracting_dimensions\":[\"0\"],\"rhs_contracting_dimensions\":[\"0\"],\"lhs_batch_dimensions\":[],\"rhs_batch_dimensions\":[]},\"batch_size\":\"1\",\"lhs_stride\":\"17301504\",\"rhs_stride\":\"405504\",\"selected_algorithm\":\"0\"}"
  %Arg_18.19 = f32[128,3]{1,0} parameter(18)
  %fusion.36 = (f32[128,3]{1,0}, f32[128,3]{1,0}, f32[128,3]{1,0}) fusion(f32[128,3]{1,0} %copy.47, f32[] %get-tuple-element.186, f32[] %get-tuple-element.187, f32[] %get-tuple-element.184, f32[128,3]{1,0} %Arg_29.30, /*index=5*/f32[128,3]{1,0} %cublas-gemm.27, f32[128,3]{1,0} %Arg_18.19), kind=kLoop, calls=%fused_computation.36, metadata={op_name="jit(training_step)/jit(main)/add" source_file="/home/brent/miniconda/envs/py38/lib/python3.8/site-packages/optax/_src/update.py" source_line=43}
  %get-tuple-element.228 = f32[128,3]{1,0} get-tuple-element((f32[128,3]{1,0}, f32[128,3]{1,0}, f32[128,3]{1,0}) %fusion.36), index=0
  %Arg_30.31 = f32[3,48,128]{2,1,0} parameter(30)
  %cublas-gemm.29 = f32[135168,144]{1,0} custom-call(f32[135168,27]{1,0} %fusion.61, f32[144,27]{1,0} %copy.41), custom_call_target="__cublas$gemm", metadata={op_name="jit(training_step)/jit(main)/jit(transpose(jvp(render_rays)))/jit(jit_transpose(jvp(render_rays)))/dot_general[dimension_numbers=(((1,), (1,)), ((), ())) precision=None preferred_element_type=None]" source_file="/home/brent/miniconda/envs/py38/lib/python3.8/site-packages/flax/linen/linear.py" source_line=188}, backend_config="{\"alpha_real\":1,\"alpha_imag\":0,\"beta\":0,\"dot_dimension_numbers\":{\"lhs_contracting_dimensions\":[\"1\"],\"rhs_contracting_dimensions\":[\"1\"],\"lhs_batch_dimensions\":[],\"rhs_batch_dimensions\":[]},\"batch_size\":\"1\",\"lhs_stride\":\"3649536\",\"rhs_stride\":\"3888\",\"selected_algorithm\":\"0\"}"
  %fusion.34 = f32[3,4096,48,33]{2,1,0,3} fusion(f32[3,48,128,128]{3,2,1,0} %copy.49, f32[3,4096,3,33]{3,1,0,2} %fusion.96, f32[135168,144]{1,0} %cublas-gemm.29), kind=kLoop, calls=%fused_computation.34, metadata={op_name="jit(training_step)/jit(main)/jit(transpose(jvp(render_rays)))/jit(jit_transpose(jvp(render_rays)))/jit(transpose(jvp(interpolate)))/jit(jit_transpose(jvp(interpolate)))/mul" source_file="/home/brent/tensorf-jax/tensorf/tensor_vm.py" source_line=176}
  %input_fusion_scatter.12 = f32[3,48,128]{2,1,0} fusion(f32[3,4096,48,33]{2,1,0,3} %fusion.34, f32[3,4096,3,33]{3,1,0,2} %fusion.96), kind=kInput, calls=%input_fused_computation_scatter.12, metadata={op_name="jit(training_step)/jit(main)/jit(transpose(jvp(render_rays)))/jit(jit_transpose(jvp(render_rays)))/jit(transpose(jvp(interpolate)))/jit(jit_transpose(jvp(interpolate)))/jit(transpose(jvp(vmap(vmap(vmap(_map_coordinates))))))/jit(jit_transpose(jvp(vmap(vmap(vmap(_map_coordinates))))))/scatter-add[update_consts=() dimension_numbers=ScatterDimensionNumbers(update_window_dims=(2,), inserted_window_dims=(0, 2), scatter_dims_to_operand_dims=(0, 2)) indices_are_sorted=False unique_indices=False mode=GatherScatterMode.PROMISE_IN_BOUNDS]" source_file="/home/brent/tensorf-jax/tensorf/tensor_vm.py" source_line=222}
  %input_fusion_scatter.11 = f32[3,48,128]{2,1,0} fusion(f32[3,4096,48,33]{2,1,0,3} %fusion.34, f32[3,4096,3,33]{3,1,0,2} %fusion.96), kind=kInput, calls=%input_fused_computation_scatter.11, metadata={op_name="jit(training_step)/jit(main)/jit(transpose(jvp(render_rays)))/jit(jit_transpose(jvp(render_rays)))/jit(transpose(jvp(interpolate)))/jit(jit_transpose(jvp(interpolate)))/jit(transpose(jvp(vmap(vmap(vmap(_map_coordinates))))))/jit(jit_transpose(jvp(vmap(vmap(vmap(_map_coordinates))))))/scatter-add[update_consts=() dimension_numbers=ScatterDimensionNumbers(update_window_dims=(2,), inserted_window_dims=(0, 2), scatter_dims_to_operand_dims=(0, 2)) indices_are_sorted=False unique_indices=False mode=GatherScatterMode.PROMISE_IN_BOUNDS]" source_file="/home/brent/tensorf-jax/tensorf/tensor_vm.py" source_line=222}
  %Arg_19.20 = f32[3,48,128]{2,1,0} parameter(19)
  %fusion.31 = (f32[3,48,128]{2,1,0}, f32[3,48,128]{2,1,0}, f32[3,48,128]{2,1,0}) fusion(f32[3,48,128]{2,1,0} %copy.48, f32[] %get-tuple-element.186, f32[] %get-tuple-element.187, f32[] %get-tuple-element.184, f32[3,48,128]{2,1,0} %Arg_30.31, /*index=5*/f32[3,48,128]{2,1,0} %input_fusion_scatter.12, f32[3,48,128]{2,1,0} %input_fusion_scatter.11, f32[3,48,128]{2,1,0} %Arg_19.20), kind=kLoop, calls=%fused_computation.31, metadata={op_name="jit(training_step)/jit(main)/add" source_file="/home/brent/miniconda/envs/py38/lib/python3.8/site-packages/optax/_src/update.py" source_line=43}
  %get-tuple-element.229 = f32[3,48,128]{2,1,0} get-tuple-element((f32[3,48,128]{2,1,0}, f32[3,48,128]{2,1,0}, f32[3,48,128]{2,1,0}) %fusion.31), index=0
  %Arg_31.32 = f32[3,48,128,128]{3,2,1,0} parameter(31)
  %fusion.30 = f32[3,4096,48,33]{3,2,1,0} fusion(f32[3,48,128]{2,1,0} %copy.48, f32[3,4096,3,33]{3,1,0,2} %fusion.96, f32[135168,144]{1,0} %cublas-gemm.29), kind=kLoop, calls=%fused_computation.30, metadata={op_name="jit(training_step)/jit(main)/jit(transpose(jvp(render_rays)))/jit(jit_transpose(jvp(render_rays)))/jit(transpose(jvp(interpolate)))/jit(jit_transpose(jvp(interpolate)))/mul" source_file="/home/brent/tensorf-jax/tensorf/tensor_vm.py" source_line=176}
  %input_fusion_scatter.10 = f32[3,48,128,128]{3,2,1,0} fusion(f32[3,4096,48,33]{3,2,1,0} %fusion.30, f32[3,4096,3,33]{3,1,0,2} %fusion.96), kind=kInput, calls=%input_fused_computation_scatter.10, metadata={op_name="jit(training_step)/jit(main)/jit(transpose(jvp(render_rays)))/jit(jit_transpose(jvp(render_rays)))/jit(transpose(jvp(interpolate)))/jit(jit_transpose(jvp(interpolate)))/jit(transpose(jvp(vmap(vmap(vmap(_map_coordinates))))))/jit(jit_transpose(jvp(vmap(vmap(vmap(_map_coordinates))))))/scatter-add[update_consts=() dimension_numbers=ScatterDimensionNumbers(update_window_dims=(2,), inserted_window_dims=(0, 2, 3), scatter_dims_to_operand_dims=(0, 2, 3)) indices_are_sorted=False unique_indices=False mode=GatherScatterMode.PROMISE_IN_BOUNDS]" source_file="/home/brent/tensorf-jax/tensorf/tensor_vm.py" source_line=222}
  %input_fusion_scatter.9 = f32[3,48,128,128]{3,2,1,0} fusion(f32[3,4096,48,33]{3,2,1,0} %fusion.30, f32[3,4096,3,33]{3,1,0,2} %fusion.96), kind=kInput, calls=%input_fused_computation_scatter.9, metadata={op_name="jit(training_step)/jit(main)/jit(transpose(jvp(render_rays)))/jit(jit_transpose(jvp(render_rays)))/jit(transpose(jvp(interpolate)))/jit(jit_transpose(jvp(interpolate)))/jit(transpose(jvp(vmap(vmap(vmap(_map_coordinates))))))/jit(jit_transpose(jvp(vmap(vmap(vmap(_map_coordinates))))))/scatter-add[update_consts=() dimension_numbers=ScatterDimensionNumbers(update_window_dims=(2,), inserted_window_dims=(0, 2, 3), scatter_dims_to_operand_dims=(0, 2, 3)) indices_are_sorted=False unique_indices=False mode=GatherScatterMode.PROMISE_IN_BOUNDS]" source_file="/home/brent/tensorf-jax/tensorf/tensor_vm.py" source_line=222}
  %input_fusion_scatter.8 = f32[3,48,128,128]{3,2,1,0} fusion(f32[3,4096,48,33]{3,2,1,0} %fusion.30, f32[3,48,128,128]{3,2,1,0} %input_fusion_scatter.10, f32[3,48,128,128]{3,2,1,0} %input_fusion_scatter.9, f32[3,4096,3,33]{3,1,0,2} %fusion.96), kind=kInput, calls=%input_fused_computation_scatter.8, metadata={op_name="jit(training_step)/jit(main)/jit(transpose(jvp(render_rays)))/jit(jit_transpose(jvp(render_rays)))/jit(transpose(jvp(interpolate)))/jit(jit_transpose(jvp(interpolate)))/jit(transpose(jvp(vmap(vmap(vmap(_map_coordinates))))))/jit(jit_transpose(jvp(vmap(vmap(vmap(_map_coordinates))))))/scatter-add[update_consts=() dimension_numbers=ScatterDimensionNumbers(update_window_dims=(2,), inserted_window_dims=(0, 2, 3), scatter_dims_to_operand_dims=(0, 2, 3)) indices_are_sorted=False unique_indices=False mode=GatherScatterMode.PROMISE_IN_BOUNDS]" source_file="/home/brent/tensorf-jax/tensorf/tensor_vm.py" source_line=222}
  %input_fusion_scatter.7 = f32[3,48,128,128]{3,2,1,0} fusion(f32[3,4096,48,33]{3,2,1,0} %fusion.30, f32[3,4096,3,33]{3,1,0,2} %fusion.96), kind=kInput, calls=%input_fused_computation_scatter.7, metadata={op_name="jit(training_step)/jit(main)/jit(transpose(jvp(render_rays)))/jit(jit_transpose(jvp(render_rays)))/jit(transpose(jvp(interpolate)))/jit(jit_transpose(jvp(interpolate)))/jit(transpose(jvp(vmap(vmap(vmap(_map_coordinates))))))/jit(jit_transpose(jvp(vmap(vmap(vmap(_map_coordinates))))))/scatter-add[update_consts=() dimension_numbers=ScatterDimensionNumbers(update_window_dims=(2,), inserted_window_dims=(0, 2, 3), scatter_dims_to_operand_dims=(0, 2, 3)) indices_are_sorted=False unique_indices=False mode=GatherScatterMode.PROMISE_IN_BOUNDS]" source_file="/home/brent/tensorf-jax/tensorf/tensor_vm.py" source_line=222}
  %Arg_20.21 = f32[3,48,128,128]{3,2,1,0} parameter(20)
  %fusion.27 = (f32[3,48,128,128]{3,2,1,0}, f32[3,48,128,128]{3,2,1,0}, f32[3,48,128,128]{3,2,1,0}) fusion(f32[3,48,128,128]{3,2,1,0} %copy.49, f32[] %get-tuple-element.186, f32[] %get-tuple-element.187, f32[] %get-tuple-element.184, f32[3,48,128,128]{3,2,1,0} %Arg_31.32, /*index=5*/f32[3,48,128,128]{3,2,1,0} %input_fusion_scatter.8, f32[3,48,128,128]{3,2,1,0} %input_fusion_scatter.7, f32[3,48,128,128]{3,2,1,0} %Arg_20.21), kind=kLoop, calls=%fused_computation.27, metadata={op_name="jit(training_step)/jit(main)/add" source_file="/home/brent/miniconda/envs/py38/lib/python3.8/site-packages/optax/_src/update.py" source_line=43}
  %get-tuple-element.230 = f32[3,48,128,128]{3,2,1,0} get-tuple-element((f32[3,48,128,128]{3,2,1,0}, f32[3,48,128,128]{3,2,1,0}, f32[3,48,128,128]{3,2,1,0}) %fusion.27), index=0
  %Arg_32.33 = f32[3,16,128]{2,1,0} parameter(32)
  %fusion.24 = f32[4096,221]{1,0} fusion(f32[4096,221,3]{1,0,2} %input_fusion_scatter.13, f32[4096,3]{1,0} %fusion.66, f32[4096]{0} %input_fusion_reduce.4, f32[4096,221]{1,0} %get-tuple-element.196), kind=kLoop, calls=%fused_computation.24, metadata={op_name="jit(training_step)/jit(main)/jit(transpose(jvp(render_rays)))/jit(jit_transpose(jvp(render_rays)))/reduce_sum[axes=(2,)]" source_file="/home/brent/tensorf-jax/tensorf/render.py" source_line=188}
  %fusion.25 = f32[4096]{0} fusion(f32[3,4096]{0,1} %input_fusion_reduce.5, f32[4096,3]{1,0} %fusion.66), kind=kLoop, calls=%fused_computation.25, metadata={op_name="jit(training_step)/jit(main)/jit(transpose(jvp(render_rays)))/jit(jit_transpose(jvp(render_rays)))/reduce_sum[axes=(1,)]" source_file="/home/brent/tensorf-jax/tensorf/render.py" source_line=188}
  %input_fusion_scatter.6 = f32[4096,221]{1,0} fusion(f32[4096,221]{1,0} %fusion.24, s32[4096,33,2]{1,0,2} %fusion.97, f32[4096]{0} %fusion.25, f32[4096,221]{1,0} %get-tuple-element.196, f32[4096]{0} %input_fusion_reduce.4), kind=kInput, calls=%input_fused_computation_scatter.6, metadata={op_name="jit(training_step)/jit(main)/jit(transpose(jvp(render_rays)))/jit(jit_transpose(jvp(render_rays)))/scatter-add[update_consts=() dimension_numbers=ScatterDimensionNumbers(update_window_dims=(), inserted_window_dims=(0, 1), scatter_dims_to_operand_dims=(0, 1)) indices_are_sorted=False unique_indices=False mode=GatherScatterMode.PROMISE_IN_BOUNDS]" source_file="/home/brent/tensorf-jax/tensorf/render.py" source_line=472}
  %fusion.23 = f32[4096,221]{1,0} fusion(f32[4096,221]{1,0} %get-tuple-element.196, f32[4096,221]{1,0} %input_fusion_scatter.6, f32[4096]{0} %fusion.25, pred[4096]{0} %get-tuple-element.204, f32[4096]{0} %get-tuple-element.206, /*index=5*/f32[4096]{0} %get-tuple-element.205, f32[4096,221]{1,0} %fusion.114, f32[4096]{0} %input_fusion_reduce.4, f32[4096,3]{1,0} %fusion.66), kind=kLoop, calls=%fused_computation.23, metadata={op_name="jit(training_step)/jit(main)/jit(transpose(jvp(render_rays)))/jit(jit_transpose(jvp(render_rays)))/mul" source_file="/home/brent/tensorf-jax/tensorf/render.py" source_line=272}
  %fusion.21 = f32[4096,55]{1,0} fusion(f32[4096,221]{1,0} %fusion.23), kind=kLoop, calls=%fused_computation.21, metadata={op_name="jit(training_step)/jit(main)/jit(transpose(jvp(render_rays)))/jit(jit_transpose(jvp(render_rays)))/jit(transpose(jvp(_cumulative_reduction)))/jit(jit_transpose(jvp(_cumulative_reduction)))/add" source_file="/home/brent/tensorf-jax/tensorf/render.py" source_line=272}
  %fusion.19 = f32[4096,13]{1,0} fusion(f32[4096,55]{1,0} %fusion.21), kind=kLoop, calls=%fused_computation.19, metadata={op_name="jit(training_step)/jit(main)/jit(transpose(jvp(render_rays)))/jit(jit_transpose(jvp(render_rays)))/jit(transpose(jvp(_cumulative_reduction)))/jit(jit_transpose(jvp(_cumulative_reduction)))/add" source_file="/home/brent/tensorf-jax/tensorf/render.py" source_line=272}
  %fusion.17 = f32[4096,3]{1,0} fusion(f32[4096,13]{1,0} %fusion.19), kind=kLoop, calls=%fused_computation.17, metadata={op_name="jit(training_step)/jit(main)/jit(transpose(jvp(render_rays)))/jit(jit_transpose(jvp(render_rays)))/jit(transpose(jvp(_cumulative_reduction)))/jit(jit_transpose(jvp(_cumulative_reduction)))/add" source_file="/home/brent/tensorf-jax/tensorf/render.py" source_line=272}
  %fusion.16 = f32[4096,6]{1,0} fusion(f32[4096,3]{1,0} %fusion.17, f32[4096,13]{1,0} %fusion.19), kind=kLoop, calls=%fused_computation.16, metadata={op_name="jit(training_step)/jit(main)/jit(transpose(jvp(render_rays)))/jit(jit_transpose(jvp(render_rays)))/jit(transpose(jvp(_cumulative_reduction)))/jit(jit_transpose(jvp(_cumulative_reduction)))/pad[padding_config=((0, 0, 0), (0, 1, 1))]" source_file="/home/brent/tensorf-jax/tensorf/render.py" source_line=272}
  %pad.73 = f32[4096,6]{1,0} pad(f32[4096,3]{1,0} %fusion.17, f32[] %constant_70), padding=0_0_0x1_0_1, metadata={op_name="jit(training_step)/jit(main)/jit(transpose(jvp(render_rays)))/jit(jit_transpose(jvp(render_rays)))/jit(transpose(jvp(_cumulative_reduction)))/jit(jit_transpose(jvp(_cumulative_reduction)))/pad[padding_config=((0, 0, 0), (1, 0, 1))]" source_file="/home/brent/tensorf-jax/tensorf/render.py" source_line=272}
  %fusion.164 = (f32[4096,27]{1,0}, f32[4096,27]{1,0}) fusion(f32[4096,13]{1,0} %fusion.19, f32[4096,6]{1,0} %fusion.16, f32[4096,6]{1,0} %pad.73, f32[4096,55]{1,0} %fusion.21), kind=kLoop, calls=%fused_computation.164, metadata={op_name="jit(training_step)/jit(main)/jit(transpose(jvp(render_rays)))/jit(jit_transpose(jvp(render_rays)))/jit(transpose(jvp(_cumulative_reduction)))/jit(jit_transpose(jvp(_cumulative_reduction)))/pad[padding_config=((0, 0, 0), (1, 1, 1))]" source_file="/home/brent/tensorf-jax/tensorf/render.py" source_line=272}
  %get-tuple-element.155 = f32[4096,27]{1,0} get-tuple-element((f32[4096,27]{1,0}, f32[4096,27]{1,0}) %fusion.164), index=1
  %get-tuple-element.154 = f32[4096,27]{1,0} get-tuple-element((f32[4096,27]{1,0}, f32[4096,27]{1,0}) %fusion.164), index=0
  %fusion.165 = (f32[4096,110]{1,0}, f32[4096,110]{1,0}) fusion(f32[4096,55]{1,0} %fusion.21, f32[4096,27]{1,0} %get-tuple-element.155, f32[4096,27]{1,0} %get-tuple-element.154, f32[4096,221]{1,0} %fusion.23), kind=kLoop, calls=%fused_computation.165, metadata={op_name="jit(training_step)/jit(main)/jit(transpose(jvp(render_rays)))/jit(jit_transpose(jvp(render_rays)))/jit(transpose(jvp(_cumulative_reduction)))/jit(jit_transpose(jvp(_cumulative_reduction)))/pad[padding_config=((0, 0, 0), (1, 0, 1))]" source_file="/home/brent/tensorf-jax/tensorf/render.py" source_line=272}
  %get-tuple-element.153 = f32[4096,110]{1,0} get-tuple-element((f32[4096,110]{1,0}, f32[4096,110]{1,0}) %fusion.165), index=1
  %get-tuple-element.152 = f32[4096,110]{1,0} get-tuple-element((f32[4096,110]{1,0}, f32[4096,110]{1,0}) %fusion.165), index=0
  %fusion.10 = f32[3,4096,16,221]{2,1,0,3} fusion(f32[3,16,128,128]{3,2,1,0} %copy.51, f32[3,4096,221]{2,1,0} %get-tuple-element.203, f32[3,4096,221]{2,1,0} %get-tuple-element.201, f32[4096,221]{1,0} %fusion.114, f32[4096,221]{1,0} %fusion.115, /*index=5*/pred[4096]{0} %get-tuple-element.204, f32[4096]{0} %get-tuple-element.206, f32[4096]{0} %get-tuple-element.205, f32[4096,221]{1,0} %input_fusion_scatter.6, f32[4096,221]{1,0} %get-tuple-element.196, /*index=10*/f32[4096,221]{1,0} %fusion.23, f32[4096,110]{1,0} %get-tuple-element.153, f32[4096,110]{1,0} %get-tuple-element.152), kind=kLoop, calls=%fused_computation.10, metadata={op_name="jit(training_step)/jit(main)/jit(transpose(jvp(render_rays)))/jit(jit_transpose(jvp(render_rays)))/jit(transpose(jvp(interpolate)))/jit(jit_transpose(jvp(interpolate)))/mul" source_file="/home/brent/tensorf-jax/tensorf/tensor_vm.py" source_line=176}
  %input_fusion_scatter.5 = f32[3,16,128]{2,1,0} fusion(f32[3,4096,16,221]{2,1,0,3} %fusion.10, f32[3,4096,221]{2,1,0} %get-tuple-element.202), kind=kInput, calls=%input_fused_computation_scatter.5, metadata={op_name="jit(training_step)/jit(main)/jit(transpose(jvp(render_rays)))/jit(jit_transpose(jvp(render_rays)))/jit(transpose(jvp(interpolate)))/jit(jit_transpose(jvp(interpolate)))/jit(transpose(jvp(vmap(vmap(vmap(_map_coordinates))))))/jit(jit_transpose(jvp(vmap(vmap(vmap(_map_coordinates))))))/scatter-add[update_consts=() dimension_numbers=ScatterDimensionNumbers(update_window_dims=(2,), inserted_window_dims=(0, 2), scatter_dims_to_operand_dims=(0, 2)) indices_are_sorted=False unique_indices=False mode=GatherScatterMode.PROMISE_IN_BOUNDS]" source_file="/home/brent/tensorf-jax/tensorf/tensor_vm.py" source_line=222}
  %input_fusion_scatter.4 = f32[3,16,128]{2,1,0} fusion(f32[3,4096,16,221]{2,1,0,3} %fusion.10, f32[3,4096,221]{2,1,0} %get-tuple-element.202), kind=kInput, calls=%input_fused_computation_scatter.4, metadata={op_name="jit(training_step)/jit(main)/jit(transpose(jvp(render_rays)))/jit(jit_transpose(jvp(render_rays)))/jit(transpose(jvp(interpolate)))/jit(jit_transpose(jvp(interpolate)))/jit(transpose(jvp(vmap(vmap(vmap(_map_coordinates))))))/jit(jit_transpose(jvp(vmap(vmap(vmap(_map_coordinates))))))/scatter-add[update_consts=() dimension_numbers=ScatterDimensionNumbers(update_window_dims=(2,), inserted_window_dims=(0, 2), scatter_dims_to_operand_dims=(0, 2)) indices_are_sorted=False unique_indices=False mode=GatherScatterMode.PROMISE_IN_BOUNDS]" source_file="/home/brent/tensorf-jax/tensorf/tensor_vm.py" source_line=222}
  %Arg_21.22 = f32[3,16,128]{2,1,0} parameter(21)
  %fusion.7 = (f32[3,16,128]{2,1,0}, f32[3,16,128]{2,1,0}, f32[3,16,128]{2,1,0}) fusion(f32[3,16,128]{2,1,0} %copy.50, f32[] %get-tuple-element.186, f32[] %get-tuple-element.187, f32[] %get-tuple-element.184, f32[3,16,128]{2,1,0} %Arg_32.33, /*index=5*/f32[3,16,128]{2,1,0} %input_fusion_scatter.5, f32[3,16,128]{2,1,0} %input_fusion_scatter.4, f32[3,16,128]{2,1,0} %Arg_21.22), kind=kLoop, calls=%fused_computation.7, metadata={op_name="jit(training_step)/jit(main)/add" source_file="/home/brent/miniconda/envs/py38/lib/python3.8/site-packages/optax/_src/update.py" source_line=43}
  %get-tuple-element.231 = f32[3,16,128]{2,1,0} get-tuple-element((f32[3,16,128]{2,1,0}, f32[3,16,128]{2,1,0}, f32[3,16,128]{2,1,0}) %fusion.7), index=0
  %Arg_33.34 = f32[3,16,128,128]{3,2,1,0} parameter(33)
  %fusion.6 = f32[3,4096,16,221]{3,2,1,0} fusion(f32[3,16,128]{2,1,0} %copy.50, f32[3,4096,221]{2,1,0} %get-tuple-element.202, f32[4096,221]{1,0} %fusion.114, f32[4096,221]{1,0} %fusion.115, pred[4096]{0} %get-tuple-element.204, /*index=5*/f32[4096]{0} %get-tuple-element.206, f32[4096]{0} %get-tuple-element.205, f32[4096,221]{1,0} %input_fusion_scatter.6, f32[4096,221]{1,0} %get-tuple-element.196, f32[4096,221]{1,0} %fusion.23, /*index=10*/f32[4096,110]{1,0} %get-tuple-element.153, f32[4096,110]{1,0} %get-tuple-element.152), kind=kLoop, calls=%fused_computation.6, metadata={op_name="jit(training_step)/jit(main)/jit(transpose(jvp(render_rays)))/jit(jit_transpose(jvp(render_rays)))/jit(transpose(jvp(interpolate)))/jit(jit_transpose(jvp(interpolate)))/mul" source_file="/home/brent/tensorf-jax/tensorf/tensor_vm.py" source_line=176}
  %input_fusion_scatter.3 = f32[3,16,128,128]{3,2,1,0} fusion(f32[3,4096,16,221]{3,2,1,0} %fusion.6, f32[3,4096,221]{2,1,0} %get-tuple-element.203, f32[3,4096,221]{2,1,0} %get-tuple-element.201), kind=kInput, calls=%input_fused_computation_scatter.3, metadata={op_name="jit(training_step)/jit(main)/jit(transpose(jvp(render_rays)))/jit(jit_transpose(jvp(render_rays)))/jit(transpose(jvp(interpolate)))/jit(jit_transpose(jvp(interpolate)))/jit(transpose(jvp(vmap(vmap(vmap(_map_coordinates))))))/jit(jit_transpose(jvp(vmap(vmap(vmap(_map_coordinates))))))/scatter-add[update_consts=() dimension_numbers=ScatterDimensionNumbers(update_window_dims=(2,), inserted_window_dims=(0, 2, 3), scatter_dims_to_operand_dims=(0, 2, 3)) indices_are_sorted=False unique_indices=False mode=GatherScatterMode.PROMISE_IN_BOUNDS]" source_file="/home/brent/tensorf-jax/tensorf/tensor_vm.py" source_line=222}
  %input_fusion_scatter.2 = f32[3,16,128,128]{3,2,1,0} fusion(f32[3,4096,16,221]{3,2,1,0} %fusion.6, f32[3,4096,221]{2,1,0} %get-tuple-element.203, f32[3,4096,221]{2,1,0} %get-tuple-element.201), kind=kInput, calls=%input_fused_computation_scatter.2, metadata={op_name="jit(training_step)/jit(main)/jit(transpose(jvp(render_rays)))/jit(jit_transpose(jvp(render_rays)))/jit(transpose(jvp(interpolate)))/jit(jit_transpose(jvp(interpolate)))/jit(transpose(jvp(vmap(vmap(vmap(_map_coordinates))))))/jit(jit_transpose(jvp(vmap(vmap(vmap(_map_coordinates))))))/scatter-add[update_consts=() dimension_numbers=ScatterDimensionNumbers(update_window_dims=(2,), inserted_window_dims=(0, 2, 3), scatter_dims_to_operand_dims=(0, 2, 3)) indices_are_sorted=False unique_indices=False mode=GatherScatterMode.PROMISE_IN_BOUNDS]" source_file="/home/brent/tensorf-jax/tensorf/tensor_vm.py" source_line=222}
  %input_fusion_scatter.1 = f32[3,16,128,128]{3,2,1,0} fusion(f32[3,4096,16,221]{3,2,1,0} %fusion.6, f32[3,16,128,128]{3,2,1,0} %input_fusion_scatter.3, f32[3,16,128,128]{3,2,1,0} %input_fusion_scatter.2, f32[3,4096,221]{2,1,0} %get-tuple-element.203, f32[3,4096,221]{2,1,0} %get-tuple-element.201), kind=kInput, calls=%input_fused_computation_scatter.1, metadata={op_name="jit(training_step)/jit(main)/jit(transpose(jvp(render_rays)))/jit(jit_transpose(jvp(render_rays)))/jit(transpose(jvp(interpolate)))/jit(jit_transpose(jvp(interpolate)))/jit(transpose(jvp(vmap(vmap(vmap(_map_coordinates))))))/jit(jit_transpose(jvp(vmap(vmap(vmap(_map_coordinates))))))/scatter-add[update_consts=() dimension_numbers=ScatterDimensionNumbers(update_window_dims=(2,), inserted_window_dims=(0, 2, 3), scatter_dims_to_operand_dims=(0, 2, 3)) indices_are_sorted=False unique_indices=False mode=GatherScatterMode.PROMISE_IN_BOUNDS]" source_file="/home/brent/tensorf-jax/tensorf/tensor_vm.py" source_line=222}
  %input_fusion_scatter = f32[3,16,128,128]{3,2,1,0} fusion(f32[3,4096,16,221]{3,2,1,0} %fusion.6, f32[3,4096,221]{2,1,0} %get-tuple-element.203, f32[3,4096,221]{2,1,0} %get-tuple-element.201), kind=kInput, calls=%input_fused_computation_scatter, metadata={op_name="jit(training_step)/jit(main)/jit(transpose(jvp(render_rays)))/jit(jit_transpose(jvp(render_rays)))/jit(transpose(jvp(interpolate)))/jit(jit_transpose(jvp(interpolate)))/jit(transpose(jvp(vmap(vmap(vmap(_map_coordinates))))))/jit(jit_transpose(jvp(vmap(vmap(vmap(_map_coordinates))))))/scatter-add[update_consts=() dimension_numbers=ScatterDimensionNumbers(update_window_dims=(2,), inserted_window_dims=(0, 2, 3), scatter_dims_to_operand_dims=(0, 2, 3)) indices_are_sorted=False unique_indices=False mode=GatherScatterMode.PROMISE_IN_BOUNDS]" source_file="/home/brent/tensorf-jax/tensorf/tensor_vm.py" source_line=222}
  %Arg_22.23 = f32[3,16,128,128]{3,2,1,0} parameter(22)
  %fusion.3 = (f32[3,16,128,128]{3,2,1,0}, f32[3,16,128,128]{3,2,1,0}, f32[3,16,128,128]{3,2,1,0}) fusion(f32[3,16,128,128]{3,2,1,0} %copy.51, f32[] %get-tuple-element.186, f32[] %get-tuple-element.187, f32[] %get-tuple-element.184, f32[3,16,128,128]{3,2,1,0} %Arg_33.34, /*index=5*/f32[3,16,128,128]{3,2,1,0} %input_fusion_scatter.1, f32[3,16,128,128]{3,2,1,0} %input_fusion_scatter, f32[3,16,128,128]{3,2,1,0} %Arg_22.23), kind=kLoop, calls=%fused_computation.3, metadata={op_name="jit(training_step)/jit(main)/add" source_file="/home/brent/miniconda/envs/py38/lib/python3.8/site-packages/optax/_src/update.py" source_line=43}
  %get-tuple-element.232 = f32[3,16,128,128]{3,2,1,0} get-tuple-element((f32[3,16,128,128]{3,2,1,0}, f32[3,16,128,128]{3,2,1,0}, f32[3,16,128,128]{3,2,1,0}) %fusion.3), index=0
  %get-tuple-element.233 = s32[] get-tuple-element((f32[], f32[], s32[]) %fusion.56), index=2
  %get-tuple-element.234 = f32[144,27]{1,0} get-tuple-element((f32[144,27]{1,0}, f32[144,27]{1,0}, f32[144,27]{1,0}) %fusion.54), index=2
  %get-tuple-element.235 = f32[128]{0} get-tuple-element((f32[128]{0}, f32[128]{0}, f32[128]{0}, f32[128]{0}, f32[128]{0}, /*index=5*/f32[128]{0}) %fusion.45), index=5
  %get-tuple-element.236 = f32[150,128]{1,0} get-tuple-element((f32[150,128]{1,0}, f32[150,128]{1,0}, f32[150,128]{1,0}) %fusion.48), index=2
  %get-tuple-element.237 = f32[128]{0} get-tuple-element((f32[128]{0}, f32[128]{0}, f32[128]{0}, f32[128]{0}, f32[128]{0}, /*index=5*/f32[128]{0}) %fusion.45), index=2
  %get-tuple-element.238 = f32[128,128]{1,0} get-tuple-element((f32[128,128]{1,0}, f32[128,128]{1,0}, f32[128,128]{1,0}) %fusion.42), index=2
  %get-tuple-element.239 = f32[3]{0} get-tuple-element((f32[3]{0}, f32[3]{0}, f32[3]{0}) %fusion.39), index=2
  %get-tuple-element.240 = f32[128,3]{1,0} get-tuple-element((f32[128,3]{1,0}, f32[128,3]{1,0}, f32[128,3]{1,0}) %fusion.36), index=2
  %get-tuple-element.241 = f32[3,48,128]{2,1,0} get-tuple-element((f32[3,48,128]{2,1,0}, f32[3,48,128]{2,1,0}, f32[3,48,128]{2,1,0}) %fusion.31), index=2
  %get-tuple-element.242 = f32[3,48,128,128]{3,2,1,0} get-tuple-element((f32[3,48,128,128]{3,2,1,0}, f32[3,48,128,128]{3,2,1,0}, f32[3,48,128,128]{3,2,1,0}) %fusion.27), index=2
  %get-tuple-element.243 = f32[3,16,128]{2,1,0} get-tuple-element((f32[3,16,128]{2,1,0}, f32[3,16,128]{2,1,0}, f32[3,16,128]{2,1,0}) %fusion.7), index=2
  %get-tuple-element.244 = f32[3,16,128,128]{3,2,1,0} get-tuple-element((f32[3,16,128,128]{3,2,1,0}, f32[3,16,128,128]{3,2,1,0}, f32[3,16,128,128]{3,2,1,0}) %fusion.3), index=2
  %get-tuple-element.245 = f32[144,27]{1,0} get-tuple-element((f32[144,27]{1,0}, f32[144,27]{1,0}, f32[144,27]{1,0}) %fusion.54), index=1
  %get-tuple-element.246 = f32[128]{0} get-tuple-element((f32[128]{0}, f32[128]{0}, f32[128]{0}, f32[128]{0}, f32[128]{0}, /*index=5*/f32[128]{0}) %fusion.45), index=4
  %get-tuple-element.247 = f32[150,128]{1,0} get-tuple-element((f32[150,128]{1,0}, f32[150,128]{1,0}, f32[150,128]{1,0}) %fusion.48), index=1
  %get-tuple-element.248 = f32[128]{0} get-tuple-element((f32[128]{0}, f32[128]{0}, f32[128]{0}, f32[128]{0}, f32[128]{0}, /*index=5*/f32[128]{0}) %fusion.45), index=1
  %get-tuple-element.249 = f32[128,128]{1,0} get-tuple-element((f32[128,128]{1,0}, f32[128,128]{1,0}, f32[128,128]{1,0}) %fusion.42), index=1
  %get-tuple-element.250 = f32[3]{0} get-tuple-element((f32[3]{0}, f32[3]{0}, f32[3]{0}) %fusion.39), index=1
  %get-tuple-element.251 = f32[128,3]{1,0} get-tuple-element((f32[128,3]{1,0}, f32[128,3]{1,0}, f32[128,3]{1,0}) %fusion.36), index=1
  %get-tuple-element.252 = f32[3,48,128]{2,1,0} get-tuple-element((f32[3,48,128]{2,1,0}, f32[3,48,128]{2,1,0}, f32[3,48,128]{2,1,0}) %fusion.31), index=1
  %get-tuple-element.253 = f32[3,48,128,128]{3,2,1,0} get-tuple-element((f32[3,48,128,128]{3,2,1,0}, f32[3,48,128,128]{3,2,1,0}, f32[3,48,128,128]{3,2,1,0}) %fusion.27), index=1
  %get-tuple-element.254 = f32[3,16,128]{2,1,0} get-tuple-element((f32[3,16,128]{2,1,0}, f32[3,16,128]{2,1,0}, f32[3,16,128]{2,1,0}) %fusion.7), index=1
  %get-tuple-element.255 = f32[3,16,128,128]{3,2,1,0} get-tuple-element((f32[3,16,128,128]{3,2,1,0}, f32[3,16,128,128]{3,2,1,0}, f32[3,16,128,128]{3,2,1,0}) %fusion.3), index=1
  %get-tuple-element.257 = u32[2]{0} get-tuple-element((u32[2]{0}, u32[2]{0}, u32[2]{0}) %fusion.2), index=0
  %get-tuple-element.258 = s32[] get-tuple-element((f32[], f32[], s32[]) %fusion.166), index=2
  %get-tuple-element.259 = f32[] get-tuple-element((f32[], f32[], s32[]) %fusion.166), index=0
  %constant_43 = f32[] constant(0.02)
  %multiply.2265 = f32[] multiply(f32[] %get-tuple-element.184, f32[] %constant_43), metadata={op_name="jit(training_step)/jit(main)/mul" source_file="/home/brent/tensorf-jax/tensorf/training.py" source_line=355}
  %input_fusion_reduce = f32[] fusion(f32[4096,3]{1,0} %fusion.66), kind=kInput, calls=%input_fused_computation_reduce, metadata={op_name="jit(training_step)/jit(main)/reduce_sum[axes=(0, 1)]" source_file="/home/brent/tensorf-jax/tensorf/training.py" source_line=291}
  %fusion.1 = (f32[], f32[]) fusion(f32[] %input_fusion_reduce), kind=kLoop, calls=%fused_computation.1, metadata={op_name="jit(training_step)/jit(main)/mul" source_file="/home/brent/tensorf-jax/tensorf/utils.py" source_line=17}
  %get-tuple-element.261 = f32[] get-tuple-element((f32[], f32[]) %fusion.1), index=1
  %get-tuple-element.262 = f32[] get-tuple-element((f32[], f32[]) %fusion.1), index=0
  ROOT %tuple.91 = (f32[144,27]{1,0}, f32[128]{0}, f32[150,128]{1,0}, f32[128]{0}, f32[128,128]{1,0}, /*index=5*/f32[3]{0}, f32[128,3]{1,0}, f32[3,48,128]{2,1,0}, f32[3,48,128,128]{3,2,1,0}, f32[3,16,128]{2,1,0}, /*index=10*/f32[3,16,128,128]{3,2,1,0}, s32[], f32[144,27]{1,0}, f32[128]{0}, f32[150,128]{1,0}, /*index=15*/f32[128]{0}, f32[128,128]{1,0}, f32[3]{0}, f32[128,3]{1,0}, f32[3,48,128]{2,1,0}, /*index=20*/f32[3,48,128,128]{3,2,1,0}, f32[3,16,128]{2,1,0}, f32[3,16,128,128]{3,2,1,0}, f32[144,27]{1,0}, f32[128]{0}, /*index=25*/f32[150,128]{1,0}, f32[128]{0}, f32[128,128]{1,0}, f32[3]{0}, f32[128,3]{1,0}, /*index=30*/f32[3,48,128]{2,1,0}, f32[3,48,128,128]{3,2,1,0}, f32[3,16,128]{2,1,0}, f32[3,16,128,128]{3,2,1,0}, f32[2,3]{1,0}, /*index=35*/u32[2]{0}, s32[], f32[], f32[], f32[], /*index=40*/f32[]) tuple(f32[144,27]{1,0} %get-tuple-element.222, f32[128]{0} %get-tuple-element.223, f32[150,128]{1,0} %get-tuple-element.224, f32[128]{0} %get-tuple-element.225, f32[128,128]{1,0} %get-tuple-element.226, /*index=5*/f32[3]{0} %get-tuple-element.227, f32[128,3]{1,0} %get-tuple-element.228, f32[3,48,128]{2,1,0} %get-tuple-element.229, f32[3,48,128,128]{3,2,1,0} %get-tuple-element.230, f32[3,16,128]{2,1,0} %get-tuple-element.231, /*index=10*/f32[3,16,128,128]{3,2,1,0} %get-tuple-element.232, s32[] %get-tuple-element.233, f32[144,27]{1,0} %get-tuple-element.234, f32[128]{0} %get-tuple-element.235, f32[150,128]{1,0} %get-tuple-element.236, /*index=15*/f32[128]{0} %get-tuple-element.237, f32[128,128]{1,0} %get-tuple-element.238, f32[3]{0} %get-tuple-element.239, f32[128,3]{1,0} %get-tuple-element.240, f32[3,48,128]{2,1,0} %get-tuple-element.241, /*index=20*/f32[3,48,128,128]{3,2,1,0} %get-tuple-element.242, f32[3,16,128]{2,1,0} %get-tuple-element.243, f32[3,16,128,128]{3,2,1,0} %get-tuple-element.244, f32[144,27]{1,0} %get-tuple-element.245, f32[128]{0} %get-tuple-element.246, /*index=25*/f32[150,128]{1,0} %get-tuple-element.247, f32[128]{0} %get-tuple-element.248, f32[128,128]{1,0} %get-tuple-element.249, f32[3]{0} %get-tuple-element.250, f32[128,3]{1,0} %get-tuple-element.251, /*index=30*/f32[3,48,128]{2,1,0} %get-tuple-element.252, f32[3,48,128,128]{3,2,1,0} %get-tuple-element.253, f32[3,16,128]{2,1,0} %get-tuple-element.254, f32[3,16,128,128]{3,2,1,0} %get-tuple-element.255, f32[2,3]{1,0} %Arg_34.35, /*index=35*/u32[2]{0} %get-tuple-element.257, s32[] %get-tuple-element.258, f32[] %get-tuple-element.259, f32[] %multiply.2265, f32[] %get-tuple-element.261, /*index=40*/f32[] %get-tuple-element.262)
}

